new/checkpoint/simulator.pth (torch, 600069 bytes, 227 tensors)

model.encoder.eb_encoder.0.0.weight f4 [32, 11]
0	0x3dec72d1	0.11545337
1	0xbdaf1a6d	-0.08549962
2	0x3e65ee9a	0.224543
3	0x3dc6f2ff	0.097143166
4	0x3e1bf913	0.15231733
5	0x3e769253	0.24079256
6	0x3dd8f7b4	0.105941206
7	0x3db0904d	0.08621273
8	0x3e85189c	0.25995338
9	0x3e01ff28	0.1269499
10	0x3e46a40c	0.19398516
11	0x3e1623f8	0.14662158
12	0xbdeb2328	-0.11481315
13	0x3e1f167a	0.15535918
14	0x3d9745fc	0.07386395
15	0x3e966aae	0.29378265
16	0xbde53178	-0.11191076
17	0xbd55f0ab	-0.052231472
18	0xbd793e05	-0.060850162
19	0xbd7bcb0e	-0.061472945
20	0xbe58aaad	-0.21158858
21	0x3d15ef09	0.036604915
22	0x3e4e9666	0.2017456
23	0xbe02e646	-0.12783155
24	0xbd97a834	-0.07405129
25	0xbd933933	-0.07188644
26	0x3e13cee7	0.14434396
27	0x3e1ea54c	0.15492743
28	0xbe35ee51	-0.17766692
29	0xbd4f7de5	-0.05065717
30	0xbe17206b	-0.1475846
31	0xbc4e66a8	-0.012597717
32	0x3c4ce2ea	0.012505272
33	0xbe7d8a32	-0.24759749
34	0x3dfb3409	0.12265784
35	0x3e895aad	0.26826993
36	0x3e6f548c	0.23372096
37	0xbe0ce975	-0.13760932
38	0x3e3054b7	0.17219816
39	0x3e118ec7	0.14214621
40	0xbe2fd667	-0.17171632
41	0x3da93ff9	0.08264155
42	0xbe379554	-0.17928058
43	0x3e21f911	0.15817668
44	0xbbb0d66c	-0.005396655
45	0x3e26db2b	0.16294543
46	0xbe8eaa17	-0.27864143
47	0xbd50a8c5	-0.0509422
48	0xb9911560	-0.0002767248
49	0xbe27d6a4	-0.16390473
50	0x3e449ed0	0.19201207
51	0xbe61155d	-0.21980806
52	0x3e84f4ba	0.25967962
53	0x3dd7c355	0.105353035
54	0xbd03af31	-0.032149497
55	0xbe8be654	-0.27324164
56	0xbe74ae99	-0.23894729
57	0x3e31f3d9	0.17378177
58	0x3e8885d7	0.26664612
59	0xbe88e08d	-0.2673382
60	0x3e0bcda9	0.13652672
61	0x3be91735	0.007113362
62	0xbe955199	-0.29163817
63	0xbe5aa867	-0.21353303
64	0xbe33e7de	-0.17568919
65	0xbd4866af	-0.04892605
66	0x3e6e67f2	0.2328184
67	0x3e32a1c8	0.17444527
68	0x3a55ff68	0.00081633637
69	0x3d030a27	0.031992104
70	0x3e8490e8	0.25891805
71	0xbe6b7188	-0.22992527
72	0x3e85ec7e	0.26156992
73	0xbe96abd3	-0.29427966
74	0xbe68fac3	-0.22751908
75	0xbe6f488e	-0.23367521
76	0x3d5e5f91	0.054290358
77	0xbd905936	-0.07048266
78	0xbe0b0033	-0.13574295
79	0x3dbb7092	0.091523305
80	0x3b31b53d	0.0027116083
81	0x3c964c9e	0.01834708
82	0x3de33fb1	0.110961325
83	0xbe868933	-0.2627655
84	0xbe206082	-0.15661815
85	0x3e0da6b9	0.13833131
86	0x3d7534da	0.059864856
87	0x3d88344c	0.066506
88	0x3e5b5164	0.21417767
89	0x3e260c6b	0.16215675
90	0xbe7c9304	-0.24665457
91	0xbd20b266	-0.039232634
92	0x3e65f8df	0.22458218
93	0x3d115508	0.035481483
94	0xbc7d1f02	-0.015449287
95	0xbe24a111	-0.16077067
96	0xbe479dd0	-0.19493794
97	0x3da17453	0.07883515
98	0xbe0f7c10	-0.1401217
99	0x3df89d2f	0.121393554
100	0xbdd19ad3	-0.102346085
101	0xbdd98e54	-0.1062285
102	0x3e8a1d62	0.26975542
103	0x3e55b77f	0.2087078
104	0x3e440f03	0.19146352
105	0x3e0ee4d1	0.13954474
106	0x3d7d69b6	0.061868392
107	0x3d41b90a	0.047295608
108	0x3d77a288	0.060457736
109	0xbe8d3f83	-0.27587518
110	0x3bdb9c1b	0.006701959
111	0xbe46dd06	-0.19420251
112	0x3e85d190	0.26136446
113	0x3e909eb6	0.28246087
114	0xbd77b3f2	-0.060474344
115	0x3db2ff30	0.087400794
116	0x3e45140e	0.19245932
117	0x3e457710	0.192837
118	0xbd7e4752	-0.062079735
119	0xbbabe244	-0.005245479
120	0x3db374c2	0.08762504
121	0x3cecac67	0.028890802
122	0x3e7a5d53	0.24449663
123	0xbdc2e7fb	-0.09516903
124	0xbdd13da4	-0.10216835
125	0x3e1a9abf	0.15098093
126	0xbe081fc2	-0.13293365
127	0x3de6332f	0.11240231
128	0x3e1dae3c	0.15398496
129	0xbe77db68	-0.2420479
130	0xbcccb333	-0.024987793
131	0x3e75d8d4	0.24008495
132	0x3cbf596b	0.023358067
133	0xbe2cb07b	-0.16864197
134	0x3e98904f	0.297976
135	0xbc85de89	-0.016341465
136	0x3d900f9b	0.070342265
137	0x3e22f825	0.15914972
138	0x3e5d8fff	0.21636961
139	0xbe99b21a	-0.30018693
140	0x3ddb087b	0.10694977
141	0x3e2b6326	0.16737041
142	0xbe1072cd	-0.14106293
143	0x3e55f599	0.2089447
144	0xbe91aadf	-0.28450677
145	0xbd127b0b	-0.035761874
146	0xbe9909eb	-0.2989038
147	0xbdba80b8	-0.091065824
148	0xbe13bf9e	-0.14428565
149	0xbd3c6f41	-0.046004537
150	0x3e862be4	0.2620536
151	0xbd96a300	-0.073553085
152	0xbe40c6ef	-0.18825887
153	0x3d88b398	0.0667488
154	0xbe677784	-0.22604185
155	0xbe8a8677	-0.27055714
156	0xbe8d450d	-0.27591744
157	0xbdf32ac9	-0.11873395
158	0xbe6c8e9a	-0.23101273
159	0x3e70fd11	0.23534037
160	0x3e3ed3e0	0.18635511
161	0xbe326a64	-0.17423397
162	0x3d86cf15	0.065824665
163	0x3e9a1b9f	0.30099198
164	0x3e289a89	0.164652
165	0x3d6f5c3a	0.058437563
166	0xbe743527	-0.23848401
167	0x3d32a8bf	0.04361796
168	0x3e6ac9ff	0.22928618
169	0x3c4965fd	0.012292382
170	0x3e48ac5a	0.19596997
171	0xbe5ca6a2	-0.2154794
172	0xbd61131f	-0.054949876
173	0x3e3ac449	0.1823894
174	0xbe732917	-0.23746143
175	0x3d2ece94	0.042677477
176	0x3cde5547	0.027140273
177	0xbe231547	-0.15926085
178	0xbe3e8068	-0.1860367
179	0x3e994f84	0.29943478
180	0xbe020d1e	-0.12700316
181	0x3decbc9c	0.11559412
182	0xbe615b55	-0.22007497
183	0x3dbd1e82	0.092343345
184	0x3d0558aa	0.03255526
185	0x3d724938	0.059151858
186	0xbe2f1b6d	-0.17100306
187	0x3e12de44	0.143426
188	0x3dabea41	0.0839429
189	0x3bd4a762	0.00648968
190	0xbda561ad	-0.08075271
191	0xbd7a23e2	-0.061069377
192	0x3e504304	0.20338064
193	0xbe0efe19	-0.13964118
194	0xbdf5ff56	-0.12011592
195	0xbda2cc4b	-0.07949122
196	0xbe206f5c	-0.1566748
197	0x3b7dedd9	0.0038746505
198	0x3e2ee2db	0.17078726
199	0xbe9a193b	-0.30097374
200	0x3e85440d	0.2602848
201	0x3e88eb96	0.26742238
202	0xbe343db4	-0.17601663
203	0xbe69a5a7	-0.22817098
204	0xbe23471a	-0.15945092
205	0xbe4c53f8	-0.19953907
206	0x3c69d333	0.014271545
207	0xbe5950f6	-0.2122229
208	0xbe864f1d	-0.26232234
209	0x3a83818d	0.0010033116
210	0x3e15bacf	0.14622043
211	0xbe200ed6	-0.1563066
212	0x3e1e2c0d	0.15446492
213	0xbe4ea64c	-0.20180625
214	0xbe674b9e	-0.2258744
215	0xbe92245d	-0.28543368
216	0x3d572dbf	0.05253386
217	0x3e63c1b1	0.22241856
218	0x3d5ad786	0.053428195
219	0xbe90c5e9	-0.28275993
220	0x3dc841f5	0.09778205
221	0x3e2361da	0.15955296
222	0x3e49dee7	0.19713937
223	0xbdf816b5	-0.12113706
224	0xbe54d683	-0.20784955
225	0xbe634fae	-0.22198364
226	0x3e8fc91c	0.28083122
227	0xbe0063c8	-0.12538064
228	0xbde55a22	-0.11198832
229	0xbd3881e7	-0.04504576
230	0xbe422a66	-0.18961486
231	0x3e40c483	0.18824963
232	0x3dca5676	0.09879772
233	0x3e0aa7c1	0.13540556
234	0xbdac2ed9	-0.08407373
235	0xbdafb480	-0.085793495
236	0xbd8f5125	-0.06997899
237	0x3cb68d34	0.022284128
238	0xbe4744b7	-0.19459806
239	0xbe2eeb15	-0.17081864
240	0x3e90d0b1	0.2828422
241	0xbc2788ef	-0.010225519
242	0xbe909a28	-0.28242612
243	0xbd7af0e0	-0.061264873
244	0x3e360d7f	0.17778586
245	0x3d54d80a	0.051963843
246	0xbdcd33d5	-0.10019652
247	0xbe387c8d	-0.18016262
248	0x3e143cef	0.1447637
249	0xbe41df9f	-0.18932961
250	0xbe7ac785	-0.24490173
251	0x3e894b98	0.26815486
252	0xbe97c0c2	-0.2963925
253	0x3e12d365	0.14338453
254	0x3e95f7af	0.2929053
255	0xbd11dd6d	-0.03561156

model.encoder.eb_encoder.0.0.bias f4 [32]
0	0xbe959e71	-0.29222444
1	0x3d0f29b9	0.0349519
2	0xbdd139ed	-0.102161266
3	0x3cb14500	0.021639347
4	0xbe499da3	-0.1968904
5	0x3d8d187e	0.06889437
6	0x3e140d38	0.14458168
7	0x3e8036f5	0.2504193
8	0x3e34bd60	0.17650366
9	0xbd355cc1	-0.04427791
10	0x3e46be5f	0.19408558
11	0x3e7cbc6d	0.24681254
12	0x3e96cbbb	0.2945231
13	0x3e95fa30	0.2929244
14	0xbcd580ff	-0.026062487
15	0xbdc7f6dc	-0.097638816
16	0xbdcbeeb5	-0.09957639
17	0xbd20aa42	-0.03922487
18	0x3e95d22e	0.29261917
19	0x3c1ad9f5	0.009451379
20	0x3e2c2059	0.16809215
21	0xbe69f51e	-0.22847411
22	0x3df3e7f2	0.119094744
23	0x3e033fae	0.1281726
24	0xbe89d9f8	-0.2692411
25	0xbb7c2427	-0.0038473697
26	0x3e19e522	0.15028813
27	0xbdce460f	-0.10071956
28	0xbc9d9c40	-0.019239545
29	0x3e70d547	0.23518859
30	0x3e8572bc	0.26064098
31	0x3da9042e	0.0825275

model.encoder.eb_encoder.0.2.weight f4 [32, 32]
0	0xbe1a6456	-0.15077338
1	0xbe106399	-0.14100493
2	0x3df8dda0	0.121516466
3	0xbd3bbf5a	-0.045836784
4	0xbe04bf6a	-0.12963644
5	0xbdf6d72c	-0.120527595
6	0x3ba5f6b0	0.005064808
7	0x3e0d6a59	0.138101
8	0xbe271f48	-0.16320527
9	0x3d34aed1	0.04411203
10	0x3b40b9ab	0.0029407542
11	0x3e22436c	0.15846032
12	0xbd5c0103	-0.053711902
13	0x3d2223be	0.039584868
14	0x3e149177	0.14508615
15	0x3d1039bc	0.03521131
16	0x3b157b8f	0.0022809242
17	0xbcde731c	-0.027154498
18	0xbe34624b	-0.17615621
19	0x3dd49227	0.10379439
20	0xbde0313d	-0.109468915
21	0x3c930adf	0.01794952
22	0x3d4b8d3d	0.049695242
23	0xbe19f31d	-0.15034147
24	0xbd812a64	-0.063069135
25	0x3e1e2469	0.15443577
26	0xbc870e62	-0.01648635
27	0xbcdcb2a0	-0.026940644
28	0xbd08adda	-0.033368923
29	0x3df9259e	0.12165378
30	0x3e19a0b8	0.15002716
31	0x3e20813f	0.15674303
32	0xbe0f23df	-0.13978527
33	0xbd093582	-0.033498295
34	0xbd44d610	-0.04805571
35	0x3dc6c239	0.09705014
36	0xbdf05b15	-0.117361225
37	0x3db3fee9	0.08788855
38	0xbe253f53	-0.16137438
39	0xbd1430e6	-0.036179446
40	0xbe230c0e	-0.15922567
41	0xbcd48942	-0.025944356
42	0xbda0f22c	-0.078586906
43	0x3d825ae6	0.06364994
44	0xbafbcf63	-0.0019211586
45	0x3dfedf13	0.12444892
46	0x3dcdfa33	0.10057487
47	0x3d8711f9	0.06595225
48	0x3dc9dd65	0.09856681
49	0x3bea4132	0.007148885
50	0x3befc796	0.0073174937
51	0xbddf3777	-0.10899251
52	0x3dc95d2d	0.09832225
53	0xbe29b038	-0.16571128
54	0x3e2d3576	0.16914925
55	0xbc06ce2b	-0.008227865
56	0x3e1f2258	0.15540445
57	0x3dd5caa6	0.10439043
58	0x3dde76b0	0.108624816
59	0x3b297177	0.0025854984
60	0x3cc40c19	0.02393155
61	0xbe02e244	-0.12781626
62	0x3e00aaa1	0.1256509
63	0xbe136780	-0.14394951
64	0xbc719e41	-0.014747203
65	0x3d034bca	0.0320547
66	0xbd0e1965	-0.034692187
67	0x3c93b81d	0.018032128
68	0x3dc45211	0.095859654
69	0x3e02abb4	0.12760812
70	0xbdbc660d	-0.09199152
71	0x3e2149e2	0.1575084
72	0x3d2f84a3	0.0428511
73	0x3d0849c6	0.03327348
74	0x3d7f3c94	0.06231363
75	0x3e036bc5	0.1283408
76	0x3db2e987	0.08735948
77	0xbd8daac1	-0.06917334
78	0xbcbd168a	-0.023082037
79	0xbdfaa2b4	-0.122380644
80	0xbe110c12	-0.1416476
81	0xbcbaec42	-0.022817735
82	0x3d9aaba9	0.07552273
83	0xbba19948	-0.0049316026
84	0xbd207890	-0.039177477
85	0x3e345493	0.17610388
86	0x3de57f9a	0.11205979
87	0xbcc981d3	-0.024598038
88	0xb9398c9b	-0.00017695354
89	0x3d9d795a	0.076891616
90	0x3d240efb	0.04005335
91	0x3e0ff9f5	0.14060195
92	0x3ca94fbf	0.020667909
93	0x3c8d87cc	0.017276667
94	0x3c9469d2	0.018116865
95	0xbe20a32b	-0.15687244
96	0xb9ff9ba9	-0.00048753366
97	0x3dce9d5b	0.10088607
98	0xbe2b8934	-0.16751558
99	0xbc39477c	-0.011308547
100	0xbe2da314	-0.1695674
101	0xbdefc881	-0.11708165
102	0xbc1e31af	-0.0096554
103	0xbe01b653	-0.12667207
104	0xbd0b3546	-0.033986352
105	0x3a8bc230	0.0010662731
106	0xbdc2f1a7	-0.09518748
107	0xbe33f2a4	-0.17573029
108	0x3e2c9b7f	0.16856192
109	0x3d631805	0.05544283
110	0xbdbed55e	-0.0931804
111	0x3c6202bf	0.0137946
112	0xbe18e906	-0.14932641
113	0xbe2cd0d8	-0.16876543
114	0xbdace66b	-0.08442386
115	0xbd1e9cf1	-0.03872389
116	0xbe1abb2d	-0.15110464
117	0xbe27ed1c	-0.16399044
118	0xbcb2c596	-0.021822732
119	0x3d8c16b0	0.06840265
120	0xbdfa3f0b	-0.12219056
121	0x3d7ed28e	0.06221252
122	0xbe0e6547	-0.13905822
123	0x3d8a2d4e	0.067469224
124	0x3db32843	0.08747914
125	0x3e190887	0.14944659
126	0x3daeeca1	0.08541227
127	0x3d6a97e7	0.05727377
128	0xbbf6d4a7	-0.0075326744
129	0xbde38c5d	-0.111107565
130	0x3cefa967	0.029255582
131	0x3d0d6039	0.034515593
132	0xbe110be2	-0.14164689
133	0x3e0ec5a4	0.13942581
134	0xbe1f0605	-0.1552964
135	0xbe094a25	-0.1340719
136	0x3db1f4b1	0.08689249
137	0x3dc017a1	0.09379507
138	0xbc185a27	-0.009298838
139	0xbae21127	-0.0017247543
140	0x3e241f81	0.16027643
141	0xbd67b24e	-0.05656653
142	0x3a90d525	0.001104985
143	0xbdef6ac4	-0.11690286
144	0x3cfb71e0	0.030693948
145	0xbd8efc69	-0.06981737
146	0x3dcda945	0.10042051
147	0xbde77611	-0.11301816
148	0xbe106d29	-0.14104141
149	0xbd3c9398	-0.046039194
150	0x3e23e21c	0.16004223
151	0xbe169832	-0.14706495
152	0xbe31a809	-0.17349257
153	0xbde903ba	-0.11377664
154	0x3d7a1c13	0.06106193
155	0xbd1df99a	-0.038568117
156	0xbdeca442	-0.11554767
157	0xbb764549	-0.0037577918
158	0x3d40476d	0.046943117
159	0xbc93a26a	-0.018021781
160	0xbd8b4143	-0.06799557
161	0x3e05a6cb	0.13051908
162	0xbc2df716	-0.010617992
163	0xbe2e293b	-0.17007916
164	0xbde4b45d	-0.11167214
165	0xbcccf1a5	-0.025017569
166	0xbda69bb8	-0.0813517
167	0xbdf75101	-0.12075997
168	0x3d47ecda	0.048809864
169	0xbe0fff92	-0.14062336
170	0x3e152115	0.14563401
171	0x3def0afa	0.116720155
172	0x3cbc27d9	0.02296822
173	0xbda9718e	-0.08273612
174	0x3e1799f1	0.14804818
175	0xbd3a85e2	-0.045537837
176	0x3e1c14ea	0.15242353
177	0x3e0350f3	0.12823848
178	0x3d52f7c7	0.05150583
179	0x3e11e072	0.14245775
180	0x3d66ef68	0.05638066
181	0x3e25edd1	0.16204001
182	0xbdc816f8	-0.09770006
183	0x3e15fa0c	0.14646167
184	0xbd1a81da	-0.037721492
185	0xbe059ccb	-0.13048093
186	0xbe100407	-0.14064036
187	0x3dcb196e	0.0991696
188	0x3d0f76a9	0.035025273
189	0x3e25df1d	0.16198392
190	0x3d759d81	0.05996466
191	0xbda3805b	-0.07983466
192	0x3e0c6881	0.1371174
193	0xbe0c138d	-0.13679333
194	0x3dbf00f9	0.093263574
195	0x3e270618	0.16310918
196	0x3dd328b0	0.10310495
197	0xbd8e2740	-0.0694108
198	0x3e29c127	0.16577588
199	0xbddd885c	-0.10817024
200	0xbd27c988	-0.04096368
201	0x3dd90e4c	0.1059843
202	0x3dd8b1cf	0.10580789
203	0x3d1b6d95	0.037946302
204	0xbd02fa9b	-0.031977277
205	0x3df5df2a	0.12005456
206	0xbe3392b2	-0.17536429
207	0x3db07927	0.08616858
208	0x3d54ad7f	0.05192327
209	0xbd8653bd	-0.065589406
210	0xbd128398	-0.03577003
211	0xbddbbc93	-0.10729327
212	0xbcfa711b	-0.030571511
213	0x3cacc89f	0.021091757
214	0xbc3414fa	-0.010991329
215	0xbcc02220	-0.023453772
216	0x3da22b66	0.07918434
217	0x3e2b3a05	0.16721351
218	0xbdcdb04f	-0.10043394
219	0xbd7cb31f	-0.06169426
220	0x3d7140f0	0.05889982
221	0xbcee6d6a	-0.029104907
222	0x3d4f5d39	0.050626013
223	0x3c49fbfa	0.012328142
224	0x3d4e47d7	0.05036148
225	0xbdfb9d7b	-0.122858964
226	0x3cbe885c	0.02325838
227	0xbdb3df80	-0.087828636
228	0x3d63c1e7	0.05560484
229	0xbc5f7945	-0.013639753
230	0x3df55c46	0.119804904
231	0xbe1295ad	-0.1431491
232	0xbcd1f6c4	-0.025630362
233	0xbc57dbf4	-0.0131749995
234	0x3e327443	0.17427163
235	0xbdf6cff8	-0.12051386
236	0xbe0866c8	-0.13320458
237	0x3c531914	0.012884397
238	0xbbb178ac	-0.0054159965
239	0x3d8fa188	0.070132315
240	0xbd6dff5e	-0.058104865
241	0xbc409951	-0.0117553035
242	0x3b18932a	0.0023281076
243	0xbcde9b5f	-0.027173696
244	0xbc1984d1	-0.009370045
245	0x3dbb35b5	0.09141103
246	0x3e1e8a56	0.15482458
247	0x3d03a466	0.032139204
248	0x3d201695	0.039084036
249	0xbd2dca68	-0.042429358
250	0xbd34d74c	-0.044150636
251	0x3dac8441	0.08423663
252	0xbc2b635b	-0.0104607
253	0xbcc4986a	-0.023998458
254	0xbc84cb87	-0.01621033
255	0xbe225efc	-0.15856546

model.encoder.eb_encoder.0.2.bias f4 [32]
0	0x3c082534	0.008309651
1	0x3da3cdc9	0.07998235
2	0x3d2e852c	0.04260747
3	0xbdd1a836	-0.10237162
4	0xbdd4e890	-0.1039592
5	0xbd812ff8	-0.063079774
6	0x3e26ebd9	0.16300906
7	0xbe208f52	-0.15679672
8	0x3dd9ddff	0.106380455
9	0xbd751c0f	-0.059841212
10	0xbd78afea	-0.06071464
11	0x3c59b0ad	0.013286752
12	0x3d950940	0.07277155
13	0xbde28f46	-0.110624835
14	0x3e1b4095	0.15161355
15	0x3e228c8f	0.15873931
16	0x3d067f70	0.032836378
17	0x3dd9ab84	0.10628417
18	0xbe287528	-0.16450942
19	0xbd73907a	-0.059463955
20	0xbc84c59b	-0.016207507
21	0xbcb1c1b9	-0.02169882
22	0xbdf9f472	-0.12204827
23	0x3d2c6e0c	0.042097136
24	0x3c25ad97	0.010112188
25	0x3de2d0bc	0.11074969
26	0xbd6c3130	-0.057664096
27	0xbc01ee64	-0.007930372
28	0xbd946a98	-0.07246894
29	0x3d9d4cc5	0.07680658
30	0x3e03cd3d	0.12871261
31	0x3db6dc94	0.08928791

model.encoder.eb_encoder.0.4.weight f4 [32, 32]
0	0xbdcea1ff	-0.10089492
1	0xbe0ff6f5	-0.1405905
2	0xbc261490	-0.010136738
3	0x3e279202	0.16364291
4	0xbdbd2359	-0.09235258
5	0x3c0981fc	0.008392807
6	0x3d858a29	0.065204926
7	0xbdae4a56	-0.08510272
8	0xbda0053a	-0.07813497
9	0xbe1e726b	-0.15473334
10	0x3e22c389	0.15894903
11	0x3e0f099a	0.13968506
12	0x3be9ecdf	0.007138833
13	0x3c01b753	0.007917243
14	0xbe237600	-0.15962982
15	0xbd1b3a19	-0.037897203
16	0xbe045b38	-0.12925422
17	0xbe2673e9	-0.16255154
18	0x3cf79403	0.030221945
19	0xbde6aa17	-0.11262911
20	0x3dd8dda0	0.105891466
21	0x3c963209	0.018334405
22	0xbd7d21ea	-0.06179992
23	0x3e2ce089	0.16882528
24	0x3ce588ed	0.028019393
25	0x3ded5610	0.11588681
26	0xbd11c1ce	-0.035585217
27	0xba9c6682	-0.0011932405
28	0xbde36bde	-0.111045584
29	0xbdb80fba	-0.089873746
30	0xbd81a280	-0.063298225
31	0x3e231964	0.15927655
32	0xbd90c03b	-0.07067915
33	0xbd94e9e8	-0.072711766
34	0x3e06f868	0.13180697
35	0x3dd70745	0.104994334
36	0x3e276900	0.16348648
37	0xbde65287	-0.112462096
38	0x3cbae92a	0.02281626
39	0x3df50958	0.11964673
40	0xbd88255f	-0.06647753
41	0x3d1264fd	0.03574084
42	0xbe0a267e	-0.13491246
43	0x3dd13592	0.10215296
44	0x3e139841	0.14413549
45	0xbc8e6c81	-0.017385723
46	0xbc8d19c1	-0.017224194
47	0x3e0149b4	0.12625772
48	0xbcae0c2b	-0.021246037
49	0x3bdce738	0.0067414306
50	0xbe026ace	-0.12736055
51	0xbd93f008	-0.07223517
52	0xbbf59a58	-0.007495206
53	0xbdaee4b2	-0.08539714
54	0xbd78ea4c	-0.060770318
55	0xbde67e07	-0.112545066
56	0x3cf0e68a	0.029406805
57	0x3e1bfe94	0.15233833
58	0xbd3a28b3	-0.04544897
59	0x3bc5ba10	0.0060341433
60	0x3d2797ba	0.040916182
61	0x3d9238ee	0.07139765
62	0xbe161818	-0.14657629
63	0x3e03838f	0.12843154
64	0x3e01076c	0.12600487
65	0xbde2a75f	-0.1106708
66	0xbc756c1e	-0.01497939
67	0xbd51d5ee	-0.05122941
68	0x3e1d551f	0.15364502
69	0x3da2ba69	0.07945711
70	0xbd55de70	-0.052214086
71	0x3e0cf9b8	0.13767135
72	0xbdfd13be	-0.12357281
73	0x3bc67efe	0.006057619
74	0x3de46b11	0.11153234
75	0x3de023c8	0.10944325
76	0x3cc37a14	0.023861922
77	0x3cbc8524	0.023012705
78	0x3d91e9b9	0.07124657
79	0x3d2da713	0.042395663
80	0xbdd0ad77	-0.10189336
81	0xbe334b98	-0.17509305
82	0x3e10c84d	0.14138909
83	0xbd8b6f6c	-0.068083614
84	0xbe078028	-0.13232481
85	0x3d528f5e	0.051406257
86	0x3cf6699d	0.030079657
87	0xbe2e7aa2	-0.17038968
88	0x3dbe64ea	0.092965916
89	0x3dcd1f98	0.10015792
90	0xbdbc6363	-0.09198644
91	0xbcb02f12	-0.02150682
92	0xbdb2d3ac	-0.087317795
93	0x3d868000	0.06567383
94	0x3e0615dd	0.13094278
95	0xbe0893a4	-0.1333757
96	0x3d6d89f2	0.057992883
97	0xbd4e5ccf	-0.050381478
98	0xbe0e303e	-0.1388559
99	0x3cc50154	0.024048485
100	0xbb97c209	-0.004631285
101	0xbd57d679	-0.05269477
102	0xbdcdfddb	-0.10058185
103	0x3dace584	0.08442214
104	0x3dd4fbad	0.10399566
105	0xbde97318	-0.113989055
106	0x3d4cba6c	0.049982473
107	0x3e1c51bc	0.15265554
108	0xbe13bf8a	-0.14428535
109	0xbdf7177f	-0.120650284
110	0x3d7a9049	0.061172757
111	0x3e03e619	0.12880744
112	0x3e0d2b2f	0.13786004
113	0xbdd7352d	-0.10508189
114	0x3d570487	0.052494552
115	0xbd9f64ab	-0.07782873
116	0x3d8ec5ff	0.069713585
117	0x3e0ceae1	0.13761474
118	0xbdb47864	-0.08812025
119	0x3e0a2c45	0.1349345
120	0x3a97b960	0.0011575632
121	0x3dad9045	0.08474783
122	0xbe184ba0	-0.14872599
123	0xbe311f6c	-0.17297143
124	0x3e0ba859	0.13638438
125	0xbdec070c	-0.115247816
126	0xbda9d563	-0.082926534
127	0x3df48043	0.119385265
128	0xbe332c94	-0.17497474
129	0xbda5fe7d	-0.081051804
130	0xbda9f8fa	-0.08299442
131	0xbe23f5e4	-0.16011769
132	0xbdd2801f	-0.102783434
133	0xbd546f18	-0.05186376
134	0x3e26d653	0.16292696
135	0xbe03389b	-0.12814562
136	0xbd1e3b46	-0.038630746
137	0x3dafbad7	0.08580559
138	0xbe1665e4	-0.14687306
139	0x3dd4dfea	0.10394271
140	0xbaec07b0	-0.0018007662
141	0x3ded81b7	0.11597007
142	0xbdbfea63	-0.093708776
143	0xbe001d31	-0.12511136
144	0xbe0bc1c2	-0.13648131
145	0x3d905870	0.07048118
146	0x3bd7434e	0.0065693026
147	0x3dcc70ce	0.09982453
148	0x3ddfdca9	0.109307595
149	0x3de3c1ac	0.11120924
150	0x3dd2026c	0.10254368
151	0x3e338d9a	0.17534485
152	0x3e18e69e	0.14931723
153	0x3b68b181	0.0035506191
154	0xbe26a3a7	-0.16273366
155	0xbda6aa72	-0.081379786
156	0x3e0d3541	0.13789846
157	0x3c422cfd	0.011851546
158	0x3dee9d0e	0.116510496
159	0x3e186777	0.14883219
160	0xbe24a3a1	-0.16078044
161	0x3db44501	0.08802224
162	0x3d8fb146	0.07016234
163	0xbe17afe2	-0.14813188
164	0xbcdd3b02	-0.027005676
165	0xbb94b427	-0.0045380774
166	0xbb174a5c	-0.0023085093
167	0x3e0f32a7	0.13984166
168	0x3dc85644	0.09782079
169	0x3d78fa02	0.0607853
170	0xbde1938b	-0.1101447
171	0x3dfd9ab6	0.123830244
172	0x3dc0b627	0.09409743
173	0x3e2fa154	0.17151386
174	0x3dcdbd25	0.10045842
175	0x3bd92e0a	0.0066278027
176	0xbddf0e0e	-0.108913526
177	0xbdd88003	-0.10571291
178	0x3e0edb6a	0.13950887
179	0x3d19a6f5	0.03751274
180	0xbde54d96	-0.11196439
181	0x3dfd9e1d	0.12383673
182	0x3ce78cac	0.02826532
183	0x3dc999cd	0.09843788
184	0x3da82375	0.08209888
185	0x3d6967a6	0.056983612
186	0x3c8d8312	0.017274413
187	0xbd06727d	-0.03282403
188	0xbe0ee569	-0.139547
189	0xbc3a912c	-0.011387151
190	0x3d990f57	0.07473629
191	0xbd35847e	-0.044315808
192	0x3dfc7f1b	0.12328931
193	0x3e0de134	0.1385544
194	0x3d9a9185	0.07547287
195	0x3d0bcc11	0.03413016
196	0x3d614a26	0.055002354
197	0xbdb7cf89	-0.08975131
198	0xbdc78743	-0.09742596
199	0xbe0d8903	-0.13821797
200	0xbe2a6124	-0.16638619
201	0xbb6c46f9	-0.0036053045
202	0xbd3fba3a	-0.04680846
203	0x3dc1e0f6	0.09466736
204	0x3e17801c	0.14794964
205	0xbdcb183c	-0.09916732
206	0x3d84d2a5	0.0648549
207	0xbdbecef0	-0.09316814
208	0xbe165a50	-0.14682889
209	0x3dd408cf	0.103532426
210	0xba031475	-0.0005000302
211	0x3df58c33	0.119896315
212	0xb9dd3c6c	-0.00042197423
213	0xbe2617ca	-0.16220012
214	0x3c4a1b17	0.01233556
215	0xbc1dd8db	-0.009634222
216	0x3d90201a	0.07037373
217	0x3c444dfd	0.0119814845
218	0x3e03470b	0.1282007
219	0x3cb73adb	0.022366932
220	0xbde605d7	-0.112315826
221	0x3ddfcd4b	0.109278284
222	0xbd5e78be	-0.054314367
223	0x3ddcdbaf	0.10784089
224	0xbdf3548a	-0.11881359
225	0xbe0b7219	-0.13617744
226	0x3dfe06be	0.1240363
227	0x3de1c6c9	0.110242434
228	0xbe270bbe	-0.16313073
229	0x3e274bf3	0.16337566
230	0x3da35202	0.07974626
231	0x3cb56e0b	0.0221472
232	0x3d86f4ed	0.06589685
233	0xbddde731	-0.10835112
234	0x3d88b68f	0.06675445
235	0xbd3d5601	-0.046224598
236	0x3dd48ad1	0.1037804
237	0x3d9566c6	0.07294993
238	0x3da12354	0.078680664
239	0x3e241afb	0.16025917
240	0x3dac612d	0.08416972
241	0xbe0590db	-0.13043539
242	0xbd21ecfc	-0.039532647
243	0x3e1a6b2f	0.1507995
244	0xbd44e665	-0.048071284
245	0x3e318109	0.1733438
246	0x3dfcbf2a	0.12341149
247	0x3df4319e	0.11923526
248	0xbd08c21e	-0.03338825
249	0xbd8db614	-0.06919494
250	0x3e182c02	0.14860538
251	0xbe2eb3cd	-0.17060776
252	0x3df73cbb	0.1207213
253	0xbdb81c3c	-0.0898976
254	0x3dc0b323	0.094091676
255	0xbd7f3351	-0.0623048

model.encoder.eb_encoder.0.4.bias f4 [32]
0	0xbddde5cf	-0.10834848
1	0xbdf1ee03	-0.11812975
2	0x3dcd280f	0.10017406
3	0x3dbbf2e4	0.09177187
4	0xbddbfb0e	-0.10741244
5	0x3e2aff54	0.16698962
6	0x3dc644ee	0.09681116
7	0xbe059e2a	-0.13048616
8	0x3e17f88d	0.14840908
9	0xbd87a3b7	-0.06623023
10	0xbe28ac0d	-0.16471882
11	0x3e090576	0.1338099
12	0x3e10e1e6	0.14148673
13	0xbe16d34b	-0.1472904
14	0x3d580354	0.05273755
15	0x3df48339	0.11939091
16	0xbe301d14	-0.17198592
17	0x3e18342d	0.14863653
18	0x3c833db1	0.016020628
19	0xbdff26b9	-0.12458558
20	0xbdc15a9a	-0.09441109
21	0xbd581830	-0.052757442
22	0x3d8dbb9b	0.069205485
23	0x3c6797e6	0.0141353365
24	0xbcf5fc03	-0.030027395
25	0x3dfc813a	0.123293355
26	0xbdb7708a	-0.08957012
27	0xbe0d0197	-0.13770138
28	0xbd8ea430	-0.0696491
29	0xbe13c84b	-0.14431874
30	0x3cbc4ebd	0.022986764
31	0x3e30e6cf	0.17275546

model.encoder.eb_encoder.0.6.weight f4 [32, 32]
0	0xbde9d19e	-0.114169344
1	0xbdc8677b	-0.09785362
2	0x3dd7e7c3	0.10542252
3	0x3d192a16	0.037393652
4	0xbe21f3b8	-0.15815628
5	0xbce82d24	-0.028341837
6	0x3d1e6433	0.038669776
7	0x3da2316c	0.07919583
8	0x3da2b14f	0.07943975
9	0xbd92b2b2	-0.0716299
10	0x3a84cf1c	0.0010132524
11	0xbd4fde78	-0.050749272
12	0xbdcf6857	-0.10127323
13	0xbd31c61f	-0.043401834
14	0xbd9545ad	-0.0728868
15	0xbd7dfdc8	-0.062009603
16	0x3abe1716	0.001450273
17	0xbd42f01b	-0.047592264
18	0xbe02f2a5	-0.12787874
19	0x3e18fbff	0.14939879
20	0xbde3cce5	-0.11123065
21	0xbba3a04c	-0.004993474
22	0xbdb6e828	-0.08930999
23	0x3a32570e	0.00068031333
24	0x3cee5b62	0.02909631
25	0xbdb97fd5	-0.09057585
26	0xbdfd59c4	-0.12370637
27	0xbca9e1a1	-0.020737471
28	0x3da12fcd	0.078704454
29	0xbdbeee67	-0.093228154
30	0xbe1957a0	-0.14974833
31	0xbe21cf5d	-0.15801759
32	0x3a40d04c	0.00073552574
33	0xbd73303e	-0.05937218
34	0xbe09ef48	-0.13470185
35	0x3b0ebe38	0.002178086
36	0x3e04a991	0.1295531
37	0xbd4f5c1e	-0.05062496
38	0x3c9b7ee3	0.018981403
39	0xbd5e9578	-0.054341763
40	0xbe01a2be	-0.12659737
41	0xbdb9d6ac	-0.090741485
42	0xbdf87f56	-0.121336624
43	0xbd6c2196	-0.057649218
44	0x3e257f4a	0.16161838
45	0xbe2354e8	-0.15950358
46	0xbde4955c	-0.111613005
47	0x3d847970	0.06468475
48	0xbe2c0679	-0.16799344
49	0x3e04da65	0.12973936
50	0x3db3ff9b	0.08788987
51	0x3e1000f1	0.14062859
52	0xbb91b2d2	-0.004446366
53	0xbe262bad	-0.16227598
54	0xbda83355	-0.08212916
55	0x3cfc3153	0.030785238
56	0xbd5c3d61	-0.053769473
57	0xbdc993e9	-0.09842665
58	0xbd056b39	-0.03257296
59	0xbdecaebb	-0.11556765
60	0x3e308a10	0.17240167
61	0x3cbe8286	0.023255598
62	0x3e227810	0.15866113
63	0x3dc8e60a	0.098095015
64	0xbd9edd28	-0.07757026
65	0xbe18d2d2	-0.14924172
66	0xbdbff737	-0.09373324
67	0xbe0257f4	-0.12728864
68	0xbe34fa75	-0.17673667
69	0xbdfaf4f5	-0.12253753
70	0x3d84915b	0.06473037
71	0x3d890285	0.06689934
72	0xbdfa60e6	-0.12225513
73	0x3e19012b	0.14941852
74	0xbe055930	-0.13022304
75	0x3ab57780	0.0013844818
76	0xbd18a987	-0.03727105
77	0xbd96facc	-0.073720545
78	0xbd62c8b1	-0.055367175
79	0xbe11fc52	-0.14256409
80	0x3ddd766b	0.10813602
81	0xbddffda1	-0.10937048
82	0xbddaf9e1	-0.10692192
83	0x3da15d99	0.078791805
84	0x3e18acf5	0.14909728
85	0x3e095941	0.13412954
86	0xbddcf0bb	-0.10788103
87	0xbdbe387a	-0.09288116
88	0xbd93f777	-0.072249345
89	0x3e3478a1	0.17624141
90	0x3d13d0e3	0.03608788
91	0x3d1efe70	0.03881687
92	0xbd859dc5	-0.06524233
93	0x3c1341a1	0.008987815
94	0x3d8a59eb	0.06755432
95	0xbe1e66bf	-0.15468882
96	0x3e3108c5	0.17288502
97	0x3b26455a	0.0025370927
98	0xbe28c7b8	-0.16482437
99	0xbcf75e19	-0.030196236
100	0xbe1b0f33	-0.15142517
101	0x3e0fe8d2	0.14053658
102	0xbc0053a6	-0.007832443
103	0xbdc98521	-0.098398454
104	0xbb178019	-0.0023117124
105	0x3dc7f40b	0.097633444
106	0x3b76b9f5	0.003764746
107	0xbc5ee2ec	-0.013603907
108	0xbe13c38a	-0.14430061
109	0x3e090aa1	0.13382961
110	0xbddf0bb3	-0.10890903
111	0x3d948a97	0.072529964
112	0xbdeb2099	-0.11480827
113	0xbe0e8b9f	-0.13920449
114	0xbd855f42	-0.065123096
115	0xbd1dcc86	-0.038525127
116	0xbdb78851	-0.08961547
117	0xbd250fb5	-0.040298183
118	0x3dd86144	0.10565427
119	0xbd6e71a2	-0.058213837
120	0x3d00a2ab	0.031405132
121	0x3dc0802c	0.09399447
122	0xbc3d8b86	-0.0115689095
123	0x3e15b85a	0.14621106
124	0xbd6a7a2f	-0.05724543
125	0xbd12ad07	-0.035809543
126	0x3dead9aa	0.114672974
127	0xbdee5639	-0.116375394
128	0xbe341439	-0.1758584
129	0xbe335796	-0.1751388
130	0x3c71359a	0.014722252
131	0xbe01e037	-0.12683187
132	0xbcb15759	-0.021648096
133	0x3e1c19a6	0.15244159
134	0xbd81cafe	-0.06337546
135	0xbe32013a	-0.1738328
136	0x3e08ecbe	0.1337156
137	0x3e113948	0.14182007
138	0xbd0441f9	-0.03228948
139	0x3d8b9dc6	0.06817202
140	0xbdeb02be	-0.114751324
141	0x3cc428c7	0.023945225
142	0x3e2f0c5a	0.17094555
143	0x3d94c40d	0.07263956
144	0x3deee91a	0.11665554
145	0xbdb920c2	-0.09039451
146	0x3d90e549	0.07074983
147	0xbe2c4c64	-0.16826016
148	0xbe142797	-0.14468227
149	0xbd7c9649	-0.06166676
150	0x3e06d262	0.13166192
151	0xbe094d66	-0.13408431
152	0x3e12ee43	0.14348702
153	0x3ccdb6d6	0.025111597
154	0xbce2ffc2	-0.027709845
155	0xbd527490	-0.051380694
156	0xbe04a0af	-0.12951921
157	0x3d3dea57	0.046366062
158	0x3e1af523	0.15132575
159	0x3dff07d5	0.12452666
160	0x3d80da6e	0.06291662
161	0xbccdb3b3	-0.025110101
162	0xbe08ec03	-0.13371281
163	0xbc905e43	-0.017623072
164	0x3d030092	0.031982966
165	0x3e0b7d66	0.13622054
166	0xbb665d0f	-0.0035150682
167	0xbd418c2a	-0.04725281
168	0xbd4657f8	-0.048423737
169	0x3e1f1109	0.15533842
170	0xbd8768c8	-0.06611782
171	0x3e08a944	0.1334582
172	0x3e19e182	0.1502743
173	0xbd8a59e5	-0.06755427
174	0xbe2b2cf8	-0.16716373
175	0xbe23e115	-0.1600383
176	0x3dd02295	0.10162846
177	0x3dcf72a3	0.10129287
178	0x3d7aec08	0.061260253
179	0xbe121419	-0.14265479
180	0x3af8880e	0.0018961446
181	0x3e34d5d2	0.17659691
182	0x3df8f85a	0.12156744
183	0xbbfe248a	-0.0077558206
184	0x3dad48c6	0.08461146
185	0x3e1dece7	0.15422402
186	0xbd5ea622	-0.054357655
187	0xbe02210f	-0.12707923
188	0xbd211a23	-0.039331567
189	0xbc7a8a1f	-0.01529172
190	0x3dec6a8d	0.115437604
191	0x3e2211ca	0.15827098
192	0xbc436a20	-0.011927158
193	0xbd171e1f	-0.03689396
194	0xbe13a025	-0.14416559
195	0x3de810c2	0.11331321
196	0x3dd61f45	0.10455183
197	0x3e2955b7	0.16536604
198	0x3cc23c03	0.023710256
199	0x3d959afe	0.07304953
200	0xbdf0a335	-0.11749879
201	0xbe280514	-0.16408187
202	0x3dd4f7b0	0.10398805
203	0x3d535841	0.051597837
204	0x3da02e18	0.07821292
205	0xbd9f351d	-0.077738024
206	0xbcf32718	-0.029681727
207	0x3d93b63a	0.07212491
208	0x3c007ace	0.007841779
209	0xbddae233	-0.10687675
210	0x3d404148	0.046937257
211	0xbddfee98	-0.1093418
212	0xbe18c541	-0.14918996
213	0xbd68b844	-0.056816354
214	0x3d89e27e	0.06732653
215	0xbe1f5c2a	-0.15562502
216	0x3d9ecf8f	0.077544324
217	0xbe1a9939	-0.15097512
218	0x3dafa516	0.085764095
219	0xbe2e33c0	-0.17011929
220	0x3da215cf	0.07914316
221	0x3e2f622a	0.1712729
222	0x3e2eeb7b	0.17082016
223	0xbc8908d9	-0.016727852
224	0xbbf7848b	-0.007553642
225	0xbd1e986f	-0.03871959
226	0x3df6a075	0.120423235
227	0xbe1f86de	-0.15578791
228	0xbdd7a9f2	-0.10530461
229	0x3d0f6e55	0.03501733
230	0x3e206e91	0.15667178
231	0xbe02b55f	-0.127645
232	0xbe0aaf72	-0.1354349
233	0x3df4563c	0.119305104
234	0xbd04b990	-0.03240353
235	0xbe32f5a4	-0.17476517
236	0x3cc3563d	0.023844833
237	0x3d2b4aa1	0.04181922
238	0x3d0cfb92	0.034419604
239	0xbe1a1495	-0.15046914
240	0x3b1838a7	0.0023227127
241	0x3e0a6900	0.13516617
242	0x3cc294b6	0.023752552
243	0xbdea5c7c	-0.11443421
244	0xbd5575f1	-0.05211443
245	0xbe02f7b3	-0.12789802
246	0x3d8efddb	0.06982013
247	0x3e1700be	0.14746377
248	0x3d4f0af5	0.05054756
249	0x3e2a34cb	0.16621701
250	0x3c96b014	0.018394507
251	0x3d9b69b4	0.07588521
252	0xbda2614b	-0.079287134
253	0xbd94f24d	-0.07272778
254	0xbdee771d	-0.11643813
255	0xb98b773c	-0.00026600983

model.encoder.eb_encoder.0.6.bias f4 [32]
0	0x3da98757	0.08277767
1	0x3de0590c	0.10954484
2	0x3e1aad17	0.15105091
3	0x3ba25641	0.00495413
4	0xbe308e9b	-0.172419
5	0x3e3307de	0.1748347
6	0xbe2ace0c	-0.16680163
7	0xbb915905	-0.004435661
8	0xbda9bf7a	-0.082884744
9	0x3d784147	0.06060913
10	0x3d5c2fa8	0.053756386
11	0xbca14a0b	-0.019688627
12	0xbe1637ba	-0.14669695
13	0xbce7a45c	-0.028276615
14	0x3c183124	0.00928906
15	0xbd3c0a9d	-0.04590856
16	0x3e11a1b1	0.14221837
17	0x3e255246	0.16144666
18	0x3c2cb407	0.010540969
19	0xbe139c4b	-0.1441509
20	0x3ccf61cc	0.025315188
21	0xbdf0c718	-0.11756724
22	0xbe1c24c0	-0.15248394
23	0x3db3bb40	0.087759495
24	0xbda22c40	-0.07918596
25	0xbd4e9133	-0.05043144
26	0xbad0070a	-0.0015871238
27	0x3e012679	0.12612332
28	0x3df070b5	0.11740247
29	0xbe0bf429	-0.13667358
30	0x3df3430f	0.11878025
31	0x3be16745	0.0068787658

model.encoder.eb_encoder.1.weight f4 [32]
0	0x3f800000	1.0
1	0x3f800000	1.0
2	0x3f800000	1.0
3	0x3f800000	1.0
4	0x3f800000	1.0
5	0x3f800000	1.0
6	0x3f800000	1.0
7	0x3f800000	1.0
8	0x3f800000	1.0
9	0x3f800000	1.0
10	0x3f800000	1.0
11	0x3f800000	1.0
12	0x3f800000	1.0
13	0x3f800000	1.0
14	0x3f800000	1.0
15	0x3f800000	1.0
16	0x3f800000	1.0
17	0x3f800000	1.0
18	0x3f800000	1.0
19	0x3f800000	1.0
20	0x3f800000	1.0
21	0x3f800000	1.0
22	0x3f800000	1.0
23	0x3f800000	1.0
24	0x3f800000	1.0
25	0x3f800000	1.0
26	0x3f800000	1.0
27	0x3f800000	1.0
28	0x3f800000	1.0
29	0x3f800000	1.0
30	0x3f800000	1.0
31	0x3f800000	1.0

model.encoder.eb_encoder.1.bias f4 [32]
0	0x00000000	0.0
1	0x00000000	0.0
2	0x00000000	0.0
3	0x00000000	0.0
4	0x00000000	0.0
5	0x00000000	0.0
6	0x00000000	0.0
7	0x00000000	0.0
8	0x00000000	0.0
9	0x00000000	0.0
10	0x00000000	0.0
11	0x00000000	0.0
12	0x00000000	0.0
13	0x00000000	0.0
14	0x00000000	0.0
15	0x00000000	0.0
16	0x00000000	0.0
17	0x00000000	0.0
18	0x00000000	0.0
19	0x00000000	0.0
20	0x00000000	0.0
21	0x00000000	0.0
22	0x00000000	0.0
23	0x00000000	0.0
24	0x00000000	0.0
25	0x00000000	0.0
26	0x00000000	0.0
27	0x00000000	0.0
28	0x00000000	0.0
29	0x00000000	0.0
30	0x00000000	0.0
31	0x00000000	0.0

model.encoder.nb_encoder.0.0.weight f4 [32, 11]
0	0xbe6786cf	-0.22610019
1	0x3dd2453c	0.10267112
2	0xbd38fa51	-0.045160595
3	0xbdaaa7bb	-0.08332773
4	0x3e062b77	0.13102518
5	0xbe6475eb	-0.22310607
6	0xbe20be2f	-0.1569755
7	0x3dde7499	0.10862083
8	0x3d2284c2	0.03967739
9	0xbd3a00b5	-0.04541083
10	0xbc04aafe	-0.008097408
11	0x3dad5541	0.084635265
12	0x3e22d999	0.1590332
13	0x3e7793d5	0.24177487
14	0xbe557ba3	-0.20847945
15	0x3df7a2df	0.12091612
16	0xbe40658e	-0.1878874
17	0x3e924ba2	0.28573328
18	0x3e959175	0.29212537
19	0x3e7838d1	0.24240424
20	0xbdf457cf	-0.11930811
21	0xbe6572a2	-0.2240701
22	0xbe3816c8	-0.1797744
23	0xbe894ac8	-0.26814866
24	0xbe639d16	-0.22227892
25	0xbe8b722f	-0.27235553
26	0xbe13c6e2	-0.14431337
27	0x3e2e51a4	0.17023331
28	0x3d6d363b	0.057913046
29	0xbe8fdebf	-0.2809963
30	0xbe03ba02	-0.12863925
31	0xbe702f2e	-0.23455498
32	0x3e6861f1	0.22693612
33	0x3d83adee	0.06429659
34	0x3dba9f79	0.09112448
35	0x3e9772b2	0.29579693
36	0xbe37e425	-0.17958124
37	0x3e64f116	0.22357592
38	0x3e5d3905	0.21603782
39	0x3d258d61	0.040418033
40	0x3e57157c	0.2100429
41	0x3e4b286b	0.19839637
42	0xbe940738	-0.28911757
43	0x3dcf154a	0.101114824
44	0xbe2b251d	-0.16713376
45	0xbe569e6f	-0.20958875
46	0x3db79ca8	0.08965427
47	0xbe4b768c	-0.19869441
48	0x3e95be4b	0.29246745
49	0x3d91d757	0.07121151
50	0x3dcf8296	0.10132329
51	0xbe3d93b3	-0.18513374
52	0x3e572060	0.21008444
53	0x3e63fe93	0.22265081
54	0x3e2028ed	0.15640612
55	0x3e992829	0.29913452
56	0xbc6feda1	-0.0146440575
57	0xbe78f463	-0.24311976
58	0x3e713db1	0.2355869
59	0xbd8791ba	-0.06619592
60	0xbcbc2d25	-0.022970745
61	0x3e35214c	0.17688483
62	0xbd35cb98	-0.044383615
63	0xbda83cf4	-0.08214751
64	0x3da24888	0.079239905
65	0x3db1d2dd	0.08682797
66	0xbe0e4fc9	-0.13897623
67	0x3bcbf8f1	0.0062247445
68	0xbdd31954	-0.10307565
69	0x3e46c686	0.19411668
70	0xbe807491	-0.25088933
71	0x3db2c984	0.08729842
72	0x3e2af48f	0.16694854
73	0x3d58ba3c	0.052911982
74	0x3e56aa83	0.20963483
75	0x3bcb76fd	0.006209253
76	0x3e923b3e	0.28560823
77	0x3e5f58d7	0.21811233
78	0x3cf1b922	0.029507224
79	0xbca36e51	-0.019950064
80	0xbdd98b1b	-0.106222354
81	0xbe0557e6	-0.13021812
82	0x3cdc159e	0.026865777
83	0x3e4b08b9	0.19827546
84	0x3e71d4e2	0.23616365
85	0x3e948834	0.29010165
86	0x3e989170	0.2979846
87	0xbdfd4d0c	-0.12368211
88	0x3e940c7f	0.28915784
89	0xbe80998c	-0.25117147
90	0x3e79e3d0	0.2440331
91	0xbd71d965	-0.059045214
92	0xbe7d5b7e	-0.24741933
93	0x3e79c70f	0.24392341
94	0x3d02a2f6	0.031893693
95	0x3dd1cc76	0.10244076
96	0x3dda7f0c	0.106687635
97	0xbdd1923b	-0.102329694
98	0x3e0fe114	0.14050704
99	0xbd046e20	-0.032331586
100	0x3e804c48	0.25058198
101	0xbe1c364f	-0.15255092
102	0x3cf41137	0.029793365
103	0x3e8143e8	0.2524712
104	0xbe5c5f1c	-0.21520656
105	0xbcdfc0d3	-0.027313625
106	0xbd3b3943	-0.045708906
107	0xbb2211c5	-0.002472983
108	0xbdf3ee81	-0.119107254
109	0x3d5096ad	0.050924946
110	0x3cbcb4d4	0.023035444
111	0x3e8098ae	0.25116485
112	0x3d7827ea	0.06058494
113	0xbe6482a6	-0.22315463
114	0xbe367b98	-0.17820585
115	0xbcf74f34	-0.030189134
116	0xbe71066a	-0.23537603
117	0x3d59d4b6	0.053181373
118	0x3e49b129	0.19696487
119	0x3d53826d	0.051638056
120	0xbe3295d1	-0.17439963
121	0x3c85a8ca	0.016315836
122	0xbd1ff2ac	-0.03904979
123	0xbe38ea7d	-0.180582
124	0xbe6a6196	-0.22888789
125	0x3e887714	0.2665335
126	0x3c9e9768	0.019359306
127	0xbe72b758	-0.23702753
128	0xbcd89e58	-0.026442692
129	0x3da7c2fa	0.08191486
130	0x3e675536	0.22591099
131	0xbe5f7b7c	-0.2182445
132	0xbe0e4c65	-0.1389633
133	0x3d90f82a	0.070785835
134	0xbe065f95	-0.13122399
135	0x3e99fd09	0.30075863
136	0xbe88e58a	-0.26737624
137	0x3da71eea	0.08160193
138	0x3df7381e	0.120712504
139	0xbb97eabe	-0.0046361377
140	0x3e3c1c93	0.18370275
141	0xbe4a939f	-0.19782875
142	0xbc3d9a81	-0.011572481
143	0x3ddf7e0f	0.10912716
144	0xbcba8d23	-0.022772377
145	0x3d35a622	0.04434789
146	0xbe2ae86f	-0.16690229
147	0xbe1b27df	-0.15151928
148	0x3e33f76a	0.1757485
149	0xbe55d675	-0.2088259
150	0x3def238b	0.11676701
151	0x3d8212be	0.06351231
152	0xbe6d150c	-0.2315256
153	0xbe199e55	-0.15001805
154	0x3e7e41d6	0.24829802
155	0xbcc753ee	-0.024332013
156	0xb971f67e	-0.00023075377
157	0x3d337cbf	0.04382014
158	0xbdd61267	-0.10452729
159	0x3c8fb66a	0.017543036
160	0xbe03768c	-0.12838191
161	0x3e079c6a	0.13243261
162	0x3da04814	0.07826248
163	0x3e0602db	0.13087027
164	0xbdfb87a6	-0.12281732
165	0xbe137c67	-0.14402924
166	0x3dc52470	0.096260905
167	0x3d5529e6	0.05204191
168	0x3d1340b8	0.035950392
169	0xbe20a894	-0.15689307
170	0xbcfc8dfc	-0.030829422
171	0xbe51c0eb	-0.20483749
172	0xbd8caaab	-0.0686849
173	0x3e920535	0.28519598
174	0xbe33da39	-0.17563714
175	0xbe2fba42	-0.17160895
176	0x3cde6d19	0.027151631
177	0xbba31dd0	-0.004977919
178	0xbe06e1b6	-0.1317204
179	0xbde9ec73	-0.11422052
180	0xbd991646	-0.074749514
181	0x3e13bcd7	0.14427505
182	0x3e82534e	0.2545418
183	0xbe948c61	-0.2901335
184	0x3e37f70e	0.17965338
185	0x3e895fcc	0.268309
186	0xbe1e0f6f	-0.15435575
187	0x3e4db757	0.2008947
188	0x3e8301cd	0.2558731
189	0xbe8546ad	-0.26030484
190	0x3e8bfabd	0.27339736
191	0xbbbd5879	-0.005778369
192	0xbe07c282	-0.13257793
193	0x3dcc1b2a	0.09966119
194	0xbe043a8e	-0.12912962
195	0xbe00578d	-0.12533398
196	0xbdc5bfd0	-0.09655726
197	0x3db64d30	0.08901441
198	0x3e2cc77f	0.16872977
199	0x3dd679b0	0.10472429
200	0xbd5de3c2	-0.054172285
201	0x3d2dd45c	0.04243885
202	0x3e13c8fa	0.14432135
203	0xbe90a537	-0.2825105
204	0x3e4905ce	0.1963112
205	0xbe7356bb	-0.23763554
206	0x3e698259	0.2280363
207	0xbe79a2cf	-0.24378513
208	0xbdbd82df	-0.09253477
209	0xbdb57fa2	-0.08862235
210	0x3e5f027f	0.21778296
211	0xbdf7be1f	-0.120968096
212	0xbe011a1c	-0.12607616
213	0x3e445969	0.19174732
214	0x3e30ea4d	0.17276879
215	0x3d4f084e	0.05054503
216	0xbdc9e357	-0.09857815
217	0xbd128f82	-0.03578139
218	0x3e4dd8c7	0.20102225
219	0xbe72e6ed	-0.23720904
220	0xbd73844c	-0.05945234
221	0xbd85587e	-0.06511019
222	0x3e59789f	0.2123742
223	0x3e03b1e8	0.12860835
224	0x3e806141	0.250742
225	0x3de695d6	0.11259048
226	0x3e6a0df0	0.22856879
227	0x3d643f21	0.055724267
228	0x3e7006ce	0.23440096
229	0x3e6e6ab0	0.23282886
230	0x3dac4ed9	0.084134765
231	0x3dcdde30	0.100521445
232	0xbcb34e8a	-0.021888036
233	0xbddffc0d	-0.10936747
234	0x3d8b5b1b	0.06804486
235	0xbd650954	-0.0559171
236	0xbd77797d	-0.060418595
237	0xbd8753ac	-0.06607756
238	0xbe95b76d	-0.29241505
239	0x3db93795	0.090438046
240	0xbe64690a	-0.22305694
241	0xbe6af3b7	-0.22944532
242	0x3e2d4fa4	0.16924912
243	0xbe8c8173	-0.27442512
244	0xbe0ad0da	-0.13556233
245	0xbe6d4064	-0.23169094
246	0xbe3d75a0	-0.18501902
247	0x3e90fa0b	0.28315768
248	0x3b802388	0.0039104857
249	0x3dbd9283	0.092564605
250	0x3e63535d	0.2219977
251	0xbe1105bc	-0.14162344
252	0x3dabdc71	0.08391655
253	0xbe97406b	-0.29541335
254	0xbe8cffb2	-0.2753883
255	0xbd8764f9	-0.06611056

model.encoder.nb_encoder.0.0.bias f4 [32]
0	0x3c94810a	0.018127937
1	0x3e7b5b7d	0.24546619
2	0xbe12af1e	-0.14324614
3	0x3e873628	0.26408505
4	0xbe0655fb	-0.13118736
5	0xbe9643e3	-0.29348668
6	0x3e368023	0.17822318
7	0xbe8f8580	-0.2803154
8	0xbd1ff0ad	-0.039047886
9	0xbd66ced7	-0.0563496
10	0xbe98a72b	-0.2981504
11	0xbdd59d65	-0.10430411
12	0xbe2b5cf3	-0.16734676
13	0xbe92497d	-0.28571692
14	0xbe8abfef	-0.2709956
15	0x3e372c45	0.17887981
16	0x3e75f31e	0.24018523
17	0x3e4deac9	0.20109095
18	0xbe7694ea	-0.24080244
19	0x3e375fef	0.1790769
20	0x3e26d6aa	0.16292825
21	0x3d6ff6c0	0.05858493
22	0x3e39b687	0.18136035
23	0xbd610796	-0.054938875
24	0x3d8dc417	0.06922167
25	0xbe6cdbee	-0.23130772
26	0xbbe323f9	-0.0069317785
27	0xbe295748	-0.16537201
28	0xbc94193e	-0.018078443
29	0x3d803c98	0.06261557
30	0xbe52a61d	-0.2057118
31	0x3e382170	0.17981505

model.encoder.nb_encoder.0.2.weight f4 [32, 32]
0	0x3cefb468	0.02926083
1	0x3dae828b	0.08520993
2	0xbdaec82e	-0.08534275
3	0xbe2f1beb	-0.17100494
4	0xbdd1045c	-0.102059096
5	0x3db215b1	0.086955436
6	0xbc15fc9b	-0.009154464
7	0x3e03366f	0.12813734
8	0xbd7fd0a6	-0.062454842
9	0x3e0133a5	0.12617357
10	0x3dcd182b	0.10014375
11	0x3e18ee2e	0.14934608
12	0xbd24c5d0	-0.04022771
13	0x3dedce6f	0.1161164
14	0x3d612cd3	0.05497439
15	0xbdbc1103	-0.09182932
16	0xbc232e47	-0.009959764
17	0x3d8552df	0.06509947
18	0xbd72a0a2	-0.059235223
19	0xbca15429	-0.019693451
20	0x3e171f5c	0.14758056
21	0x3e2dc029	0.16967835
22	0x3e299e7e	0.16564366
23	0xbdbcb287	-0.09213739
24	0xbde6efa4	-0.112761766
25	0xbe2ffa3e	-0.17185304
26	0xbe0d777f	-0.13815115
27	0x3dac8bae	0.08425079
28	0x3dff61c1	0.12469817
29	0x3e16201b	0.14660685
30	0xbc93f03e	-0.018058892
31	0xbe0aa84d	-0.13540764
32	0x3e0e2bc6	0.13883886
33	0xbdd6eab8	-0.10493988
34	0xbe16fe76	-0.14745507
35	0xbe17a96a	-0.1481072
36	0xbdde7595	-0.10862271
37	0x3c2f8ed3	0.010715204
38	0x3e287e14	0.16454345
39	0x3e2a512d	0.16632529
40	0xbd28e41c	-0.041233167
41	0x3d0cc021	0.034362916
42	0x3d340505	0.0439501
43	0xbe105021	-0.14093067
44	0xbe1b8c08	-0.15190136
45	0x3bc9d2b3	0.0061591505
46	0x3dd248e9	0.10267813
47	0x3d0c57eb	0.034263533
48	0x3d6efa5f	0.05834424
49	0xbe08208e	-0.13293669
50	0xbdcca61d	-0.09992621
51	0x3e2dfa6e	0.16990063
52	0xbd864fc6	-0.06558184
53	0xbe10c9d9	-0.14139499
54	0x3dd46568	0.10370904
55	0xbe09e9f9	-0.1346816
56	0xbd87c8d9	-0.066301055
57	0xbe15e129	-0.14636673
58	0xbd6bf5e1	-0.057607535
59	0x3d885dc6	0.06658511
60	0xbe219617	-0.15779911
61	0x3dde7787	0.10862642
62	0xbdc8c2eb	-0.09802803
63	0xbded7713	-0.11594977
64	0x3e1651ce	0.14679644
65	0x3c9810f8	0.018562779
66	0xbe1a63a4	-0.15077072
67	0x3e11dfe3	0.14245562
68	0x3e027ac5	0.12742145
69	0x3d7b0c29	0.061290894
70	0x3dd22ec8	0.10262829
71	0x3d132d03	0.0359316
72	0x3db5cf12	0.08877386
73	0x3c20de2a	0.009818593
74	0xbdea6920	-0.11445832
75	0x3ddd3094	0.10800281
76	0x3e3286cd	0.17434235
77	0x3b4184f6	0.0029528714
78	0xbe218a6f	-0.15775464
79	0xbc98221d	-0.018570954
80	0x3c91b2a5	0.01778538
81	0x3e22c636	0.15895924
82	0x3e19dc41	0.15025426
83	0x3e16e80d	0.14736958
84	0xbdebb7c3	-0.11509659
85	0x3ce51715	0.027965108
86	0x3df82dc9	0.12118108
87	0x3e088875	0.13333304
88	0x3d52ff50	0.051513016
89	0x3d66c775	0.05634256
90	0x3e2f2dde	0.1710734
91	0xb98e2c33	-0.00027117282
92	0x3e211391	0.1573012
93	0xbd227b7d	-0.03966855
94	0x3e1b0c9c	0.15141529
95	0x3dbcde81	0.09222127
96	0x3d578e75	0.052626092
97	0x3d66b64f	0.056326207
98	0xbb1e38d8	-0.0024142768
99	0x3e143b06	0.1447564
100	0xbc19496c	-0.009355884
101	0xbd286fc5	-0.041122217
102	0x3e067e3a	0.13134089
103	0xbe3382d9	-0.17530383
104	0x3b234022	0.0024910052
105	0xbdac65ed	-0.08417878
106	0xbb8a9d18	-0.004230153
107	0x3e1e8fbf	0.15484522
108	0x3dd1ae93	0.102383755
109	0x3e34aa28	0.17643034
110	0x3e122965	0.14273603
111	0xbd1abb64	-0.037776366
112	0xbce01442	-0.02735341
113	0xbe15ecdc	-0.14641136
114	0xba85c3c4	-0.0010205437
115	0xbd10514a	-0.035233773
116	0xbd57cbcd	-0.052684594
117	0xbe2bce61	-0.16777946
118	0xbdb9da44	-0.09074834
119	0xbe30d923	-0.17270331
120	0xbd0b1ea6	-0.033964776
121	0x3d0ecec5	0.03486516
122	0xbb2d0eb7	-0.0026406476
123	0xbd330b37	-0.043711867
124	0x3d04ad74	0.03239198
125	0xbde66f36	-0.112516806
126	0x3cc51888	0.024059549
127	0xbe186fcc	-0.14886397
128	0x3dad7465	0.08469466
129	0x3de484b6	0.11158125
130	0x3d9a7cbf	0.07543325
131	0xbc6ea787	-0.014566309
132	0xbe07b865	-0.13253935
133	0xbdc6766b	-0.09690555
134	0xbd585a81	-0.052820686
135	0x3db3906a	0.08767779
136	0xbe08a319	-0.13343467
137	0xbe1cce07	-0.15312968
138	0xbd104633	-0.035223197
139	0xbd925e24	-0.07146862
140	0x3e0988f3	0.13431148
141	0xbd7b53fa	-0.061359383
142	0x3e197eff	0.14989851
143	0xbe16ecfd	-0.14738841
144	0x3e32e9ee	0.1747205
145	0xbdd5faa5	-0.10448197
146	0xbe1c242a	-0.1524817
147	0x3e25695c	0.16153473
148	0x3e192de6	0.14958915
149	0x3c09e0ea	0.00841544
150	0x3d967f7f	0.07348537
151	0xbd2d1d0e	-0.042264037
152	0x3da9aaad	0.08284507
153	0x3d2e1507	0.042500522
154	0xbd1921b6	-0.037385665
155	0xbdf47d09	-0.11937911
156	0xbd5e2a74	-0.054239705
157	0xbd583a87	-0.05279019
158	0xbce34b49	-0.02774586
159	0x3e1ed305	0.15510185
160	0xbd5f1f01	-0.054472927
161	0x3c56ab8b	0.0131024225
162	0xbd759b78	-0.05996272
163	0xbda63265	-0.08115081
164	0xbe1a18b1	-0.15048482
165	0x3dc1f052	0.094696656
166	0xbdbf03f8	-0.09326929
167	0xbde1f985	-0.1103392
168	0x3dcf7cb0	0.10131204
169	0xbd26d962	-0.040734656
170	0x3d71a42d	0.05899446
171	0x3b9191f1	0.0044424464
172	0x3d11b1c3	0.035569917
173	0xbe0ccc6b	-0.13749854
174	0x3e348718	0.17629659
175	0xbdd32a89	-0.10310847
176	0xbd05f4b6	-0.032704078
177	0x3e2d906b	0.16949622
178	0xbe33b285	-0.17548569
179	0x3da982f7	0.08276933
180	0x3dd61063	0.10452344
181	0xbcecee56	-0.028922241
182	0xbe1a6e01	-0.15081026
183	0x3d1d2167	0.038361933
184	0xbd976370	-0.07392013
185	0xbe2b0f2f	-0.16705011
186	0xbe2feb88	-0.17179692
187	0x3dee0d0c	0.11623582
188	0xbe081f63	-0.13293223
189	0x3e01e58a	0.12685218
190	0xbd0d6a19	-0.03452501
191	0xbe1bbabc	-0.15207952
192	0xbdd25196	-0.102694675
193	0x3e31aa4c	0.1735012
194	0xbe05c675	-0.13063987
195	0xbe136917	-0.14395557
196	0xbe20bd3a	-0.15697184
197	0x3e334487	0.1750661
198	0x3e029ca5	0.12755068
199	0x3d1b3a6e	0.03789752
200	0xbe2e540e	-0.17024252
201	0x3de62ac7	0.11238628
202	0xbd3875d4	-0.045034245
203	0xbcb18697	-0.021670623
204	0xbdca646e	-0.09882437
205	0xbc566dd9	-0.013087713
206	0x3da923f3	0.0825881
207	0xbe037f5a	-0.1284155
208	0xbd1d7f7e	-0.038451664
209	0x3e309e68	0.17247927
210	0x3daae904	0.083452255
211	0x3da39551	0.07987464
212	0xbddce93d	-0.10786674
213	0x3d59eda4	0.053205147
214	0x3dbcdacd	0.092214204
215	0x3d24cc55	0.04023393
216	0xbdb5ab27	-0.08870535
217	0x3d723bf0	0.059139192
218	0x3e093585	0.13399322
219	0x3e1f75ea	0.15572324
220	0xbe2bf7c0	-0.16793728
221	0x3e31c204	0.17359167
222	0x3d4ee64c	0.050512597
223	0xbd30e5e7	-0.043188002
224	0x3da5a68d	0.08088408
225	0x3d9a953e	0.07547997
226	0xbd325cfa	-0.0435457
227	0xbc11ac75	-0.008891215
228	0x3be544de	0.006996735
229	0x3d695e26	0.056974553
230	0x3e2f0f5c	0.17095703
231	0xbd503a87	-0.050837066
232	0xbe333260	-0.17499685
233	0x3e29853b	0.1655473
234	0x3d8159ff	0.063159935
235	0x3dc348e4	0.09535387
236	0xbda22955	-0.0791804
237	0xbccc3664	-0.02492828
238	0xbb58f02a	-0.0033102133
239	0xbdcaa4ca	-0.09894712
240	0xbe14ebb3	-0.14543037
241	0xbd973616	-0.07383363
242	0xbe0e454c	-0.13893622
243	0xbdf69f69	-0.12042124
244	0xbdbd8cfb	-0.092554055
245	0x3d38b824	0.045097485
246	0x3d7ee36a	0.062228598
247	0xbd27ca5a	-0.040964462
248	0xbcd257ba	-0.025676597
249	0x3dfb16a3	0.12260177
250	0xbe2f8ba4	-0.17143112
251	0x3df852be	0.12125157
252	0x3e2912ab	0.16511028
253	0xbe12e7e6	-0.14346275
254	0x3df475ca	0.11936529
255	0xbdcb615b	-0.099306785

model.encoder.nb_encoder.0.2.bias f4 [32]
0	0x3caa9b8e	0.020826127
1	0x3da88224	0.08227947
2	0x3e135cf5	0.14390929
3	0x3b6ae621	0.0035842734
4	0xbc5be2a6	-0.013420736
5	0x3def1ce3	0.116754316
6	0x3dc3edb4	0.09566823
7	0xbe236bce	-0.15959093
8	0x3e2d81ca	0.16944042
9	0x3da618f3	0.081102274
10	0x3d4df9fe	0.05028724
11	0x3ce5e07a	0.02806114
12	0x3d1678a8	0.03673616
13	0x3e0d8e8e	0.13823912
14	0xbd07f1e5	-0.033189673
15	0x3e077f65	0.13232191
16	0x3d474f63	0.048659693
17	0x3c240f23	0.0100133745
18	0xbe01e040	-0.12683201
19	0xbdd23fbe	-0.10266064
20	0xbe058aa8	-0.13041174
21	0xbe32b4ed	-0.1745183
22	0x3dd64996	0.10463254
23	0xbdf01952	-0.117235795
24	0xbd7742da	-0.06036649
25	0xbc03664e	-0.008019997
26	0x3dd1eb49	0.10249955
27	0x3ddac94c	0.106829256
28	0x3e0ddc53	0.13853578
29	0xbdec3245	-0.11533026
30	0xbd2937c5	-0.04131295
31	0xbd1d8a9c	-0.038462266
