pinn2/checkpoint/simulator.pth (torch, 927621 bytes, 347 tensors)

model.encoder.eb_encoder.0.0.weight f4 [32, 10]
0	0xbe16d581	-0.14729883
1	0xbeaec11b	-0.34131703
2	0x3d34e338	0.044162005
3	0x3e0b1116	0.13580737
4	0xbe7d2e35	-0.24724658
5	0x3e1a4638	0.15065849
6	0xbe6dac7d	-0.2321033
7	0xbd9705d5	-0.07374159
8	0x3df7954a	0.120890215
9	0xbea1d94b	-0.31611094
10	0x3e73a8da	0.2379488
11	0x3e939158	0.28821826
12	0xbe1c650d	-0.15272923
13	0x3ddabac2	0.106801525
14	0x3e729fdc	0.23693794
15	0xbaf1dc8b	-0.0018452568
16	0xbd4fda0a	-0.050745048
17	0x3e7b76d8	0.24557054
18	0xbea26b59	-0.31722525
19	0xbe841e72	-0.25804478
20	0x3cc85a65	0.024457166
21	0xbe50f431	-0.20405652
22	0x3c407ec3	0.011748972
23	0xbe10404a	-0.14087024
24	0xbe0e0a43	-0.13871102
25	0x3c0390f2	0.008030163
26	0x3e8af2f1	0.27138475
27	0xbe2564c5	-0.16151722
28	0xbe8d3aaa	-0.2758382
29	0xbdb7a69f	-0.08967327
30	0x3d399955	0.045312244
31	0x3e44abd6	0.19206175
32	0x3b02e9a5	0.0019975689
33	0xbe1321ed	-0.1436841
34	0xbe261a81	-0.16221048
35	0x3d1dd4e7	0.038533118
36	0x3e377a1c	0.17917675
37	0x3e8cd9e4	0.27509987
38	0x3e7c09e2	0.24613145
39	0xbe41f8ae	-0.1894252
40	0xbea1bf81	-0.31591418
41	0xbdf7ce99	-0.12099952
42	0xbe6546ef	-0.2239034
43	0x3e5cacff	0.21550368
44	0x3cb7d37a	0.022439707
45	0x3ceb3f28	0.028716639
46	0x3dea9da7	0.11455851
47	0xbda6fcda	-0.08153696
48	0xbe3e4cdc	-0.18584007
49	0xbe19ff02	-0.15038684
50	0xbe5deb73	-0.21671848
51	0xbcbca1ae	-0.023026314
52	0xbd08b322	-0.03337396
53	0xbe6a330d	-0.22871037
54	0xbe193a77	-0.14963709
55	0xbe0900cc	-0.1337921
56	0xbdb4974e	-0.088179216
57	0x3d3e4b27	0.04645839
58	0xbe42df57	-0.1903051
59	0xbe5b3e19	-0.21410407
60	0x3eae352f	0.3402495
61	0xbe8914c2	-0.2677365
62	0x3e67465a	0.2258543
63	0xbcad118e	-0.021126535
64	0xbe02866c	-0.1274659
65	0x3e88b9a3	0.2670413
66	0x3e6842eb	0.22681777
67	0x3d0d7d4c	0.03454332
68	0x3e833597	0.25626823
69	0x3cf75d34	0.03019581
70	0xbe327d1f	-0.17430542
71	0xbddb3dce	-0.10705148
72	0x3e8ad0f5	0.27112547
73	0x3d0899c7	0.03334978
74	0xbcf85dc6	-0.030318152
75	0xbe882178	-0.26588035
76	0xbe947b18	-0.29000163
77	0x3c94a269	0.01814385
78	0x3d272507	0.040806796
79	0xbe60f212	-0.21967342
80	0x3e321f01	0.1739464
81	0xbd82799e	-0.06370853
82	0xbe114941	-0.141881
83	0xbe52f37a	-0.20600691
84	0xbd4d36b6	-0.050101005
85	0xbe15ef5e	-0.14642093
86	0xbd57d4b3	-0.05269308
87	0x3dc40d03	0.09572794
88	0x3da890c5	0.082307376
89	0xbe27ee56	-0.16399512
90	0x3e195808	0.14974988
91	0xbdd81b0e	-0.10552035
92	0x3e1de754	0.15420276
93	0x3e5f6892	0.21817234
94	0x3e98fbe8	0.2987969
95	0xbd139cfc	-0.036038384
96	0x3e757f78	0.23974407
97	0xbd2b08f0	-0.04175657
98	0x3e68322d	0.2267539
99	0x395f8562	0.00021316626
100	0xbe4f8243	-0.20264535
101	0x3e603b78	0.21897686
102	0x3dc7da5d	0.09758446
103	0xbdd8b34c	-0.10581073
104	0xbe15cd4e	-0.14629099
105	0x3e9b5162	0.30335528
106	0x3e7f6c91	0.24943759
107	0xbe73f14e	-0.23822519
108	0xb9a972e7	-0.000323198
109	0xbe259366	-0.1616951
110	0x3e67d40d	0.22639485
111	0xbe62c268	-0.22144473
112	0xbe5d8723	-0.21633582
113	0xbdc60492	-0.096688405
114	0x3e0a7d54	0.13524371
115	0x3d9bce68	0.07607728
116	0xbd0d4161	-0.03448618
117	0x3e899787	0.2687342
118	0x3e67dc81	0.2264271
119	0x3dd48a46	0.10377936
120	0x3e8975e7	0.26847765
121	0xbdea59f9	-0.11442942
122	0xbe32cbfd	-0.17460628
123	0x3e0e9656	0.13924536
124	0x3dacf552	0.08445229
125	0x3e7ce8bc	0.24698156
126	0x3dcc69ea	0.09981139
127	0xbe888694	-0.26665175
128	0x3ea82ef1	0.32848313
129	0x3d89e563	0.06733205
130	0x3e92bbf2	0.28659016
131	0x3e08fdbd	0.13378043
132	0xbde18583	-0.110117935
133	0x3c904cd5	0.017614761
134	0x3e91153d	0.28336516
135	0xbe709b4f	-0.23496746
136	0xbe471b04	-0.194439
137	0xbe4edd66	-0.20201644
138	0x3e02fba2	0.12791303
139	0x3c7ed4f2	0.0155537
140	0xbda78690	-0.08179963
141	0x3e6738db	0.22580282
142	0x3e69053e	0.22755906
143	0x3e256261	0.1615081
144	0x3d9dcfd6	0.07705657
145	0x3d44cc4b	0.04804639
146	0xbe3616c2	-0.17782119
147	0x3cb0ef4f	0.021598486
148	0xbdc5e5e3	-0.09662988
149	0xbae5fd3c	-0.0017546783
150	0xbe68dfec	-0.2274167
151	0xbe70da96	-0.23520884
152	0xbe0a45f4	-0.13503247
153	0x3ea7d23b	0.3277758
154	0x3e827e3a	0.25486928
155	0x3e9d0da4	0.3067447
156	0xbe3d710d	-0.18500157
157	0x3e060546	0.13087949
158	0x3e948464	0.29007256
159	0xbe0ecf64	-0.139463
160	0xbb5a74ab	-0.00333337
161	0x3d9294f7	0.07157319
162	0x3e1f15e6	0.15535697
163	0x3e74236f	0.23841642
164	0x3e40cb96	0.18827662
165	0xbe5ee0a6	-0.21765384
166	0xbc25ce2d	-0.010119957
167	0x3d9cc6a4	0.07655075
168	0xbe4e0138	-0.20117652
169	0xbe9f2a61	-0.3108702
170	0x3e95c261	0.29249862
171	0xbdbe5cb0	-0.092950225
172	0xbbd122f7	-0.006382342
173	0xbe84c0aa	-0.2592824
174	0x3e542701	0.20718004
175	0xbd7fd6f2	-0.062460847
176	0xbe1e6fe0	-0.15472364
177	0x3e282eca	0.16424099
178	0x3e3ea56f	0.18617795
179	0x3e646947	0.22305785
180	0xbda78a8c	-0.081807226
181	0xbdf529f5	-0.11970893
182	0xbdde8456	-0.10865085
183	0x3e7e0f0e	0.2481043
184	0xbca4fcf7	-0.020140154
185	0x3d88490b	0.06654557
186	0x3e3c628b	0.18396966
187	0x3d9f223c	0.077702016
188	0xbe8000c0	-0.25000572
189	0x3e9fb10b	0.3118976
190	0xbe88aed8	-0.26695895
191	0x3ddf581f	0.1090548
192	0x3e3d7f6d	0.1850564
193	0x3e0a64ff	0.1351509
194	0xbe91b080	-0.2845497
195	0x3e4950cc	0.19659728
196	0x3ccbfc52	0.02490059
197	0x3e921f7f	0.28539655
198	0x3e97c6dc	0.29643905
199	0x3e8eb394	0.27871382
200	0xbe82f75d	-0.25579348
201	0x3d78b738	0.060721606
202	0xbd90f1a9	-0.07077343
203	0xbe69c9e0	-0.22830915
204	0x3d84665d	0.06464837
205	0x3d64ec3a	0.055889346
206	0xbe8240a4	-0.25439942
207	0x3e012f79	0.12615766
208	0xbea5ff62	-0.32421404
209	0x3e815495	0.25259843
210	0xbe4f5943	-0.20248894
211	0xbe7fefa1	-0.24993755
212	0xbd98aa94	-0.0745441
213	0xbe6cbf30	-0.23119807
214	0xbe9b1414	-0.30288756
215	0x3e89229c	0.26784217
216	0xbe96c38b	-0.29446062
217	0x3e0493a4	0.12946945
218	0xbe1a9c5a	-0.15098706
219	0xbe3a378d	-0.18185253
220	0xbe5f24c7	-0.21791373
221	0x3e41aa6a	0.18912664
222	0xbe7fc8ca	-0.24978939
223	0xbdb79c1b	-0.08965322
224	0xbc9397b2	-0.01801667
225	0x3ecd1344	0.4005376
226	0x3eaee41e	0.34158415
227	0xbe0dc257	-0.13843666
228	0xbe1f5dd2	-0.15563133
229	0xbe00d741	-0.12582113
230	0xbe50c068	-0.20385897
231	0x3d91dafc	0.07121846
232	0xbdc4f3dd	-0.09616826
233	0x3dc8df27	0.09808188
234	0xbd3c98b1	-0.046044055
235	0x3da313fc	0.07962796
236	0xbe74fc47	-0.23924361
237	0x3d087971	0.03331894
238	0x3e410da2	0.18852857
239	0xbdc40509	-0.09571273
240	0xbe809918	-0.251168
241	0xbe41d939	-0.1893052
242	0x3e2bee61	0.16790153
243	0xbe958c61	-0.29208663
244	0x3e5d5427	0.21614133
245	0xbd80ccc7	-0.06289058
246	0xbe713496	-0.23555216
247	0x3e688dac	0.22710294
248	0x3e51af8c	0.20477122
249	0x3cc2e31e	0.023789939
250	0x3e94a9fe	0.29035944
251	0x3b08740b	0.002082112
252	0x3e83482c	0.25641
253	0xbdb5fae8	-0.08885747
254	0x3e9aee27	0.3025982
255	0x3e6aa146	0.22913083

model.encoder.eb_encoder.0.0.bias f4 [32]
0	0xbe2cc106	-0.16870508
1	0x3e36e346	0.17860135
2	0xbe8ac0a0	-0.27100086
3	0x3cfb751d	0.030695492
4	0x3e05a3b7	0.13050734
5	0xbe85f493	-0.26163158
6	0x3e6f4406	0.23365793
7	0xbb94e8f5	-0.004544372
8	0x3e4c7cc2	0.19969466
9	0xbe1e2326	-0.15443096
10	0x3e899285	0.26869598
11	0xbe46566c	-0.19368905
12	0x3d9b90b4	0.07595959
13	0x3e387b69	0.18015827
14	0xbe3fe848	-0.18740952
15	0xbe04a75f	-0.12954472
16	0xbdd1fd85	-0.10253433
17	0x3e3407cc	0.175811
18	0x3e8fea3a	0.28108388
19	0xbe22482f	-0.15847848
20	0xbe49aa62	-0.19693902
21	0xbbb82e49	-0.005620752
22	0x3e94d5f6	0.2906949
23	0x3ea3812f	0.31934497
24	0xbd85e739	-0.06538243
25	0xbe39aac6	-0.18131551
26	0x3e24f484	0.161089
27	0xbe543b7a	-0.20725814
28	0x3dff8f8f	0.124785535
29	0x3daa027e	0.083012566
30	0xbe1941b1	-0.14966466
31	0xbe9bcd23	-0.30429944

model.encoder.eb_encoder.0.2.weight f4 [32, 32]
0	0xbe04ff0f	-0.12987922
1	0xbe29b3e4	-0.16572529
2	0x3d8ed49b	0.06974145
3	0xbe0d6c72	-0.138109
4	0x3c31c34e	0.010849787
5	0x3d91ae86	0.07113366
6	0xbdbeaa11	-0.09309781
7	0x3e18157e	0.14851949
8	0x3e2ec265	0.17066343
9	0x3d937c41	0.07201434
10	0xbe1bc336	-0.15211186
11	0xbc950d98	-0.018194959
12	0xbdd7bf32	-0.105345145
13	0xbe2dc94e	-0.16971323
14	0x3d984203	0.07434466
15	0xbdb329ff	-0.087482445
16	0x3dbb39e4	0.09141901
17	0x3db12243	0.08649113
18	0x3e182417	0.14857517
19	0xbb82e430	-0.003994487
20	0x3ded1b54	0.11577478
21	0xbcef7bae	-0.02923378
22	0xbddaa420	-0.106758356
23	0xbdbf8f30	-0.09353483
24	0xbcb11f52	-0.02162138
25	0x3d19c3cd	0.037540246
26	0x3d64d478	0.05586669
27	0x3e2a7651	0.16646697
28	0x3da7fdeb	0.08202728
29	0x3dd40613	0.10352721
30	0xbe5591a5	-0.2085634
31	0xbd7fca7f	-0.062448975
32	0x3e1630ea	0.14667097
33	0x3db4928d	0.08817015
34	0x3d9bc520	0.07605958
35	0x3e227d30	0.15868068
36	0x3c8e1eb0	0.017348617
37	0x3cd37e09	0.025816934
38	0x3e304f20	0.17217684
39	0xbd92eaa4	-0.071736604
40	0x3dc5a2b7	0.09650176
41	0x3d0d2bf6	0.034465753
42	0x3d791e12	0.060819693
43	0x3df53344	0.11972669
44	0xbd22125d	-0.039568294
45	0x3df64c62	0.120262876
46	0xbdb0dfe5	-0.086364545
47	0xbe1b72d6	-0.15180525
48	0xbd9ef4de	-0.077615485
49	0x3e16f99e	0.14743659
50	0xbcb97c38	-0.02264224
51	0xbcecc740	-0.028903604
52	0x3c2b971a	0.010473037
53	0x3d40fea2	0.047117837
54	0x3e26d06c	0.16290444
55	0xbdff2b3a	-0.12459417
56	0xbdd1d15f	-0.102450125
57	0x3e155fa5	0.14587267
58	0xbd111496	-0.035420023
59	0xbcb0a9ba	-0.021565307
60	0x3decf4f4	0.115701586
61	0x3d67bc3d	0.056576002
62	0x3db594ce	0.08866273
63	0x3da73b72	0.08165635
64	0x3d5776a8	0.052603394
65	0x3cac6195	0.021042624
66	0x3cdb96e1	0.026805343
67	0xbdc14f3f	-0.09438943
68	0x3dd43460	0.10361552
69	0xbdfed63b	-0.12443205
70	0xbbbea295	-0.005817721
71	0x3b32e8b7	0.0027299353
72	0x3e07977e	0.13241383
73	0x3e2e5723	0.17025428
74	0x3d7d0016	0.06176766
75	0x3cb2b688	0.021815553
76	0xbda96af5	-0.082723536
77	0xbd881c17	-0.06645983
78	0xbc0e1665	-0.008672331
79	0x3e7f0dd0	0.24907613
80	0x3db8d525	0.09025029
81	0x3d4a9e11	0.04946715
82	0xbd9243ee	-0.07141863
83	0xbda5a64a	-0.08088358
84	0x3d7a1a3e	0.061060183
85	0x3e72c6f9	0.23708715
86	0xbd6cd9ea	-0.057825007
87	0xbce10852	-0.027469788
88	0xbd982115	-0.07428185
89	0x3e1e6f90	0.15472245
90	0xbd2e9b49	-0.04262856
91	0xbdeba36b	-0.11505779
92	0x3d156faf	0.036483463
93	0x3d096044	0.03353907
94	0x3dfa4caf	0.122216575
95	0x3e4d83b2	0.20069769
96	0xbe02c465	-0.12770231
97	0xbd915d26	-0.07097845
98	0x3deaa218	0.11456698
99	0xbdfa45c5	-0.12220339
100	0x3d438d47	0.047742154
101	0x3d025757	0.031821575
102	0xbd4d4b12	-0.05012042
103	0x3d9b5828	0.07585174
104	0x3d741235	0.059587676
105	0xbe509d6f	-0.20372556
106	0x3ca62e18	0.020285651
107	0xbdaa8372	-0.083258525
108	0xbe0c25e3	-0.13686328
109	0x3ce52bf3	0.027975058
110	0x3dc63abe	0.09679173
111	0x3d932b7c	0.07186028
112	0x3e12f791	0.14352252
113	0xbddb31e0	-0.10702872
114	0xbe07ded6	-0.13268599
115	0x3dd0d8e2	0.10197617
116	0xbdad2874	-0.084549814
117	0x3d3374c9	0.043812547
118	0xbdb3c4da	-0.08777781
119	0x3d92a715	0.071607746
120	0x3ca53770	0.020168036
121	0xbdbba216	-0.09161775
122	0xbe43046f	-0.1904466
123	0x3dbba3b1	0.09162081
124	0xbc87af73	-0.016563153
125	0x3e071e3b	0.13195126
126	0x3d979a01	0.07402421
127	0xbe411254	-0.18854648
128	0xbd0eb467	-0.034840014
129	0x3d8384b7	0.06421798
130	0x3e192b57	0.14957939
131	0x3df94c08	0.12172705
132	0xbe0a31ef	-0.1349561
133	0x3cbbdd32	0.022932623
134	0x3db8c646	0.09022193
135	0x3de50743	0.11183026
136	0xbdb545b8	-0.088511884
137	0xbe17bbd9	-0.14817752
138	0x3da69d14	0.08135429
139	0xbe0ba68d	-0.13637753
140	0xbe3d4e74	-0.18486959
141	0xbe0bb3b5	-0.13642772
142	0xbe1cdf2b	-0.15319507
143	0x3e24eae6	0.16105232
144	0xbd867a9c	-0.06566355
145	0x3e2b5d60	0.16734838
146	0xbe3082fe	-0.1723747
147	0x3d4b1a41	0.049585585
148	0xbe19c7bf	-0.15017603
149	0x3e0131ae	0.12616608
150	0x3de72a04	0.11287311
151	0x3da6e85f	0.0814979
152	0x3c803dc7	0.015654458
153	0xbdd508de	-0.10402082
154	0xbe25dd7d	-0.16197772
155	0xbd8b1b84	-0.067923576
156	0xbcb837f0	-0.02248761
157	0x3c2bf924	0.0104964115
158	0xbdb3664e	-0.087597474
159	0x3d536fd9	0.051620338
160	0xbdeb7a24	-0.11497906
161	0xbe07014a	-0.13184085
162	0xbdce95e6	-0.100871846
163	0xbdba7d4b	-0.09105929
164	0x3e10c607	0.14138041
165	0xbe03fd8a	-0.12889686
166	0x3dfe8243	0.12427189
167	0xbc4f19f3	-0.012640464
168	0xbdb0e5b0	-0.086375594
169	0xbe0e4af8	-0.13895786
170	0xbd8369e7	-0.06416684
171	0xbd85e07f	-0.0653696
172	0x3cf9217b	0.030411473
173	0x3d582805	0.05277254
174	0xbd95ab7c	-0.07308099
175	0x3de48228	0.11157638
176	0x3dfec023	0.12438991
177	0x3d14a846	0.03629329
178	0x3e107347	0.14106475
179	0xbd9be9e2	-0.07612969
180	0xbc107eb7	-0.008819274
181	0x3da66e71	0.08126534
182	0xbe23cd7a	-0.15996352
183	0xbc9921ae	-0.018692818
184	0xbdc05067	-0.093903355
185	0xbd5c6ffe	-0.05381774
186	0xbe314f34	-0.1731537
187	0xbe243a01	-0.16037752
188	0x3d8e5479	0.06949706
189	0xbdd36389	-0.10321719
190	0x3dce0cdd	0.10061047
191	0x3d9da8c0	0.07698202
192	0x3df57947	0.119860224
193	0x3e2c6ef7	0.16839205
194	0x3d3c4e4a	0.0459731
195	0x3d3e3af0	0.046442926
196	0x3e0ac38d	0.13551159
197	0xbe2067aa	-0.15664545
198	0xbd011a91	-0.031519476
199	0xbd336afa	-0.043803193
200	0xbd5b935e	-0.053607337
201	0xbd20389b	-0.039116483
202	0xbdc521cf	-0.09625589
203	0x3d0a1f59	0.0337213
204	0x3cb22edc	0.02175086
205	0xbca60c01	-0.020269396
206	0x3e21154c	0.1573078
207	0xbe00450b	-0.12526338
208	0x3d927c37	0.07152598
209	0xbaec9606	-0.0018050082
210	0xbe1dae8f	-0.1539862
211	0xbce33a26	-0.027737688
212	0xbe21ccfe	-0.15800855
213	0x3dfafe15	0.122554936
214	0xbd99e6b4	-0.07514706
215	0xbe054b7f	-0.1301708
216	0x3d244b85	0.040111084
217	0xbd948afb	-0.07253071
218	0x3d671195	0.056413252
219	0xbcbb12ee	-0.022836175
220	0xbde05de0	-0.10955405
221	0x3d15c0ee	0.036560945
222	0x3dcce85c	0.100052565
223	0x3b865884	0.0040999074
224	0x3c20ed1c	0.009822156
225	0xbe0af722	-0.13570836
226	0xbe09a51e	-0.13441893
227	0x3d34f6b1	0.044180576
228	0x3d8397c8	0.06425434
229	0xbe12915d	-0.14313264
230	0xbdc6798e	-0.096911535
231	0xbd12df9a	-0.035857774
232	0x3dbfacb3	0.09359112
233	0xbd9e9737	-0.07743686
234	0x3dffcd63	0.12490346
235	0x3d8e3e11	0.06945432
236	0x3ddd44bd	0.108041264
237	0xbdb2990b	-0.08720597
238	0xbe126f5d	-0.14300294
239	0x3c23dc18	0.010001205
240	0xbe34c036	-0.17651448
241	0x3c25f7fd	0.010129926
242	0xbda6577f	-0.08122157
243	0xbe253f10	-0.16137338
244	0xbdabeb18	-0.0839445
245	0xbe0ea159	-0.13928737
246	0xbdd20b04	-0.10256007
247	0x3c957f02	0.018249039
248	0x3e22c4ca	0.15895382
249	0xbc8670c1	-0.016411187
250	0xbaa6a559	-0.0012714072
251	0x3d8c0b52	0.06838097
252	0xbdebfd7f	-0.1152296
253	0xbb3f9d3c	-0.0029238006
254	0x3e12c5c8	0.1433326
255	0x3e1be13a	0.15222636

model.encoder.eb_encoder.0.2.bias f4 [32]
0	0xbdecd3e2	-0.11563851
1	0xbe175ae8	-0.14780772
2	0x3e5360ea	0.20642439
3	0xbe148b9d	-0.14506383
4	0x3d52d8e7	0.051476385
5	0x3d3c2864	0.045936957
6	0x3cf91567	0.030405713
7	0x3e330ca4	0.17485291
8	0xba19862d	-0.00058564806
9	0xbd44b67c	-0.048025593
10	0x3dc74d52	0.097315446
11	0x3e0e679c	0.13906711
12	0xbd6bfeb9	-0.05761597
13	0xbe1de61b	-0.1541981
14	0x3cb4188c	0.021984361
15	0x3e28acd9	0.16472186
16	0xbe227a16	-0.15866885
17	0x3de83bca	0.11339529
18	0xbde36167	-0.111025624
19	0xbe1e1b61	-0.15440132
20	0xbd9b333d	-0.07578132
21	0xbd9933c3	-0.07480576
22	0x3e2e84b3	0.17042808
23	0x3dc4d8e7	0.09611683
24	0xbd81b152	-0.06332649
25	0x3e1f177f	0.15536307
26	0xbdb61304	-0.08890346
27	0xbe12ea2a	-0.14347139
28	0x3b5c41cf	0.003360856
29	0xbddaf1e1	-0.10690666
30	0xbdc332bc	-0.09531161
31	0xbe3514bc	-0.17683691

model.encoder.eb_encoder.0.4.weight f4 [32, 32]
0	0x3c1e7039	0.009670311
1	0xbd1c05a8	-0.03809133
2	0xbdd35c60	-0.103203535
3	0x3de6ae3c	0.11263701
4	0x3e0a120b	0.13483445
5	0x3db5e84f	0.088822
6	0xbbe33806	-0.0069341687
7	0xbdded4f0	-0.10880458
8	0x3e107efc	0.1411094
9	0xbde96050	-0.11395323
10	0x3d6c2265	0.05764999
11	0xbe242433	-0.16029434
12	0xbd3daba1	-0.046306256
13	0x3e0509a8	0.12991965
14	0xbcbccf4f	-0.023048071
15	0xbd95a269	-0.07306368
16	0xbd381307	-0.04494002
17	0xbd1202c8	-0.035647184
18	0xbdc5a675	-0.0965089
19	0x3d962f6b	0.07333263
20	0x3dbb8667	0.091564946
21	0xbdd11789	-0.10209567
22	0x3cbf9923	0.023388451
23	0xbe25d22f	-0.1619346
24	0x3ddbfc81	0.10741521
25	0x3daaf4c8	0.083474696
26	0xbd081ba2	-0.033229478
27	0x3d6ef526	0.05833926
28	0xbbd7784f	-0.006575621
29	0xbbcc18e5	-0.0062285536
30	0x3d836d95	0.064173855
31	0xb830a1a3	-4.2112206e-05
32	0xbdac3956	-0.084093735
33	0xbd980f96	-0.07424848
34	0xbda11d97	-0.07866972
35	0xbd95ce27	-0.07314711
36	0x3da0dd21	0.07854677
37	0x3d8f18f4	0.06987181
38	0xbaf0f52d	-0.0018383615
39	0xbd17c4bb	-0.03705285
40	0xbe0fa8a6	-0.14029178
41	0x3cca0ea3	0.024665182
42	0x3df04ba8	0.1173318
43	0x3e600d67	0.21880113
44	0x3ddfa644	0.109203845
45	0xbd9ee061	-0.07757641
46	0x3c9c7d5f	0.01910275
47	0xbcee2264	-0.029069133
48	0x3d30e8b8	0.043190688
49	0x3e2ef917	0.17087208
50	0xbd6f1b94	-0.05837591
51	0xbd99f99c	-0.07518312
52	0xbdb52935	-0.0884575
53	0x3d3dd669	0.046347056
54	0xbd546c48	-0.051861078
55	0x3e1aa68e	0.15102598
56	0xbe07817b	-0.13232987
57	0xbd0f1f7d	-0.03494214
58	0x3e364237	0.17798696
59	0x3d8bbca2	0.06823088
60	0x3dc8db3a	0.09807439
61	0x3cfce3dd	0.030870372
62	0xbdf15c5d	-0.11785195
63	0x3da829eb	0.0821112
64	0xbceb3d7b	-0.02871584
65	0xbadff5ef	-0.0017086844
66	0x3dc31f65	0.095274724
67	0xbd9c49f5	-0.07631294
68	0xbe1165ab	-0.1419894
69	0x3d4388ca	0.047737874
70	0x3d8a50dd	0.06753705
71	0xbdac4d80	-0.084132195
72	0x3d9e9524	0.0774329
73	0xbdb30897	-0.08741873
74	0xbe02dd49	-0.12779726
75	0xbcad3ee8	-0.02114816
76	0x3da0f509	0.07859237
77	0x3e3fcdff	0.18730925
78	0x3e1c1518	0.15242422
79	0xbc561103	-0.013065579
80	0x3d0dec66	0.034649275
81	0x3ce66e5d	0.028128797
82	0xbc6c162c	-0.014409583
83	0x3d5a2356	0.053256355
84	0xbd5ade65	-0.05343475
85	0xbc9e3ab0	-0.019315094
86	0xbc114216	-0.008865854
87	0xbe030c39	-0.12797631
88	0x3c574072	0.013137924
89	0xbdb406c8	-0.08790356
90	0xbe18afcd	-0.14910813
91	0x3ce13943	0.027493125
92	0x3e52e9c4	0.20596987
93	0x3d4e8a80	0.050425053
94	0x3df71ec1	0.12066413
95	0x3cbcc718	0.023044154
96	0xbd07e1ce	-0.03317433
97	0xbd6afed9	-0.057371948
98	0xbb4a50a8	-0.0030870829
99	0xbe14f3d7	-0.14546143
100	0x3e04017f	0.12891196
101	0xbc4fd8dd	-0.012685982
102	0x3c8717cd	0.016490841
103	0x3e2e988d	0.17050381
104	0xbd01c7f1	-0.03168482
105	0xbdefa80d	-0.11701975
106	0xbd249c5e	-0.040188186
107	0x3d05679f	0.032569524
108	0xbdd53496	-0.104104206
109	0xbe1a0c84	-0.15043837
110	0x3c4ad46a	0.012379745
111	0xbd3aad61	-0.045575503
112	0x3dbfeb58	0.0937106
113	0xbcd83431	-0.026392074
114	0x3e0f02c5	0.139659
115	0xbe0b6254	-0.13611728
116	0x3c648432	0.013947533
117	0x3d419af0	0.0472669
118	0xbe032ff7	-0.12811266
119	0xbd29b7b7	-0.04143497
120	0xbd414bf8	-0.04719159
121	0x3d6a9b83	0.057277214
122	0x3df4ff9d	0.11962817
123	0x3dbd09af	0.092303626
124	0x3e265525	0.16243418
125	0xbd96dcf7	-0.073663644
126	0xbdf31b2a	-0.118704155
127	0x3e0f1bf0	0.13975501
128	0xbcf5d61a	-0.030009318
129	0xbc3230b3	-0.010875869
130	0x3d9779ee	0.07396303
131	0x3b9a1260	0.0047018975
132	0xbe1f5b5b	-0.15562193
133	0x3e0d6eef	0.13811849
134	0xbe3575f7	-0.17720781
135	0x3e1e359e	0.15450141
136	0xbe03a189	-0.1285459
137	0x3e1c7e33	0.15282516
138	0x3d82d97a	0.063891366
139	0xbe34347a	-0.17598143
140	0xbb52d508	-0.0032170434
141	0x3e03027f	0.12793921
142	0x3d822efa	0.06356616
143	0x3d138e8f	0.036024626
144	0xbc73b67f	-0.014875053
145	0xbc2110a2	-0.009830626
146	0xbdded7c1	-0.108809955
147	0x3df76eb6	0.12081663
148	0x3d186b0a	0.037211455
149	0xbdd6fecf	-0.1049782
150	0xbd354948	-0.04425934
151	0xbddb12b8	-0.1069693
152	0xbc43620a	-0.01192523
153	0x3c8a88b2	0.016910885
154	0x3e2db373	0.16962986
155	0x3d333477	0.043751206
156	0xbde24804	-0.11048892
157	0x3ded99d7	0.11601608
158	0xbdbf131c	-0.09329817
159	0xbda7a940	-0.08186579
160	0x3e1bee2e	0.15227577
161	0x3db559ec	0.08855042
162	0xbcbd4af3	-0.023107028
163	0xbe1bd174	-0.15216619
164	0xbd832325	-0.06403188
165	0xbdc00a08	-0.09376913
166	0x3c58dc9e	0.013236193
167	0x3dedb199	0.1160614
168	0xbcbd3869	-0.023098188
169	0x3d67aae4	0.05655946
170	0xbcf863a9	-0.03032096
171	0xbddc1b99	-0.10747451
172	0xbd461b14	-0.048365667
173	0x3de5021b	0.11182042
174	0xbe04644b	-0.12928884
175	0x3e0afe6a	0.13573614
176	0x3c83c288	0.01608397
177	0xbc863c64	-0.016386218
178	0xbc884405	-0.016633997
179	0xbe0753aa	-0.13215509
180	0xbd270847	-0.04077938
181	0x3da7012d	0.08154521
182	0xbe0fd1d2	-0.14044884
183	0x3df44e8d	0.11929045
184	0x3e39221d	0.1807942
185	0xbe0ee1a2	-0.1395326
186	0x3da587fb	0.08082577
187	0xbddda0f9	-0.10821719
188	0xbe2c04ce	-0.16798708
189	0x3db01cb0	0.08599222
190	0xbde35cf0	-0.11101711
191	0x3ccbb284	0.024865396
192	0x3be5b20f	0.0070097516
193	0x3d545cb7	0.051846232
194	0xbe302ef2	-0.17205408
195	0xbc7bf106	-0.015377289
196	0x3e199b34	0.15000612
197	0x3d93842b	0.072029434
198	0x3da3796c	0.07982144
199	0xbe4d4341	-0.20045187
200	0x3d3d5731	0.04622573
201	0xbdf243e9	-0.11829359
202	0xbb1f9378	-0.0024349373
203	0x3d5408c1	0.05176616
204	0xbbd4968c	-0.006487673
205	0x3d9a13e8	0.07523328
206	0xbdd1dac4	-0.10246804
207	0x3d8ff05f	0.07028269
208	0x3dfcdd34	0.12346879
209	0xbdd80dac	-0.10549483
210	0x3dd50a97	0.104024105
211	0xbdc0fa6f	-0.094227664
212	0xbd054ec0	-0.032545805
213	0x3e1f9bee	0.15586826
214	0x3e0aaff7	0.13543688
215	0xbe2696e0	-0.16268492
216	0x3cb8103f	0.022468684
217	0x3c4f6309	0.012657889
218	0xbe162405	-0.14662178
219	0x3e375a30	0.17905498
220	0xbddde1d6	-0.108340904
221	0x3e1f9f22	0.15588048
222	0xbd41fb54	-0.047358826
223	0xbda69a59	-0.08134908
224	0xbce185c4	-0.027529605
225	0x3d045658	0.032308906
226	0x3e2d46d8	0.16921556
227	0x3e13aad1	0.1442063
228	0xbdb0dc2a	-0.08635743
229	0xbdf170d4	-0.117890984
230	0x3d8d927c	0.06912705
231	0x3c0142e1	0.00788948
232	0xbd91f8a7	-0.07127505
233	0x3d6e3662	0.058157332
234	0x3c0e12d5	0.008671482
235	0x3dc9b191	0.09848321
236	0xbd76954c	-0.060200974
237	0xbe2cd393	-0.16877584
238	0xbc7ba385	-0.01535881
239	0x3e053b17	0.13010822
240	0xbcb2b5b1	-0.021815153
241	0xbcba9e72	-0.02278063
242	0xbc975198	-0.018471524
243	0x3d97b4cc	0.07407531
244	0xbe2a9541	-0.16658498
245	0x3dd7aa7a	0.10530563
246	0x3de0c592	0.109751835
247	0xbe4de5c2	-0.20107177
248	0xbe30d7b0	-0.17269778
249	0x3d8d16de	0.06889127
250	0xbdb76f4f	-0.08956777
251	0x3e0a5a34	0.13510972
252	0xbce38824	-0.027774878
253	0x3b79a6f6	0.0038093901
254	0x3dc64013	0.0968019
255	0xbda81db5	-0.08208791

model.encoder.eb_encoder.0.4.bias f4 [32]
0	0xbe14bae3	-0.14524417
1	0x3dfda928	0.123857796
2	0xbdf37ca5	-0.118890084
3	0x3e13854a	0.14406314
4	0xbe1052e0	-0.14094114
5	0xbd66af6f	-0.05631965
6	0x3d4ef5e4	0.05052747
7	0x3e15b934	0.1462143
8	0x3d90a047	0.070618205
9	0xbe002df4	-0.1251753
10	0x3cf19731	0.029491039
11	0xbd89024a	-0.0668989
12	0x3dc0ea33	0.0941967
13	0xbda16d28	-0.07882148
14	0x3dbe3dca	0.09289129
15	0xbe3032de	-0.17206904
16	0x3e000d5d	0.12505098
17	0x3e088ace	0.133342
18	0x3cdeaf6b	0.027183255
19	0x3da2cf45	0.0794969
20	0xbda6d0d2	-0.08145298
21	0xbe133f83	-0.14379697
22	0xbd692be9	-0.05692664
23	0xbe2275f4	-0.15865308
24	0x3cf69000	0.030097961
25	0xbd863055	-0.06552187
26	0xbddd39b8	-0.108020246
27	0xbd848369	-0.06470377
28	0x3c57f007	0.013179786
29	0x3e488ee6	0.19585761
30	0x3d6bec9f	0.057598706
31	0xbd872a1f	-0.06599831

model.encoder.eb_encoder.0.6.weight f4 [32, 32]
0	0xbd37cea8	-0.044874817
1	0xbdc3e4e2	-0.0956514
2	0xbde46de5	-0.11153773
3	0x3d6400ee	0.05566495
4	0x3abbb063	0.0014319535
5	0x3deab408	0.114601195
6	0xbdbe847b	-0.093026124
7	0xbde0f137	-0.10983508
8	0xbd9263cf	-0.07147943
9	0xbdb824a6	-0.08991365
10	0xbdcbe492	-0.09955706
11	0xbc909381	-0.01764846
12	0xbdf1e0db	-0.11810466
13	0x3dbdb9d6	0.09263961
14	0xbe05d8f4	-0.13071042
15	0x3d83ea49	0.06441171
16	0xbd10a29e	-0.035311334
17	0x3e23b5a9	0.15987267
18	0x3c0c4275	0.0085607665
19	0xba75ed77	-0.00093813933
20	0x3de80eda	0.11330958
21	0x3cdfeca4	0.027334519
22	0x3d023b58	0.031794876
23	0x3dd03a75	0.101674
24	0x3e205ddf	0.15660809
25	0x3da907ce	0.08253442
26	0x3de9b9f9	0.114124246
27	0x3e17489a	0.14773789
28	0x3d75d4e2	0.060017474
29	0x3cefac0d	0.029256845
30	0xbe241e6a	-0.16027227
31	0x3e31ef8c	0.17376536
32	0xbc939952	-0.018017445
33	0xbde13688	-0.10996729
34	0x3d0320c1	0.03201366
35	0xbe097be4	-0.13426167
36	0x3d936b30	0.07198179
37	0x3d4dc1b6	0.050233565
38	0xbe291455	-0.16511662
39	0xbd9dac0b	-0.0769883
40	0x3ab042b3	0.0013447612
41	0x3d8102ff	0.062993996
42	0xbdcd09ec	-0.10011658
43	0x3d5cf760	0.053946853
44	0xbdc1ca6e	-0.094624385
45	0xbdb86845	-0.09004263
46	0xbdce76f1	-0.1008128
47	0x3da06b89	0.07833011
48	0x3e1767ab	0.1478564
49	0x3c71cccd	0.014758301
50	0xbdbfca28	-0.0936473
51	0xbd64eb0c	-0.05588822
52	0x3d6db00b	0.058029216
53	0xbe18c227	-0.14917813
54	0xbced39fc	-0.028958313
55	0xbde35ae8	-0.11101323
56	0xbd8a6d5d	-0.06759141
57	0xbe21cf8e	-0.15801832
58	0x3da512e6	0.08060245
59	0x3e0c2827	0.13687192
60	0xbd1fec48	-0.039043695
61	0x3e40cfdd	0.18829294
62	0xbd655583	-0.055989753
63	0x3e14fc7c	0.1454944
64	0xbde69aac	-0.1125997
65	0x3e07e8ce	0.13272402
66	0xbe16d237	-0.14728628
67	0xbd8e99ef	-0.06962954
68	0xbe2b800c	-0.16748065
69	0x3db40503	0.087900184
70	0x3c9fbacf	0.019498257
71	0xbda26ef6	-0.0793132
72	0x3deeab0f	0.116537206
73	0x3d327ebb	0.04357789
74	0x3cad8308	0.021180645
75	0xbe32d1b6	-0.17462811
76	0xbbabdd81	-0.005244911
77	0x3d45526e	0.048174314
78	0x3dd6def6	0.10491745
79	0x3d92d3c3	0.071692966
80	0xbd3e7430	-0.046497524
81	0xbe24f3d4	-0.16108638
82	0x3e0acdd8	0.13555086
83	0x3dbcc738	0.092176855
84	0xbdc972b0	-0.09836328
85	0x3e2c892a	0.16849199
86	0x3d68f18d	0.056870986
87	0x3dfb1991	0.12260736
88	0xbe0b7607	-0.13619243
89	0xbc878c05	-0.016546259
90	0x3e18ea4e	0.1493313
91	0x3c9d7095	0.019218722
92	0xbe0c72bc	-0.13715643
93	0xbd99bcf9	-0.07506747
94	0xbdc65d5a	-0.09685774
95	0xbe484b80	-0.19560051
96	0xbd2f556e	-0.04280608
97	0x3d1716ec	0.036887094
98	0xbe642e1d	-0.22283216
99	0xbcaf3c3c	-0.021391027
100	0x3d67a005	0.05654909
101	0xba05593e	-0.00050868455
102	0x3c4487ec	0.011995297
103	0xbd0374b3	-0.032093715
104	0xbd0fef70	-0.035140455
105	0xbd3e67d0	-0.046485722
106	0x3d8311cd	0.063998796
107	0x3ddae2b5	0.10687772
108	0xbde01aad	-0.10942588
109	0x3e10178c	0.14071482
110	0x3e53c381	0.20680048
111	0x3df620ff	0.12018012
112	0xbe08063c	-0.13283628
113	0xbe2c6d79	-0.16838636
114	0x3d67fbcf	0.056636628
115	0xbe1ddc31	-0.15416028
116	0x3dfac82e	0.122452125
117	0x3cecfaa8	0.028928116
118	0x3e3d25c1	0.18471433
119	0xbe505eb2	-0.20348623
120	0xbdcaae68	-0.098965466
121	0xbe18be25	-0.14916284
122	0x3b3192d5	0.0027095575
123	0x3dbb32fb	0.09140583
124	0x3c199d04	0.009375814
125	0xbe3b0a51	-0.18265654
126	0xbd17ce92	-0.037062235
127	0x3d2158bc	0.039391264
128	0xbdb76223	-0.08954265
129	0x3e1941cd	0.14966507
130	0xbd354c44	-0.044262186
131	0xbdb9448e	-0.09046279
132	0xbe002f90	-0.12518144
133	0xbdd10ad6	-0.10207145
134	0x3da08d9a	0.07839508
135	0x3c13f057	0.009029469
136	0x3d54ac71	0.051922265
137	0x3e19f5fb	0.1503524
138	0x3de5601b	0.11199971
139	0x3db3a368	0.08771402
140	0xbe3fa7c2	-0.18716338
141	0x3e2db69b	0.1696419
142	0x3ca012ff	0.019540308
143	0xbe1a3836	-0.15060505
144	0x3c81a3a5	0.015825102
145	0xbdb90fd7	-0.09036224
146	0x3db6b4fc	0.08921239
147	0x3dbaaa5f	0.09114527
148	0x3e003efa	0.12524024
149	0xbbd8c416	-0.006615172
150	0x3df5f7ae	0.12010132
151	0xbe0e25bf	-0.13881586
152	0x3e06455d	0.13112397
153	0xbe3719c5	-0.17880924
154	0x3d35fd3b	0.044430953
155	0xbd262a08	-0.040567428
156	0x3dd585c0	0.104259014
157	0x3dff9398	0.12479323
158	0x3dff22c3	0.12457802
159	0x3d09ad22	0.033612378
160	0xbe396948	-0.18106568
161	0x3d95e8c8	0.0731979
162	0x3d7670c8	0.06016615
163	0x3d0c62ea	0.03427402
164	0xbca19d52	-0.019728336
165	0xbbf17043	-0.007368119
166	0xbd7d91e9	-0.06190673
167	0x3d99ee73	0.07516184
168	0xbb406985	-0.002935977
169	0xbcc4a4ac	-0.024004303
170	0x3d8ed6db	0.06974574
171	0x3d14599f	0.03621828
172	0xbd5d0cf9	-0.05396745
173	0xbc6ed925	-0.0145781385
174	0x3e14d3a7	0.14533864
175	0x3cdb19f5	0.026745776
176	0xbc0df078	-0.008663289
177	0x3c6ff697	0.014646194
178	0x3cbecb0c	0.02329018
179	0x3d72c759	0.059272144
180	0xbe2564e5	-0.1615177
181	0x3dcbdbf9	0.09954066
182	0xbd7fd03a	-0.06245444
183	0xbe384802	-0.17996219
184	0xbccc70aa	-0.024956066
185	0x3dd8a4be	0.10578297
186	0x3d30de42	0.04318071
187	0xbdd6e32a	-0.10492547
188	0x3db6526c	0.089024395
189	0x3b155b55	0.0022790034
190	0xbdfc10e6	-0.123079106
191	0x3db1f5e8	0.08689481
192	0x3db93e7b	0.0904512
193	0xbcc65796	-0.024211686
194	0xbc6e000b	-0.014526377
195	0xbd285891	-0.04110009
196	0x3e0ee265	0.1395355
197	0x3e065dfe	0.13121793
198	0x3db76ea4	0.0895665
199	0xbb8af3fa	-0.00424051
200	0xbe1eba51	-0.15500762
201	0xbe0eefbb	-0.13958637
202	0xbb503da9	-0.0031775034
203	0xbe28e9e9	-0.1649548
204	0xbdbadf99	-0.09124679
205	0x3d3a5e18	0.04549989
206	0x3e3948a6	0.1809412
207	0xbe13047e	-0.14357182
208	0xbdc9d66d	-0.098553516
209	0xbc42753e	-0.011868773
210	0xbd8fffbe	-0.07031201
211	0x3dfd86af	0.123792045
212	0x3d171656	0.036886536
213	0xbd0a5305	-0.03377058
214	0x3d94cf92	0.072661534
215	0xbd8b5546	-0.06803374
216	0x3d12e308	0.035861045
217	0xbd711c8b	-0.05886511
218	0xbd8c9ba5	-0.06865624
219	0x3ce23a36	0.027615648
220	0x3d6a7e57	0.057249393
221	0x3dfb1bcf	0.122611634
222	0xbde854b1	-0.113442786
223	0xbd248c9d	-0.04017316
224	0x3da021ba	0.07818933
225	0xbe020663	-0.12697749
226	0xbdd5bc53	-0.104363106
227	0xbddea6d3	-0.10871663
228	0x3e2ce522	0.16884282
229	0xbd854e08	-0.06509024
230	0x3d9f9c5c	0.07793495
231	0x3dc845b6	0.09778921
232	0xbe133913	-0.14377241
233	0x3d5a083c	0.05323051
234	0x3d01bbe3	0.031673323
235	0xbd608d17	-0.054822054
236	0x3da8e337	0.08246463
237	0x3d0097c9	0.031394754
238	0x3d8b0382	0.067877784
239	0xbd3d62db	-0.046236854
240	0x3d9547be	0.07289074
241	0x3dd44843	0.10365345
242	0x3ced2dbb	0.02895247
243	0x3e1fbd80	0.15599632
244	0xbdbe5aea	-0.09294684
245	0x3d979039	0.07400555
246	0xbe06d391	-0.13166644
247	0x3e0bbf0d	0.13647099
248	0xbdeb9e51	-0.11504806
249	0xbcdeebd4	-0.027212061
250	0x3d0f4344	0.03497626
251	0xbe1417a8	-0.14462149
252	0xbdf558e4	-0.11979845
253	0x3e0a5518	0.13509023
254	0xbe1f88ce	-0.1557953
255	0x3e0b034d	0.13575478

model.encoder.eb_encoder.0.6.bias f4 [32]
0	0xbdf27536	-0.118387625
1	0x3dd7e23d	0.105411984
2	0xbd513a24	-0.051080838
3	0x3e0e555f	0.13899754
4	0x3e201465	0.1563278
5	0x3c8725cb	0.016497513
6	0xbda95386	-0.08267884
7	0x3d7f52e1	0.0623349
8	0x3d77e757	0.060523357
9	0x3de0e774	0.10981646
10	0xbe06c966	-0.13162765
11	0x3e078d97	0.13237606
12	0x3e316019	0.17321815
13	0x3df61a4c	0.120167345
14	0xbbb04865	-0.005379724
15	0xbd249b4b	-0.04018716
16	0x3ccbf544	0.024897225
17	0x3d4e6dc1	0.05039764
18	0x3d7d7390	0.061877787
19	0x3d67b8dc	0.05657278
20	0xbe0b981f	-0.13632248
21	0xbdc2ba0f	-0.09508144
22	0x3e1bd056	0.15216193
23	0x3e169757	0.14706169
24	0xbdfc0f15	-0.12307564
25	0x3b8d5a0f	0.0043137143
26	0xbd1ad14b	-0.037797254
27	0x3de6da3e	0.11272095
28	0xbd3e4b0a	-0.04645828
29	0xbddb7006	-0.10714726
30	0xbd370d13	-0.044690203
31	0x3d91b52d	0.07114635

model.encoder.eb_encoder.1.weight f4 [32]
0	0x3f7eb115	0.99488956
1	0x3f81374c	1.0095
2	0x3f822cb1	1.0169889
3	0x3f8262e4	1.0186429
4	0x3f810691	1.0080129
5	0x3f82031d	1.01572
6	0x3f815b30	1.0105953
7	0x3f81ecbe	1.0150373
8	0x3f82923a	1.0200875
9	0x3f814e96	1.0102108
10	0x3f8020ac	1.0009971
11	0x3f81f395	1.015246
12	0x3f812fa1	1.009266
13	0x3f817a58	1.0115461
14	0x3f7fa253	0.9985706
15	0x3f83d316	1.0298793
16	0x3f80aac6	1.0052116
17	0x3f81452b	1.0099233
18	0x3f823bd8	1.0174513
19	0x3f80782f	1.0036677
20	0x3f812842	1.0090411
21	0x3f81c30d	1.013765
22	0x3f7fff28	0.9999871
23	0x3f803278	1.0015402
24	0x3f81451f	1.0099219
25	0x3f80a299	1.0049621
26	0x3f82a036	1.0205142
27	0x3f8192c7	1.0122918
28	0x3f823d58	1.0174971
29	0x3f80790b	1.0036939
30	0x3f82cfae	1.0219629
31	0x3f81535e	1.0103567

model.encoder.eb_encoder.1.bias f4 [32]
0	0x3b96776d	0.0045918734
1	0xbb64a92e	-0.0034890878
2	0xbc81937d	-0.015817398
3	0x3bb0b5a3	0.0053927465
4	0x3a83d498	0.0010057865
5	0xbb27eba9	-0.0025622642
6	0xbba9bc21	-0.0051798974
7	0x3bb2e059	0.005458873
8	0x3c8631ab	0.016381105
9	0x3bfa3ba1	0.007636503
10	0x39ec1338	0.00045027747
11	0x3bd5d69a	0.0065258266
12	0x3c39b0a5	0.011333619
13	0xbbda4e87	-0.006662193
14	0xbb4c42ef	-0.0031167825
15	0x3b7b7785	0.00383708
16	0x3b25a6c4	0.0025276402
17	0x3b60f124	0.0034323419
18	0xbacae93f	-0.001548089
19	0xba425c91	-0.0007414306
20	0xbbc856b7	-0.006113853
21	0x3b3a747f	0.0028450785
22	0x3ac296a7	0.0014845923
23	0x39d9de4f	0.00041555098
24	0xbc1cc185	-0.009567623
25	0xbb13af6f	-0.0022534986
26	0xbca3d609	-0.01999952
27	0xbbcf98aa	-0.0063353376
28	0xbb5bcc53	-0.0033538535
29	0x3b56ae8a	0.0032757842
30	0xbc26e51c	-0.01018646
31	0xbb5d51a5	-0.0033770588

model.encoder.nb_encoder.0.0.weight f4 [32, 10]
0	0x3e954b21	0.2915888
1	0xbe27a4e0	-0.16371489
2	0xbe9ca898	-0.30597377
3	0x3e08ee5f	0.13372181
4	0xbe5f13c7	-0.21784888
5	0xbdd609f7	-0.104511194
6	0xbe2adc22	-0.16685537
7	0x3e82f7b3	0.25579605
8	0x3e173c22	0.14769033
9	0x3e05a5ad	0.13051482
10	0xbe8f4dbb	-0.2798899
11	0x3d513ff3	0.051086377
12	0x3e758136	0.23975071
13	0x3e8b53bc	0.27212322
14	0x3ea2f542	0.31827742
15	0x3ce1aaea	0.027547318
16	0xbe86ad11	-0.26303914
17	0x3e39d084	0.18145949
18	0x3eaefb3f	0.3417606
19	0x3e66956e	0.2251794
20	0x3e36d4d3	0.17854623
21	0x3d0e18de	0.034691684
22	0xbb91e9d9	-0.0044529256
23	0xbcb50e87	-0.022101654
24	0xbdb66aff	-0.08907127
25	0xbdb66958	-0.089068115
26	0x3e56f342	0.20991233
27	0x3e8e8d3c	0.27842128
28	0x3e47b1af	0.19501375
29	0x3e83aea1	0.2571917
30	0xbe996f57	-0.29967758
31	0x3e5351a6	0.20636615
32	0x3d50cfef	0.05097955
33	0xbe2accdc	-0.1667971
34	0xbe33a290	-0.17542481
35	0x3e482e0d	0.19548817
36	0x3e8ea048	0.2785666
37	0x3e2e95d8	0.17049348
38	0xbe1a2bb9	-0.15055741
39	0x3e56d970	0.20981383
40	0x3e989345	0.29799858
41	0x3e9cbe8c	0.30614126
42	0xbe421098	-0.18951643
43	0xbd64200a	-0.055694617
44	0x3e679901	0.2261696
45	0xbe083970	-0.1330316
46	0xbd40682e	-0.046974353
47	0x3e9eecc6	0.3104002
48	0x3ea75f6f	0.32689998
49	0x3e7b7e74	0.24559957
50	0xbd1d9009	-0.03846744
51	0xbe3bd33c	-0.18342298
52	0xbd382d35	-0.044964988
53	0xbe872178	-0.26392722
54	0x3df1bb0d	0.11803255
55	0x3e27158e	0.16316816
56	0xbe20f5d1	-0.15718772
57	0xbda57c9e	-0.080804095
58	0x3e8033c9	0.2503951
59	0x3c30c401	0.0107889185
60	0x3e6f6da6	0.23381671
61	0x3ea3993d	0.3195285
62	0xbdd01d68	-0.10161859
63	0xbdfe16ac	-0.12406668
64	0x3cabac44	0.020956166
65	0xbe51ca69	-0.2048737
66	0x3e7d1917	0.24716602
67	0xbdcb1d5e	-0.09917711
68	0x3e002de9	0.12517513
69	0xbdf1d10b	-0.1180745
70	0xbe37f1a3	-0.17963271
71	0xbe6bac23	-0.23014884
72	0x3e7639a6	0.24045429
73	0xbe2807b2	-0.16409186
74	0x3c228ed4	0.009921748
75	0xbd2e245d	-0.042515147
76	0xbd718a50	-0.058969796
77	0x3e1fc24d	0.15601464
78	0x3e45dea5	0.19323213
79	0x3d0a8cc0	0.033825636
80	0xbe661742	-0.2246981
81	0x3e986b04	0.29769146
82	0xbe2dc62a	-0.16970125
83	0xbe916f56	-0.28405255
84	0xbe97f873	-0.2968174
85	0x3e2356a5	0.15951021
86	0xbe97b4f0	-0.29630232
87	0x3d91b9ca	0.071155146
88	0x3e645f3b	0.22301953
89	0xbe932f51	-0.28747037
90	0x3dfa6a67	0.12227326
91	0xbdc1f2f1	-0.094701655
92	0xbe5973f5	-0.2123564
93	0x3ca84ce1	0.020544471
94	0xbe509d96	-0.20372614
95	0xbd2fba13	-0.042902064
96	0xbe8d6721	-0.27617744
97	0x3dae55ed	0.08512483
98	0xbe0e1c8e	-0.1387808
99	0xbe68a1a8	-0.22717917
100	0x3e014c7c	0.12626833
101	0x3d82d028	0.06387359
102	0xbc9537d5	-0.0182151
103	0x3d242b57	0.040080395
104	0xbe3567f2	-0.17715433
105	0xbe7e72df	-0.24848507
106	0x3e55090e	0.20804235
107	0xbc05904b	-0.008152078
108	0x3e1ed49c	0.15510792
109	0x3e33115b	0.1748709
110	0x3e679a98	0.22617567
111	0x3cdbb7d7	0.02682106
112	0xbe32cb66	-0.17460403
113	0x3d8c2a17	0.068439655
114	0xbc4605f1	-0.0120863775
115	0xbd1ebe25	-0.038755555
116	0x3dd41776	0.10356037
117	0x3cd28088	0.025696054
118	0x3d32c422	0.043644078
119	0x3d9f36f6	0.07774155
120	0xbdc7b50a	-0.09751327
121	0xbe4824da	-0.19545308
122	0xbd28fdea	-0.041257776
123	0xbe8ff879	-0.28119257
124	0x3e6953ff	0.22785948
125	0x3e1b9a79	0.15195645
126	0xbe158179	-0.14600171
127	0x3e7a1c18	0.2442478
128	0x3e98b609	0.29826382
129	0xbc73ca0d	-0.014879716
130	0x3df857e6	0.1212614
131	0x3cf8d6ce	0.030375864
132	0xbcfa7e79	-0.030577885
133	0xbddb8f38	-0.10720676
134	0xbe4786c8	-0.19485009
135	0xbe4ceedc	-0.20012993
136	0x3df05616	0.117351696
137	0xbda9515a	-0.0826747
138	0xbe93a47b	-0.28836426
139	0x3da750a3	0.08169677
140	0xbde57cc2	-0.11205436
141	0xbda042e9	-0.07825262
142	0xbd293dbe	-0.041318648
143	0xbe43fb6e	-0.19138882
144	0xbd1c6882	-0.038185604
145	0xbc1aca37	-0.009447626
146	0xbce0a504	-0.027422436
147	0xbe3ff002	-0.187439
148	0x3e42e3bd	0.19032188
149	0x3de86061	0.11346508
150	0xbd85b615	-0.0652887
151	0x3e9ca87c	0.30597293
152	0x3dc939a4	0.09825447
153	0x3db87fdb	0.090087615
154	0xbe35b853	-0.17746095
155	0xbd9c2d2b	-0.076258026
156	0x3e227163	0.15863566
157	0xbd9c85d3	-0.076427124
158	0x3c1153c1	0.008870066
159	0xbb2196bb	-0.0024656493
160	0xbcf19d05	-0.029493818
161	0x3dd09eef	0.10186564
162	0x3e826d8b	0.254742
163	0x3e310e4d	0.17290612
164	0xbde7cffa	-0.11318965
165	0x3e6042bf	0.21900462
166	0xbe819830	-0.25311422
167	0xbe58d56a	-0.21175161
168	0xbd13fdfb	-0.036130887
169	0xbdfa072d	-0.122084
170	0x3d9f3e5a	0.077755645
171	0xbe3147f5	-0.17312606
172	0x3ea3ebe9	0.32015923
173	0x3d3a03db	0.045413833
174	0xbce88988	-0.028385893
175	0x3e13fff6	0.1445311
176	0x3e666e06	0.22502908
177	0xbd9f6229	-0.077823944
178	0x3e5c920e	0.2154009
179	0xbe63e82d	-0.22256537
180	0xbe9f67db	-0.31133923
181	0xbeaa9550	-0.3331704
182	0xbd933205	-0.07187275
183	0xbdf8e396	-0.121527836
184	0xbd8740ad	-0.06604133
185	0x3e71a25f	0.23597096
186	0xbe484bc6	-0.19560155
187	0xbc330743	-0.010927024
188	0xbe060df9	-0.13091268
189	0xbe0baf25	-0.13641031
190	0xbe01a253	-0.12659578
191	0xbe4732f6	-0.19453034
192	0x3def9b0f	0.11699497
193	0x3e54ccda	0.2078127
194	0x3e26c013	0.16284208
195	0x3e167cf3	0.14696102
196	0xbe929454	-0.2862879
197	0xbe03bce7	-0.1286503
198	0xbe96cc7b	-0.2945288
199	0x3e5392d6	0.20661482
200	0x3e6ca7cc	0.23110884
201	0x3e1c7981	0.15280725
202	0xbe779342	-0.24177268
203	0x3e294bac	0.16532773
204	0xbd1420d3	-0.036164116
205	0xbcea38ef	-0.028591601
206	0xbde553ab	-0.11197599
207	0x3d53d1b5	0.051713664
208	0x3de99a32	0.114063635
209	0xbd85b41b	-0.06528493
210	0xbd0c821a	-0.034303762
211	0xbe14476f	-0.14480375
212	0xbddbe5d5	-0.10737196
213	0xbe3d4b88	-0.18485844
214	0x3e1f5d9a	0.1556305
215	0xbe449b6c	-0.19199914
216	0x3eb26c55	0.34848276
217	0xbd522248	-0.051302224
218	0xbe1f6720	-0.15566683
219	0x3ddbe152	0.10736336
220	0xbe7dc1e1	-0.2478099
221	0x3e7c0cc0	0.24614239
222	0x3d0fcc79	0.03510711
223	0x3dfa7947	0.12230163
224	0xbdd8afb4	-0.10580388
225	0x3da66bba	0.08126016
226	0xbe840a9a	-0.25789338
227	0x3e3c7124	0.18402535
228	0x3a9cf696	0.0011975344
229	0x3c8d8f8e	0.017280366
230	0xbd88e919	-0.06685085
231	0xbceb1e89	-0.028701084
232	0xbe02c71e	-0.1277127
233	0x3db86650	0.090038896
234	0xbe7b520e	-0.2454302
235	0x3d387bb7	0.04503986
236	0x3e336241	0.1751795
237	0x3c30e717	0.010797284
238	0xbe7e9fd9	-0.24865665
239	0xbe825ec3	-0.25462922
240	0x3b9d3ad9	0.004798275
241	0x3e4bca07	0.19901286
242	0x3e93b071	0.28845552
243	0xbcfb958e	-0.030710962
244	0xbe652040	-0.22375584
245	0xbb733db0	-0.0037115626
246	0xbe5ed41f	-0.21760605
247	0xbd616a50	-0.055033028
248	0x3da32ae6	0.079671666
249	0xbeaaa422	-0.33328348
250	0x3e933f4c	0.2875923
251	0xbde3e2c9	-0.1112724
252	0x3d2c7687	0.042105224
253	0xbdc64735	-0.096815504
254	0xbe052b0c	-0.13004702
255	0x3dd9f3e2	0.1064222

model.encoder.nb_encoder.0.0.bias f4 [32]
0	0x3e4fb1b4	0.20282632
1	0xbdf68b04	-0.12038234
2	0xbe682aa7	-0.2267252
3	0x3e9cf6f6	0.30657166
4	0xbe4e9f4d	-0.20177956
5	0x3df90e75	0.121609606
6	0xbe1696c7	-0.14705954
7	0xbe92a560	-0.28641796
8	0xbe600aea	-0.21879163
9	0xbe24e993	-0.16104726
10	0xbe7e6bbd	-0.24845786
11	0x3e4bd3f3	0.19905071
12	0xbdec549f	-0.11539578
13	0x3cf1b803	0.029506689
14	0x3b32dc87	0.002729209
15	0x3e2b893a	0.16751567
16	0x3eb051ef	0.3443751
17	0xbca2c851	-0.019870909
18	0x3dd7b1e6	0.10531978
19	0xbcc21854	-0.023693241
20	0xbe8bcc76	-0.2730443
21	0x3e1f3a04	0.15549475
22	0xbdc3653e	-0.09540795
23	0xbe22bf75	-0.15893348
24	0xbe69f654	-0.22847873
25	0x3c225249	0.009907314
26	0x3e7ecc5a	0.24882641
27	0x3ead0883	0.33795556
28	0x3e01b4f6	0.12666687
29	0x3e7f1a06	0.24912271
30	0x3e79af4d	0.24383278
31	0x3e90034e	0.2812752

model.encoder.nb_encoder.0.2.weight f4 [32, 32]
0	0xbd848272	-0.06470193
1	0x3e1bdcc6	0.15220937
2	0x3dd594b2	0.10428752
3	0xbbdfbc98	-0.006827902
4	0xbd29fe27	-0.041502144
5	0x3bb4a080	0.005512297
6	0x3e073229	0.13202728
7	0x3b67da38	0.0035377871
8	0xbe2d40a1	-0.16919185
9	0xbe0287c1	-0.12747099
10	0x3e2214d1	0.15828253
11	0xbb1eeb53	-0.002424915
12	0xbe026442	-0.12733558
13	0xbda310de	-0.079622015
14	0x3cdf3a30	0.027249426
15	0x3d94e5a5	0.07270364
16	0x3d844f17	0.06460398
17	0xbc785db0	-0.015159056
18	0x3d6e24ef	0.05814069
19	0xbd32477c	-0.043525204
20	0xbbc288dc	-0.005936725
21	0x3e0c57c3	0.13705353
22	0x3e0e22e5	0.13880499
23	0x3e2d3644	0.16915232
24	0x3de9ff80	0.11425686
25	0x3e28f932	0.1650131
26	0xbd61a6b4	-0.05509062
27	0xbc903ea9	-0.017608004
28	0xbd4b046e	-0.04956477
29	0xbda2411a	-0.079225734
30	0x3e25d151	0.16193129
31	0xbdad1c7d	-0.08452699
32	0xbe08ec67	-0.1337143
33	0x3ae41249	0.0017400469
34	0xbdafd7a6	-0.085860536
35	0xbc6d7019	-0.014492058
36	0x3d793c04	0.06084825
37	0xbe52619f	-0.20545052
38	0xbd8e4ef9	-0.069486566
39	0x3c9f2d55	0.019430796
40	0x3ddea9d9	0.108722396
41	0xbe108862	-0.14114526
42	0xbe139b74	-0.1441477
43	0xbc92e1b5	-0.017929891
44	0x3e1ddd6a	0.15416494
45	0xbd9f07a5	-0.0776513
46	0x3e0da4e1	0.13832428
47	0xbcb1bd8f	-0.021696834
48	0xbe0a158e	-0.13484785
49	0x3a83d68b	0.0010058446
50	0xbdf3ff4f	-0.119139306
51	0x3d9f8b34	0.07790223
52	0x3dfdcaa1	0.12392164
53	0x3dd8d03b	0.10586592
54	0x3da3bd86	0.07995133
55	0x3e191648	0.14949906
56	0xbe220a40	-0.15824223
57	0x3dad9c36	0.084770605
58	0x3dc97fb0	0.098388076
59	0xbe1657d4	-0.14681941
60	0xbe0649bc	-0.13114065
61	0x3e365d8f	0.17809127
62	0x3d8dbecb	0.069211565
63	0xbd95215b	-0.07281753
64	0x3c436634	0.011926223
65	0x3d7b251e	0.061314695
66	0xbdc43d5f	-0.09582018
67	0x3da40450	0.08008635
68	0xbd54712f	-0.051865753
69	0x3d74e696	0.059790216
70	0xbe4438c9	-0.19162287
71	0xbe22aa21	-0.15885212
72	0xbe143684	-0.14473921
73	0x3cf785aa	0.030215103
74	0xbdbf3ecb	-0.09338149
75	0x3dc62c68	0.096764386
76	0xbe289575	-0.16463263
77	0x3d140603	0.036138546
78	0x3e1b2e4d	0.15154381
79	0x3bdb1e1b	0.0066869385
80	0xbd870a08	-0.0659371
81	0xbe02c7b3	-0.12771492
82	0x3dac647e	0.08417605
83	0x3dd2c08e	0.10290633
84	0x3dc949f9	0.09828562
85	0x3d960725	0.073255815
86	0x3cf49f8d	0.029861236
87	0x3cba0a62	0.022710029
88	0x3dfa627e	0.12225817
89	0x3d9d1bd7	0.07671326
90	0xbda6cabe	-0.08144139
91	0x3d06cd3e	0.032910578
92	0xbd65a677	-0.056066956
93	0xbbddbf66	-0.0067672012
94	0xbd94deb0	-0.07269037
95	0xbdde6945	-0.10859922
96	0xbe22874b	-0.15871923
97	0x3d01e921	0.03171647
98	0xbdc2b986	-0.09508042
99	0xbd2551b8	-0.040361136
100	0x3df5472f	0.11976468
101	0xbdb2489f	-0.087052576
102	0xbbfc1875	-0.007693345
103	0x3d10c2ba	0.035341956
104	0x3dc8db55	0.09807459
105	0xbd1be58e	-0.038060717
106	0x3d0299a0	0.03188479
107	0x3cbfbdea	0.023405988
108	0x3e100235	0.14063342
109	0x3cdc41b7	0.026886804
110	0x3e202341	0.15638448
111	0x3c62460a	0.013810644
112	0x3d925bb3	0.071463965
113	0xbc401708	-0.011724241
114	0x3e072212	0.1319659
115	0xbcf13a8d	-0.029446865
116	0xbe0a55e5	-0.13509329
117	0xbe18e75e	-0.1493201
118	0x3d037f13	0.03210361
119	0x3da9a2b4	0.08282986
120	0xbceb792a	-0.028744299
121	0x3d9b0fb1	0.07571352
122	0xbc528b1b	-0.012850548
123	0xbda034b1	-0.0782255
124	0xbda2acdc	-0.079431266
125	0xbe2cceff	-0.16875838
126	0xbd9ec9da	-0.07753344
127	0xbdc1c72f	-0.094618194
128	0x3d89c5aa	0.067271546
129	0x3bd66af1	0.00654351
130	0xbdbc15d1	-0.09183849
131	0xbcdbe783	-0.026843792
132	0xbdeee8bc	-0.11665484
133	0x3dfe73e7	0.1242445
134	0x3db90599	0.09034271
135	0xbd964267	-0.07336884
136	0xbcc562ba	-0.024094928
137	0xbe15756d	-0.14595576
138	0x3e09ba00	0.1344986
139	0x3e06444f	0.13111995
140	0x3cbe2c57	0.023214502
141	0xbdd2bb60	-0.10289645
142	0xbbbb3fb5	-0.0057143816
143	0xbe2cfe05	-0.16893776
144	0xbe222539	-0.15834512
145	0x3c3aa109	0.011390933
146	0xbd94f576	-0.072733805
147	0x3c3b5c72	0.011435615
148	0x3d4dbccf	0.05022889
149	0xbdf0cda3	-0.11757972
150	0xbda6a571	-0.08137024
151	0x3d48bc30	0.049007595
152	0xbdbc6c4d	-0.09200344
153	0xbdedebb0	-0.116172194
154	0xbd00554c	-0.031331345
155	0xbe23d7e6	-0.16000327
156	0x3e34d6fd	0.17660137
157	0x3cb20c18	0.021734282
158	0x3e26a699	0.1627449
159	0xbd5edec6	-0.054411672
160	0xbcf3f37f	-0.029779194
161	0xbdc7f6d6	-0.09763877
162	0x3d8b0c9b	0.06789514
163	0x3d88e26b	0.06683811
164	0x3d102972	0.035195775
165	0x3e216d87	0.15764438
166	0xbe081d26	-0.13292369
167	0xbc8e9312	-0.017404113
168	0xbe1cccdb	-0.15312521
169	0xbd7d7529	-0.06187931
170	0x3d70fb84	0.058833614
171	0xbd746419	-0.059665773
172	0xbd95cf3f	-0.0731492
173	0xbd263387	-0.040576484
174	0xbdfb4a4c	-0.122700304
175	0xbc63c56c	-0.0139020495
176	0x3cf857df	0.030315338
177	0xbe0c4b44	-0.13700587
178	0xbe26be49	-0.16283526
179	0xbd651e92	-0.055937357
180	0xbe160023	-0.1464849
181	0xbe1811b5	-0.14850505
182	0x3c52a4c2	0.012856664
183	0xbe468f51	-0.19390608
184	0xbdc6b9f1	-0.09703434
185	0x3db79e89	0.08965785
186	0x3e34c8f3	0.17654781
187	0x3d6bf38a	0.057605304
188	0x3d41d831	0.047325317
189	0x3bb32035	0.005466486
190	0x3c5c596e	0.013449056
191	0xbe02d19b	-0.1277527
192	0x3e2e9955	0.17050679
193	0xbd50834c	-0.050906464
194	0xbde0df94	-0.10980144
195	0xbcf7201f	-0.030166684
196	0xbcc46b43	-0.023976928
197	0xbd64e122	-0.055878766
198	0xbdca2460	-0.09870219
199	0x3dfe3d42	0.12414028
200	0x3c12d3fe	0.008961676
201	0xbbb5679f	-0.0055360342
202	0x3e12fe1c	0.14354748
203	0x3d59ae7b	0.053144913
204	0x3bb9a2ee	0.0056651747
205	0xbd8c797f	-0.06859111
206	0x3e1cb864	0.15304714
207	0x3d33ae9e	0.0438677
208	0xbc664d74	-0.014056552
209	0x3c6fd109	0.01463724
210	0xbe0a6d24	-0.13518196
211	0x3db93d49	0.09044892
212	0x3e1328ae	0.14370987
213	0xbe2ac4c0	-0.16676617
214	0x3b686fdd	0.0035467066
215	0xbdd2b65d	-0.10288689
216	0x3dbec07e	0.09314059
217	0x3de5206b	0.11187824
218	0xbe2be91b	-0.16788141
219	0x3e5cc34d	0.21558876
220	0x3e0dcb6a	0.13847128
221	0x3bf3d547	0.007441196
222	0xbe002cac	-0.12517041
223	0xbdd899a9	-0.10576183
224	0xbc8178ab	-0.01580461
225	0x3e2e35ad	0.17012663
226	0xbd575e64	-0.052580252
227	0x3e0c20ff	0.13684462
228	0x3da75f3c	0.081724614
229	0x3caa2805	0.020771036
230	0xbdf17832	-0.117905036
231	0xbdcac4ed	-0.09900842
232	0xbdb42a7d	-0.087971665
233	0x3d2ee566	0.04269924
234	0x3daed428	0.08536559
235	0x3da70fbd	0.08157299
236	0x3ba55045	0.0050449693
237	0x3e13054d	0.14357491
238	0xbe3e8f23	-0.1860929
239	0x3e264b2d	0.16239615
240	0x3becb09e	0.007223203
241	0x3d4e7ccc	0.050411984
242	0x3d297ec6	0.041380666
243	0xbe2fa98f	-0.17154525
244	0x3d36e62e	0.04465311
245	0xbde03c65	-0.10949019
246	0x3d854156	0.065066025
247	0x3da16b41	0.07881785
248	0x3e13ed44	0.14445978
249	0x3e2e6965	0.17032392
250	0xbde63325	-0.11240224
251	0x3cd28c59	0.025701689
252	0x3e335108	0.1751138
253	0x3e2f381a	0.17111245
254	0x3db2a0af	0.08722054
255	0x3e1e43c9	0.15455545

model.encoder.nb_encoder.0.2.bias f4 [32]
0	0x3d6a6de1	0.057233695
1	0xbbd3d320	-0.006464377
2	0x3e00e737	0.12588201
3	0x3cd2a9ce	0.025715735
4	0x3d459dd0	0.048246205
5	0x3e053c30	0.13011241
6	0x3daacd99	0.08339996
7	0x3dd8ae21	0.105800875
8	0xbe0e8c23	-0.13920645
9	0x3e232d9a	0.15935364
10	0x3cf55b62	0.029950801
11	0xbe22166e	-0.15828869
12	0xbe06ee14	-0.13176757
13	0x3dc3a352	0.09552635
14	0x3c91b219	0.017785119
15	0xbe3456f5	-0.17611296
16	0x3e22fbc4	0.15916353
17	0xbda975a5	-0.08274392
18	0xbe0d7506	-0.13814172
19	0x3e032c4c	0.12809867
20	0xbd478c55	-0.048717815
21	0x3c306813	0.010767001
22	0x3d9b5575	0.07584659
23	0xbcd4451e	-0.025911864
24	0x3e03c812	0.1286929
25	0x3d5707e6	0.052497767
26	0x3d968508	0.073495924
27	0x3d25f1fa	0.04051397
28	0x3d449474	0.04799314
29	0xbdd64640	-0.10462618
30	0xbdf2e501	-0.11860085
31	0x3d88fa34	0.066883475
