new1/checkpoint/simulator.pth (torch, 708549 bytes, 267 tensors)

model.encoder.eb_encoder.0.0.weight f4 [32, 10]
0	0x3d5a56ef	0.053305563
1	0x3e81e531	0.25370172
2	0xbdde726d	-0.10861669
3	0x3c144d1e	0.009051589
4	0x3e405213	0.18781309
5	0xbd7e5e76	-0.062101804
6	0x3e26c2fa	0.16285315
7	0xbd8b80f4	-0.06811705
8	0xbf2d494f	-0.67689985
9	0x3d9c8fc2	0.07644607
10	0x3e2a14f2	0.16609553
11	0xbe87354b	-0.26407847
12	0x3e3efb18	0.18650472
13	0xbbf893cb	-0.0075859777
14	0xbe32de7d	-0.17467685
15	0x3dc12040	0.09429979
16	0x3ddc42ec	0.10754952
17	0x3e8ca370	0.27468443
18	0x3ed05fb5	0.4069802
19	0x3e16cbfd	0.14726253
20	0xbe04860b	-0.12941758
21	0xbe8d3d5a	-0.2758587
22	0xbe2a1d56	-0.16612753
23	0xbb8e060e	-0.004334218
24	0x3d873585	0.06602005
25	0x3e251205	0.16120155
26	0x3d154f01	0.036452297
27	0xbe066eac	-0.13128155
28	0x3da80dcd	0.08205757
29	0xbd94cda4	-0.07265785
30	0xbea6fa78	-0.32612967
31	0x3e751258	0.23932779
32	0x3dd7edea	0.105434254
33	0xbe38ba81	-0.18039896
34	0xbe7f03c3	-0.24903779
35	0xbdc590bd	-0.09646747
36	0xbe70b995	-0.23508294
37	0x3e82d7c6	0.25555247
38	0xbedd891e	-0.43268675
39	0xbdc87539	-0.097879834
40	0x3e09aeb3	0.13445549
41	0x3e3fad09	0.18718351
42	0x3e546e90	0.20745301
43	0x3d88f967	0.06688195
44	0xbe818ced	-0.2530283
45	0x3ca947cf	0.020664124
46	0x3d5fd26b	0.05464403
47	0x3caab5d0	0.020838648
48	0xbf275fdb	-0.6538064
49	0x3c844e43	0.0161506
50	0xbd6b7cfa	-0.057492234
51	0xbc0dbfa6	-0.00865165
52	0xbdf9c7d6	-0.12196319
53	0xbdd01790	-0.10160744
54	0xbd9153e2	-0.070960775
55	0xbdd01d76	-0.10161869
56	0xbe19f57a	-0.15035048
57	0xbc8e8e3c	-0.017401807
58	0x3f1bdd7e	0.60884845
59	0x3a85e73f	0.0010216011
60	0x3d0017b6	0.031272613
61	0xbe174b57	-0.14774834
62	0xbe528495	-0.20558389
63	0x3e2cc27b	0.16871063
64	0xbea8ab75	-0.3294331
65	0x3d83670b	0.06416138
66	0xbea5d6b8	-0.3239038
67	0x3e59564e	0.21224329
68	0x3f0018de	0.50037944
69	0xbe4d4dd9	-0.20049228
70	0xbd08319d	-0.03325044
71	0x3deb243b	0.1148152
72	0xbe267cdf	-0.16258572
73	0xbe4e9479	-0.20173825
74	0x3e08b5f5	0.13350661
75	0xbe85b0b8	-0.26111388
76	0x3d1c78b9	0.038201068
77	0x3ce5c38c	0.028047346
78	0xbf05da3b	-0.5228612
79	0x3e10bf5a	0.14135495
80	0xbe5003f5	-0.2031401
81	0x3c4b9cd1	0.012427525
82	0x3e5623ea	0.20912138
83	0xbe35525d	-0.177072
84	0xbc8db07a	-0.017296065
85	0x3e02d14e	0.12775156
86	0xbb917395	-0.0044388273
87	0x3e30f0d7	0.17279373
88	0xbf00bf84	-0.5029223
89	0x3c0a3db5	0.008437564
90	0xbdc5f5fc	-0.096660584
91	0x3be0d3f9	0.0068612066
92	0x3e070f28	0.13189375
93	0x3d38ee80	0.045149326
94	0xbe21c4c8	-0.15797722
95	0xbe1e429a	-0.15455094
96	0xbb237ac5	-0.0024945003
97	0x3e932584	0.2873956
98	0xbf35ff9d	-0.7109316
99	0xbcbfb506	-0.023401748
100	0xbe446be9	-0.1918179
101	0xbe0fff1e	-0.14062163
102	0xbd5fbb3a	-0.054621913
103	0xbe73ea57	-0.23819862
104	0x3d3f75aa	0.046743073
105	0xbe372233	-0.1788414
106	0xbe604971	-0.21903016
107	0x3e08fc3a	0.13377467
108	0xbeeade33	-0.4587265
109	0xbe390b81	-0.18070795
110	0x3e3711cc	0.17877883
111	0x3e948d13	0.2901388
112	0xbe207d64	-0.15672833
113	0x3e32d2ca	0.17463222
114	0x3d9ff65f	0.078106634
115	0x3d867c62	0.06566693
116	0x3d9bd757	0.07609432
117	0x3e9655bf	0.29362294
118	0x3df07cfd	0.117425896
119	0xbe7adb06	-0.24497613
120	0x3d7ff1e2	0.062486537
121	0x3e724cd8	0.23662126
122	0xbe1c5417	-0.15266453
123	0x3dc4a313	0.096014164
124	0xbe8e3f31	-0.27782586
125	0x3e4f34bf	0.20234965
126	0xbe6d72fe	-0.23188397
127	0x3e8c28f6	0.27375
128	0x3dff0810	0.1245271
129	0xbe950cf5	-0.29111448
130	0xbdeb9f87	-0.11505037
131	0x3d5cce29	0.053907547
132	0xbe023904	-0.12717062
133	0x3e158100	0.14599991
134	0x3d6f37ed	0.058402944
135	0x3e45ddca	0.19322887
136	0x3d9942a6	0.07483415
137	0x3d03bf82	0.032165058
138	0x3f0907e9	0.53527695
139	0x3dc2ec08	0.09517676
140	0x3c8990f2	0.016792748
141	0x3e718e61	0.2358947
142	0xbe29ebf6	-0.16593918
143	0xbdc00e67	-0.09377747
144	0x3e3203d7	0.17384277
145	0x3d905c55	0.07048861
146	0x3d95cc6f	0.07314383
147	0x3e146380	0.14491081
148	0xbf052d4a	-0.5202223
149	0x3e5e611e	0.21716735
150	0x3c4b2c53	0.012400704
151	0x3e7ff9ed	0.24997683
152	0xbd4305bc	-0.04761289
153	0xbe8eba76	-0.27876633
154	0xbe4400f6	-0.19140992
155	0xbe23e3f5	-0.16004927
156	0x3e0d53a2	0.13801435
157	0xbe6d6034	-0.2318123
158	0x3e2fd5db	0.17171423
159	0xbdc73b8d	-0.09728155
160	0x3e71d50e	0.2361643
161	0x3e6e93d6	0.23298582
162	0xbe1ed298	-0.15510023
163	0xbe839b4a	-0.25704414
164	0xbcb89105	-0.022530088
165	0xbe259698	-0.16170728
166	0xbe27a439	-0.1637124
167	0x3d25e705	0.04050352
168	0x3f2b8bd5	0.6701024
169	0x3e162edf	0.14666317
170	0x3e3ad971	0.1824701
171	0xbe405ddf	-0.18785809
172	0xbbf5943b	-0.007494477
173	0xbdc812b7	-0.097691946
174	0x3e4a7dd8	0.19774568
175	0xbe2f793c	-0.17136091
176	0xbe28e2b2	-0.16492727
177	0x3e7b31da	0.24530736
178	0xbf2b4bd3	-0.66912574
179	0xbdb6eaf8	-0.089315355
180	0x3ea63d30	0.32468557
181	0xbe003a98	-0.12522352
182	0xbe36882f	-0.17825387
183	0xbd920088	-0.071290076
184	0xbdda75eb	-0.10667022
185	0x3e4c1384	0.1992932
186	0xbe2e4504	-0.17018515
187	0x3e156c7f	0.14592169
188	0xbecda7f7	-0.4016721
189	0xbd59f152	-0.053208657
190	0xbe84dddc	-0.25950515
191	0xbeb2267f	-0.34794995
192	0x3e2bdc84	0.16783339
193	0xbe003e19	-0.12523688
194	0x3cdb82f9	0.026795851
195	0x3df4d02e	0.119537696
196	0xbd3374b1	-0.043812457
197	0xbe2bc2b7	-0.16773497
198	0x3b15d5fe	0.0022863145
199	0x3e900d18	0.2813499
200	0xbe004cb6	-0.12529263
201	0xbecfaecd	-0.4056305
202	0xbe0ac923	-0.1355329
203	0x3e97af12	0.29625756
204	0x3e7b5dcb	0.24547498
205	0x3e7d23df	0.24720715
206	0xbe8b8781	-0.2725182
207	0x3db4405c	0.08801338
208	0x3dd9ea3c	0.1064038
209	0xbe4add02	-0.1981087
210	0xbe806723	-0.25078687
211	0x3e8cfc00	0.2753601
212	0xbcea0359	-0.02856605
213	0x3bc043d2	0.00586746
214	0xbd978567	-0.07398491
215	0xbe114764	-0.1418739
216	0xbd024894	-0.031807497
217	0x3e8dcb97	0.2769439
218	0x3f32fc99	0.69916683
219	0xbb87fa97	-0.0041497457
220	0xbdc1273f	-0.09431314
221	0x3d8afbd7	0.06786316
222	0x3b4f4d33	0.0031631708
223	0x3a93d95a	0.0011279986
224	0xbe2ced2f	-0.16887353
225	0x3e480e41	0.19536687
226	0x3e4e66e8	0.20156443
227	0x3e1aaca4	0.1510492
228	0xbf180967	-0.59389347
229	0x3dc0e0f8	0.094179094
230	0xbe54e472	-0.2079027
231	0x3e183205	0.14862831
232	0x3d95f288	0.0732165
233	0x3e5f87d0	0.21829152
234	0x3d4188c1	0.04724956
235	0x3e75723f	0.23969363
236	0xbe3fb3ad	-0.18720885
237	0x3e93064d	0.28715745
238	0xbef0a944	-0.4700414
239	0x3d8695e3	0.065715574
240	0xbdd76b1a	-0.10518475
241	0x3d1ba413	0.03799827
242	0x3dd03a23	0.10167339
243	0xbda8e329	-0.08246452
244	0xbca41001	-0.020027163
245	0x3cf58c9d	0.029974276
246	0x3d3fde9f	0.046843167
247	0x3e0d9bb1	0.13828923
248	0x3ede3dc3	0.43406495
249	0x3c4513e4	0.012028668
250	0x3e1138fa	0.14181891
251	0xbe7c868e	-0.24660704
252	0x3d8ddba2	0.06926657
253	0xbceeb38c	-0.029138349
254	0x3e82f81a	0.2557991
255	0xbdb778ed	-0.08958612

model.encoder.eb_encoder.0.0.bias f4 [32]
0	0x3da12ba7	0.07869654
1	0xbecc10cd	-0.39856568
2	0xbe287adc	-0.16453117
3	0x3e5b6818	0.21426427
4	0xbe51eae1	-0.20499755
5	0x3e478eff	0.19488142
6	0xbe9177d2	-0.28411728
7	0xbdce83e2	-0.100837484
8	0x3d9af13c	0.07565543
9	0xbe982d91	-0.29722264
10	0x3e2c67ba	0.16836444
11	0x3e29134d	0.16511269
12	0xbd0cc608	-0.034368545
13	0x3c371029	0.0111732865
14	0x3c49031a	0.012268806
15	0x3ce984b6	0.028505664
16	0xbd148b45	-0.03626563
17	0x3bc430ac	0.0059872475
18	0xbe7c8552	-0.24660233
19	0x3e2a7e3b	0.16649716
20	0xbe421ce3	-0.18956332
21	0xbdc14bbf	-0.094382755
22	0x3e53958b	0.20662515
23	0xbd47ad99	-0.04874954
24	0xbdb6b733	-0.08921661
25	0xbdffd7cc	-0.12492332
26	0x3dd9a58f	0.10627281
27	0x3dc422ff	0.095769875
28	0xbe710bc5	-0.23539646
29	0x3ece82fe	0.40334314
30	0x3eadd599	0.33952025
31	0x3ddbab0c	0.10725984

model.encoder.eb_encoder.0.2.weight f4 [32, 32]
0	0x3d34cb21	0.04413903
1	0x3c6a898c	0.01431502
2	0xbd99d6f1	-0.075117
3	0xbd93184d	-0.071823694
4	0xbe7313d0	-0.23738027
5	0x3e215e81	0.15758707
6	0x3d0b7eb1	0.03405637
7	0xbe1b828b	-0.15186517
8	0x3df9fe24	0.122066766
9	0x3dfe0515	0.12403313
10	0x3e2fb589	0.17159094
11	0xbd202b22	-0.039103635
12	0x3dfc6101	0.123231895
13	0xbd40e0ab	-0.04708926
14	0xbdfa25d3	-0.12214246
15	0x3d76f2e0	0.060290217
16	0x3e1fc3d8	0.15602052
17	0x3d155194	0.036454752
18	0x3de7dc4c	0.11321315
19	0x3d5300e4	0.05151452
20	0xbec06c1f	-0.3758249
21	0xbd82da04	-0.063892394
22	0x3dc22c3c	0.09481093
23	0x3d2661ec	0.04062073
24	0xbd512429	-0.051059876
25	0x3e091648	0.13387406
26	0xbe0ab8c4	-0.13547045
27	0xbe087fe6	-0.1333004
28	0xbda2f4ca	-0.07956846
29	0x3e9f0cf7	0.3106458
30	0x3ecf7576	0.40519303
31	0xbdbff146	-0.09372191
32	0x3cd47dc3	0.025938874
33	0x3e080238	0.13282096
34	0x3d6f7683	0.05846263
35	0xbdfb3ad7	-0.12267082
36	0x3daadba1	0.08342672
37	0xbe2b61d9	-0.16736545
38	0xbdca8b17	-0.098898105
39	0xbd1076a9	-0.035269413
40	0xbe55684d	-0.20840569
41	0xbe1158b1	-0.1419399
42	0xbd3b7909	-0.045769725
43	0x3e0497e2	0.12948564
44	0xbc840d1e	-0.016119536
45	0xbd816d1d	-0.0631964
46	0xbd20f474	-0.03929563
47	0x3d70804e	0.05871611
48	0x3dc3e242	0.0956464
49	0x3db1fd2d	0.086908676
50	0x3e9762e7	0.29567644
51	0xbcd0b7f5	-0.025478343
52	0xbed3342c	-0.4125074
53	0xbd707826	-0.058708332
54	0xbda586bd	-0.0808234
55	0x3ccd1ac1	0.025037171
56	0xbe8ef487	-0.27920935
57	0xbceb5129	-0.028725224
58	0x3d3b4adb	0.045725685
59	0x3ce05ed6	0.027388971
60	0x3dc7b4d8	0.0975129
61	0x3c9316dd	0.017955238
62	0x3d9cad5d	0.07650254
63	0xbdab3def	-0.08361422
64	0xbccc0786	-0.024905931
65	0x3caa4593	0.020785129
66	0xbd5a45f1	-0.053289358
67	0x3ce60833	0.028080082
68	0x3d6e5b8a	0.058192767
69	0xbcfa3a27	-0.030545307
70	0xbed25636	-0.410814
71	0x3dac6b0e	0.084188566
72	0xbc3e7cb2	-0.011626409
73	0xbd8e0e78	-0.069363534
74	0x39fd1553	0.00048271808
75	0xbdb6953b	-0.08915182
76	0x3cfb9b95	0.030713836
77	0xbe388c61	-0.180223
78	0x3dc89586	0.09794144
79	0x3cce0817	0.025150342
80	0xbe2e2929	-0.17007889
81	0x3ca241c7	0.019806756
82	0xbd32b03d	-0.043625105
83	0x3ddb27dd	0.10700963
84	0x3ebb2824	0.36554062
85	0xbe82cf6f	-0.25548884
86	0xbd95c734	-0.073133856
87	0xbd29eeb4	-0.04148741
88	0xbf49489e	-0.7862643
89	0xbc8da215	-0.0172892
90	0x3d45b623	0.048269402
91	0x3df16100	0.117860794
92	0xbcbcd3cd	-0.023050213
93	0xbe394082	-0.18091014
94	0x3f106e17	0.56417984
95	0xbdf2cc08	-0.11855322
96	0x3de69e2d	0.112606384
97	0xbdaa176b	-0.08305248
98	0x3e2b5d9c	0.16734928
99	0xbe766631	-0.2406242
100	0x3e28e46e	0.16493389
101	0x3e4d419e	0.20044562
102	0x3cea5149	0.028603213
103	0xbe7c0317	-0.24610554
104	0x3d32fb59	0.043696735
105	0xbdc88454	-0.097908646
106	0x3f4d8484	0.8028033
107	0xbd42453b	-0.047429305
108	0xbdad086c	-0.08448872
109	0x3c07d46d	0.008290392
110	0xbd0c64d1	-0.034275834
111	0xbe268ddd	-0.16265054
112	0x3d843a98	0.06456488
113	0xbe049e15	-0.12950929
114	0x3bf29cec	0.0074039605
115	0xbe50a307	-0.2037469
116	0x3e74129a	0.23835221
117	0xbddb0899	-0.10694999
118	0x3d34203a	0.043976046
119	0x3df1bc39	0.11803479
120	0xbc3852c5	-0.011250203
121	0x3d966959	0.07344312
122	0x3e4acf17	0.19805561
123	0xbe34fa68	-0.17673647
124	0x3d02c667	0.031927492
125	0x3decc16f	0.11560332
126	0xbc635019	-0.013874077
127	0x3d402681	0.04691172
128	0xbd00f847	-0.031486776
129	0xbb82bb2e	-0.0039895987
130	0xbd93a0fd	-0.072084405
131	0xbdfe7fa0	-0.12426686
132	0xbd001c30	-0.03127688
133	0xbf3e86f3	-0.74424666
134	0x3dd29745	0.102827586
135	0x3dd33c22	0.10314204
136	0x3e7500d5	0.23926099
137	0x3e698df0	0.22808051
138	0x3dfb639f	0.122748606
139	0x3e2b8d63	0.16753154
140	0x3c8629e4	0.016377397
141	0x3da46a45	0.08028082
142	0x3d80cc69	0.06288988
143	0x3dbc1316	0.09183328
144	0xbadece23	-0.0016998689
145	0x3dac3611	0.0840875
146	0xbe2634db	-0.162311
147	0xbd980744	-0.07423261
148	0x3eb52b72	0.3538471
149	0xbe578d0a	-0.21049896
150	0x3e30b965	0.17258222
151	0x3e45c2b9	0.19312562
152	0xbdafa4d3	-0.085763596
153	0xbe127d50	-0.14305615
154	0xbe0bb2ac	-0.13642377
155	0xbe03479c	-0.12820286
156	0xbd569db7	-0.052396502
157	0x3c6bc43e	0.0143900495
158	0x3ddc7951	0.10765327
159	0xbe0052d8	-0.12531602
160	0x3cc94380	0.02456832
161	0xbdb91a87	-0.09038263
162	0xbd519585	-0.051167984
163	0x3e3c1ed0	0.18371129
164	0xbe0c5691	-0.13704897
165	0x3d6e70f0	0.058213174
166	0x3e36176c	0.17782372
167	0xbd1a95f3	-0.03774066
168	0x3e11906c	0.14215249
169	0x3e084437	0.13307272
170	0x3df4d6c3	0.11955025
171	0xbe3de028	-0.1854254
172	0x3c9aa199	0.018875884
173	0x3ec8a69c	0.39189613
174	0xbe264ba9	-0.162398
175	0xbc492e76	-0.012279144
176	0x3df59aeb	0.11992439
177	0xbd96a708	-0.073560774
178	0x3dbf0fdf	0.09329199
179	0x3e6b30f5	0.22967894
180	0xbe445601	-0.19173433
181	0xbd5ad300	-0.05342388
182	0x3c0a42c1	0.008438767
183	0x3dc3463c	0.095348805
184	0xbe25bf3f	-0.16186236
185	0xbd80b3a6	-0.06284265
186	0x3e0649e9	0.13114132
187	0xbda10aff	-0.078634255
188	0x3e424835	0.18972857
189	0x3e449610	0.1919787
190	0x3e00222c	0.12513036
191	0x3d7c3fdd	0.061584342
192	0xbdb47d8c	-0.08813009
193	0x3c6da8e6	0.014505601
194	0xbd53533a	-0.051593043
195	0xbd801a1d	-0.06254981
196	0xbe0b4d66	-0.13603744
197	0x3d752b48	0.05985573
198	0xbe168829	-0.14700378
199	0x3df8a0d0	0.121400476
200	0x3df90bff	0.12160491
201	0xbce2bfa8	-0.02767928
202	0xbe0621c6	-0.13098821
203	0xbe1a7ae0	-0.15085936
204	0xbbae6f3b	-0.0053233183
205	0xbd746d2c	-0.059674427
206	0x3e0db65b	0.13839094
207	0x3e2ba77f	0.16763113
208	0xbd66b3c1	-0.05632377
209	0x3e00266d	0.12514658
210	0x3b6785ad	0.003532748
211	0x3e288c2f	0.16459726
212	0x3f4cc7be	0.7999228
213	0x3d8b2a5c	0.06795189
214	0x3e397e08	0.18114483
215	0xbe154099	-0.14575423
216	0x3dbf95a9	0.09354717
217	0x3e102541	0.14076711
218	0xbd31edba	-0.043439604
219	0x3e07606d	0.13220377
220	0x3e11097e	0.14163777
221	0xbe760f5d	-0.24029298
222	0xbed6568a	-0.418629
223	0x3b24c588	0.0025142152
224	0xbdfca600	-0.123363495
225	0xbd9b4861	-0.075821646
226	0xbe04ec51	-0.12980773
227	0x39f6aa9d	0.00047047893
228	0xbe2e6119	-0.17029227
229	0x3d3db78b	0.04631762
230	0x3c71e097	0.014763019
231	0xbc990064	-0.018676944
232	0x3d70afdb	0.05876146
233	0x3db170d2	0.08664097
234	0xbc853182	-0.016258959
235	0x3e3e4375	0.1858042
236	0xbda45408	-0.0802384
237	0xbc8056fb	-0.015666476
238	0xbce93c5b	-0.028471163
239	0xbd9753c7	-0.07389026
240	0x3e3ed39a	0.18635407
241	0xbe368318	-0.17823446
242	0x3ca6ab75	0.020345429
243	0xbdc58402	-0.09644319
244	0xbdf81758	-0.121138275
245	0x3df31de1	0.11870933
246	0xbcd0ccd7	-0.0254883
247	0x3c85a0d7	0.016312046
248	0x3d85abe2	0.06526925
249	0x3e507720	0.20357943
250	0xbc7f0d7e	-0.015567182
251	0xbc80bb02	-0.015714172
252	0x3def0af7	0.11672013
253	0x3cc08757	0.023502035
254	0xbf2a0d82	-0.6642686
255	0x3e1e83b0	0.15479922

model.encoder.eb_encoder.0.2.bias f4 [32]
0	0xbde51a81	-0.11186696
1	0xbe025206	-0.12726602
2	0x3d24ff1d	0.040282357
3	0xbd6aa470	-0.057285726
4	0xbe4a7337	-0.19770513
5	0x3ca347c9	0.01993169
6	0xbda1a2c7	-0.078923754
7	0xbb470fd4	-0.0030374425
8	0xbded2477	-0.11579221
9	0xbdd4b2de	-0.10385679
10	0xbd3ddcb0	-0.046353042
11	0xbcf0f26e	-0.029412474
12	0xbe09bf2f	-0.13451837
13	0x3d9e452f	0.077280395
14	0x3d616d1b	0.05503569
15	0xbdb6a89d	-0.08918879
16	0xbe0faf7c	-0.14031786
17	0xbdbabbdd	-0.09117863
18	0xbc78c5ba	-0.01518386
19	0x3d076f20	0.03306496
20	0x3d5f5b8d	0.05453067
21	0x3e6fb5ba	0.23409167
22	0x3e276654	0.16347629
23	0x3ded1e67	0.115780644
24	0x3e383f46	0.17992887
25	0x3daf62d9	0.085637756
26	0x3d98cbf0	0.07460773
27	0xbca7d97c	-0.020489447
28	0x3c0311b4	0.007999826
29	0xbcd233d6	-0.025659483
30	0xbda38f91	-0.079863675
31	0xbe037a55	-0.12839635

model.encoder.eb_encoder.0.4.weight f4 [32, 32]
0	0xbe02efce	-0.1278679
1	0x3dd99c16	0.10625474
2	0xbe9bfe60	-0.3046751
3	0xbcafa0e1	-0.021439018
4	0x3de40fce	0.11135827
5	0xbe6077bf	-0.2192068
6	0xbda95b51	-0.0826937
7	0xbe2c999c	-0.16855472
8	0x3d7a3972	0.06108994
9	0x3d8d0ff2	0.06887807
10	0x3df9063c	0.12159392
11	0xbe2a9b6c	-0.16660851
12	0xbb28d14a	-0.0025759512
13	0x3d4690ae	0.04847782
14	0x3e39f882	0.18161204
15	0xbdd25cfd	-0.10271642
16	0x3ba42323	0.0050090714
17	0x3e078f0f	0.13238166
18	0x3c9d1ff2	0.019180272
19	0xbd2749a3	-0.04084171
20	0x3c5b2f4e	0.013377978
21	0xbe06a91b	-0.13150446
22	0x3d90aa63	0.07063749
23	0x3dde3cb3	0.10851421
24	0x3e005221	0.1253133
25	0x3de3455c	0.110972136
26	0x3e219ec1	0.15783216
27	0x3d5e9c73	0.05434842
28	0x3e0a2848	0.13491929
29	0xbe26a9bb	-0.16275685
30	0xbd8d16fb	-0.06889149
31	0xbcd71492	-0.026254926
32	0xbe74ae00	-0.238945
33	0xba8325b4	-0.0010005743
34	0xbd307c49	-0.043087278
35	0xbe1c3d70	-0.15257812
36	0xbe2d47d9	-0.16921939
37	0x3dcae7d4	0.09907499
38	0x3d9d3e55	0.076779045
39	0xbd5f3658	-0.054495186
40	0xbe0e9049	-0.13922228
41	0xbd837a83	-0.06419852
42	0xbdd757e0	-0.10514808
43	0xbe304a2b	-0.17215793
44	0x3e0d712c	0.13812703
45	0xbe012d19	-0.1261486
46	0xbdaff3b7	-0.08591407
47	0x3ddd25f4	0.107982546
48	0x3e0f85ec	0.14015931
49	0xbe0ba31f	-0.13636445
50	0x3c732389	0.014840015
51	0x3d9f2e7e	0.077725396
52	0x3e1a360e	0.15059683
53	0xbe0d43de	-0.1379542
54	0x3d155d60	0.036466002
55	0xbdf4cadc	-0.11952755
56	0x3e376287	0.17908679
57	0x3de13d5e	0.10998033
58	0xbdc68526	-0.09693365
59	0xbd189266	-0.03724899
60	0x3d92a002	0.07159425
61	0xbdc42b2b	-0.09578546
62	0x3ce858b6	0.028362613
63	0xbe32d4e3	-0.17464022
64	0x3de187ab	0.11012205
65	0xbc18112b	-0.009281437
66	0xbe689711	-0.22713877
67	0xbb298d01	-0.0025871398
68	0x3e050430	0.12989879
69	0x3e1d5dc3	0.15367799
70	0x3d67a53b	0.05655406
71	0x3e1b313f	0.15155505
72	0x3e328b63	0.17435984
73	0xbd4ffb38	-0.05077669
74	0xbd7a4b4d	-0.06110697
75	0xbdeb120f	-0.11478054
76	0x3d1d127a	0.0383477
77	0x3dd77733	0.10520782
78	0x3dcf4500	0.101205826
79	0x3d71c632	0.059026904
80	0x3d8f9761	0.07011295
81	0x3dba32f6	0.09091751
82	0xbcda7e82	-0.026671652
83	0xbc3708d5	-0.011171539
84	0xbd668870	-0.05628246
85	0x3e1f0c7e	0.15532109
86	0xbce2cd56	-0.027685802
87	0x3dc32a02	0.09529497
88	0x3dbe471f	0.09290909
89	0xbd8afc11	-0.06786359
90	0xbe8b94cb	-0.27261958
91	0x3d0c8491	0.034306113
92	0xbe0bd264	-0.13654476
93	0x3d78d843	0.06075312
94	0xbe0df0de	-0.13861415
95	0xbe888fa9	-0.26672104
96	0x3d64b5a7	0.0558373
97	0xbc38c916	-0.011278411
98	0x3e498fe0	0.1968379
99	0x3d912fd2	0.07089199
100	0x3dc27f5f	0.0949695
101	0x3e45a470	0.19301009
102	0xbc755ca8	-0.014975704
103	0x3e4db81e	0.20089766
104	0xbe6473ce	-0.22309801
105	0xbe0a88bb	-0.13528721
106	0x3acec671	0.0015775693
107	0xbe35c9d4	-0.17752773
108	0xbd902aec	-0.07039437
109	0xbe3868dd	-0.18008752
110	0xbda1b4e7	-0.078958325
111	0xbe570ab3	-0.21000175
112	0xbe0aadaa	-0.1354281
113	0x3e09638d	0.13416882
114	0x3d4ac1dd	0.04950129
115	0x3e193485	0.14961441
116	0x3db97018	0.09054583
117	0xbd9f29c1	-0.07771636
118	0x3df378bc	0.11888263
119	0xbe3dad0a	-0.1852304
120	0xbe002ce6	-0.12517127
121	0x3eeafed5	0.45897546
122	0xbe64e748	-0.22353852
123	0x3dccac8a	0.09993847
124	0x3de34b96	0.11098401
125	0xbcd1501f	-0.0255509
126	0xbb68d128	-0.0035525057
127	0x3f41eff6	0.75756776
128	0x3e0adb6d	0.13560267
129	0x3d730852	0.059334107
130	0x3e850cef	0.2598643
131	0x3da0ad3a	0.0784554
132	0xbdb0f7d0	-0.086410165
133	0xbde6a313	-0.11261573
134	0x3d0d5809	0.034507785
135	0x3e3c072f	0.18362115
136	0x3c538e8d	0.012912405
137	0x3dc906e5	0.09815768
138	0xbe237b02	-0.15964893
139	0x3b33eee2	0.0027455618
140	0xbdcdb35e	-0.10043977
141	0xbdc44bd3	-0.09584775
142	0xbe3a5837	-0.18197714
143	0x3c438973	0.011934626
144	0x3db66329	0.08905632
145	0x3d2fb2f9	0.04289529
146	0x3e46e5a5	0.1942354
147	0x3e6255c0	0.22103024
148	0xbdd72432	-0.105049506
149	0x3e071b7a	0.13194075
150	0x3dd031c7	0.10165744
151	0xbcfacb2e	-0.030614462
152	0x3e55c13d	0.20874496
153	0xbe44b825	-0.1921087
154	0x3d872600	0.06599045
155	0x3dc1513b	0.094393216
156	0x3c8d2fb3	0.017234659
157	0x3e2f0ffe	0.17095944
158	0x3df20ddb	0.11819049
159	0xbdaa4bb4	-0.083152205
160	0xbd3a8ad6	-0.04554256
161	0x3c244c03	0.010027888
162	0x3e7171a8	0.23578513
163	0x3ca82403	0.020524984
164	0x3e9ae2d3	0.30251178
165	0x3da89105	0.08230785
166	0xbdb76819	-0.08955402
167	0x3da16d17	0.07882135
168	0xbd6cbc31	-0.05779666
169	0xbc1aeae7	-0.009455419
170	0x3c694e6b	0.014239888
171	0xbe28a3db	-0.16468756
172	0xbb22a9b3	-0.0024820387
173	0x3e8a76a8	0.27043653
174	0xbd8f73cc	-0.070045084
175	0xbe6dc5ba	-0.23219958
176	0xbdedd9cf	-0.11613809
177	0xbe1868d2	-0.14883736
178	0x3b2afbf8	0.0026090126
179	0x3d25e55e	0.040501945
180	0xbcd0e0ba	-0.025497783
181	0x3d2df8f4	0.04247375
182	0xbca0fa36	-0.01965056
183	0xbdc8adb0	-0.09798753
184	0x3dd18ba9	0.10231716
185	0xbb853603	-0.0040652766
186	0x3d9a9c3d	0.07549331
187	0xbe0dbfa6	-0.1384264
188	0xbe0b3f16	-0.13598284
189	0xbdfe508c	-0.12417707
190	0xbe42cfbc	-0.19024557
191	0x3edb697f	0.42853925
192	0x3d789323	0.060687196
193	0xbd832f89	-0.06405551
194	0x3e5b991b	0.21445124
195	0xbcdfed15	-0.02733473
196	0xbdee0204	-0.11621478
197	0xbe52a64f	-0.20571254
198	0xbcbaada0	-0.022787869
199	0xbbb9805d	-0.005661054
200	0xbe7cd418	-0.24690282
201	0x3df27c02	0.11840059
202	0xbc14d12b	-0.009083073
203	0xbd72fc7f	-0.05932283
204	0x3d04b8a2	0.032402642
205	0x3ee2ccc5	0.44296852
206	0x3cca0c19	0.024663972
207	0xbdd2fc01	-0.10301972
208	0x3dc61e2a	0.09673722
209	0xbe14d173	-0.14533024
210	0x3ddfde43	0.10931065
211	0x3dc14295	0.09436528
212	0x3dd86091	0.105652936
213	0x3df9f877	0.12205594
214	0xbe6602ed	-0.22462054
215	0xbe514472	-0.20436266
216	0x3dba79ea	0.091052845
217	0xbdb7f79a	-0.08982773
218	0xbc6b709c	-0.01437011
219	0xbd03c9bb	-0.032174807
220	0x3e16d27b	0.1472873
221	0xbd6e093e	-0.058114283
222	0x3d9e5412	0.07730879
223	0xbe7e4fa7	-0.24835072
224	0x3d4438bf	0.04790568
225	0xbd87e567	-0.06635552
226	0xbe7e69a1	-0.24844982
227	0x3d5b4923	0.053536545
228	0xbc5dcf3b	-0.013538177
229	0x3d969b9b	0.07353898
230	0xbd3689e9	-0.044565115
231	0x3dc19088	0.09451395
232	0xbbf147ef	-0.0073633115
233	0x3c9de0ac	0.019272171
234	0xbccfe2ec	-0.02537676
235	0x3e1dbe51	0.15404631
236	0x3d2ff865	0.042961497
237	0xbe7f3761	-0.24923469
238	0x3dbca950	0.09211981
239	0x3e174704	0.14773184
240	0xbd91e8cf	-0.07124483
241	0x3ce68d46	0.028143536
242	0x3dfaed0a	0.12252243
243	0xbe279da3	-0.16368727
244	0xbd7b0822	-0.061287053
245	0xbc0387e3	-0.008028003
246	0xbd092415	-0.033481676
247	0x3deb799c	0.114978045
248	0xbde17382	-0.110083595
249	0xbded2182	-0.11578657
250	0xbdc6a345	-0.0969911
251	0xbdd6c959	-0.10487623
252	0x3dd0a8ac	0.101884216
253	0xbd96a17d	-0.0735502
254	0x3d74327f	0.05961847
255	0x3ea31caa	0.31857806

model.encoder.eb_encoder.0.4.bias f4 [32]
0	0x3d852c08	0.06502539
1	0xbce575bf	-0.028010247
2	0xbda2dc93	-0.079522274
3	0x3daf6bcd	0.08565483
4	0xbe4d717c	-0.20062822
5	0x3e760816	0.24026522
6	0x3dc57bca	0.096427515
7	0xbe3d0acb	-0.18461148
8	0xbe2b1e61	-0.16710807
9	0xbe14c867	-0.14529572
10	0xbe51be7e	-0.20482823
11	0x3e6cb5b0	0.23116183
12	0xbdd9941f	-0.10623955
13	0xbdef9d27	-0.11699896
14	0xbd67d135	-0.056596
15	0x3e620849	0.22073473
16	0x3d96ce2a	0.073635414
17	0xbd569298	-0.052385896
18	0xbd511e55	-0.051054318
19	0xbe1ce2d7	-0.15320908
20	0x3e381e83	0.1798039
21	0x3e288559	0.16457118
22	0xbe35e6bc	-0.177638
23	0xbe447782	-0.19186214
24	0x3d3ac9eb	0.04560272
25	0xbe387ac0	-0.18015575
26	0xbd84c4eb	-0.064828716
27	0x3d289054	0.041153267
28	0x3b7d8c00	0.0038688183
29	0xbe0daf0c	-0.13836306
30	0x3e1c0e3e	0.15239808
31	0xbd122062	-0.035675414

model.encoder.eb_encoder.0.6.weight f4 [32, 32]
0	0x3e22697f	0.15860556
1	0x3e322096	0.17395243
2	0xbdedef42	-0.116179004
3	0xbe39298f	-0.1808226
4	0xbe3aa420	-0.18226671
5	0xbe6d7050	-0.23187375
6	0x3e083db6	0.13304791
7	0xbc1cf5b0	-0.009580061
8	0x3ebbc0c0	0.36670494
9	0x3ea77972	0.32709843
10	0x3cc2b2e3	0.02376694
11	0xbe04355a	-0.12910977
12	0xbe261e6c	-0.16222543
13	0xbdbb3784	-0.09141448
14	0x3d1cb9d8	0.038263172
15	0xbe1a5a7b	-0.15073578
16	0x3e0c8ca3	0.13725524
17	0x3e0d7ab2	0.13816336
18	0xbdc51341	-0.09622813
19	0x3cdf0ec9	0.02722873
20	0xbe6788ac	-0.2261073
21	0x3d1307dd	0.03589617
22	0x3e25b635	0.16182788
23	0x3d058d33	0.03260536
24	0x3d2673aa	0.04063765
25	0xbe7d62cf	-0.24744724
26	0x3e7ba45d	0.24574418
27	0x3d83eaeb	0.064412914
28	0x3db4afcf	0.08822595
29	0xbc7a85f6	-0.015290728
30	0x3e1fd35d	0.15607972
31	0x3d441fc3	0.047881853
32	0x3e164d8b	0.14678018
33	0xbe838c5f	-0.25693032
34	0x3c9a06a0	0.018801987
35	0x3d495c0e	0.049160056
36	0x3d93a785	0.07209686
37	0xbe49a5ec	-0.196922
38	0xbe1a9f42	-0.15099815
39	0xbd9af203	-0.07565691
40	0xbec9fcbe	-0.3945064
41	0xbe26e414	-0.16297942
42	0x3d7d3f32	0.061827846
43	0xbe92aa45	-0.2864553
44	0x3df9f43c	0.12204787
45	0xbd49b4f4	-0.049244836
46	0x3be658a7	0.007029611
47	0xbd2b9867	-0.04189339
48	0xbd4fece2	-0.05076302
49	0xbe214004	-0.15747076
50	0xbd80f152	-0.06296028
51	0x3df6e635	0.12055627
52	0xbdd61a32	-0.10454215
53	0x3dcf5a4c	0.10124645
54	0xbcee4554	-0.029085793
55	0x3e548a93	0.20755987
56	0xbddebcc2	-0.108758464
57	0x3e31eb3f	0.17374896
58	0xbe9c8eb0	-0.30577612
59	0xbddfecf9	-0.10933871
60	0xbe6d4955	-0.23172505
61	0xbdb2a0b0	-0.08722055
62	0xbe40cdaf	-0.18828462
63	0x3e36e87a	0.1786212
64	0xbe461b3f	-0.19346331
65	0x3ca78167	0.020447446
66	0x3e08f204	0.13373572
67	0xbdbbec1f	-0.09175896
68	0xbd4b455e	-0.0496267
69	0xbe3b75f6	-0.18306717
70	0xba276a47	-0.0006386381
71	0x3de376ba	0.1110663
72	0xbe8accdb	-0.27109417
73	0xbdd4edc4	-0.10396913
74	0x3e4b56fb	0.19857399
75	0x3c8ba367	0.01704569
76	0x3c5bd17a	0.013416642
77	0xbd6b6c58	-0.05747637
78	0x3e3fa6ff	0.18716048
79	0x3dd196a4	0.102338105
80	0xbe38c88e	-0.18045256
81	0xbd15e388	-0.036593944
82	0x3dfc1857	0.1230933
83	0xbca7b120	-0.020470202
84	0xbdd66417	-0.104683094
85	0xbda84bcb	-0.08217581
86	0x3e31936d	0.17341395
87	0xbbf257fc	-0.0073957425
88	0xbd6be705	-0.057593364
89	0xbb8abea8	-0.004234154
90	0x3d88dd85	0.066828765
91	0x3e1d3467	0.15352021
92	0xbe1b5f82	-0.15173152
93	0xbe13fc40	-0.14451694
94	0xbcabdd36	-0.020979505
95	0xbc29717b	-0.010341997
96	0xbe1782fe	-0.14796063
97	0x3dda459f	0.106578104
98	0xbdbff305	-0.09372524
99	0xbe6993d1	-0.22810294
100	0xbe021380	-0.12702751
101	0xbe06366a	-0.13106695
102	0xbce29502	-0.027658943
103	0x3c5e1784	0.013555411
104	0x3a8c0a1d	0.0010684166
105	0x3ba706d9	0.005097252
106	0xbe244a64	-0.16044003
107	0x3d870b05	0.06593899
108	0x3d7ebb47	0.06219032
109	0xbd28bde8	-0.041196734
110	0xbd1aade6	-0.0377635
111	0xbdb7d61b	-0.08976384
112	0x3e354db1	0.17705418
113	0x3e1dccc5	0.15410145
114	0xbd981d8b	-0.0742751
115	0xbdafe30f	-0.0858823
116	0xbd78bdcc	-0.06072788
117	0xbccde214	-0.025132217
118	0x3e31f058	0.1737684
119	0xbe0769bc	-0.13223928
120	0xbe501524	-0.20320565
121	0xbdc61c7e	-0.09673403
122	0x3d2e4607	0.042547252
123	0x3e1f1428	0.15535033
124	0xbd97e05e	-0.074158415
125	0xbd765c9d	-0.060146917
126	0xbe7cd402	-0.2469025
127	0x3e2daae2	0.16959718
128	0x3df33dfa	0.118770555
129	0xbe3856f3	-0.18001918
130	0x3b8cc140	0.004295498
131	0x3e45afee	0.19305393
132	0xbe2ae1c2	-0.16687682
133	0x3e11c2d0	0.14234471
134	0x3c985973	0.01859734
135	0xbd62f599	-0.05541
136	0xbe82eb6a	-0.25570232
137	0x3d80d8b0	0.0629133
138	0x3de9a5fa	0.11408611
139	0xbdd7bc2c	-0.10533938
140	0x3dd406ba	0.103528455
141	0x3e13d4c7	0.14436637
142	0x3d6c66ff	0.057715412
143	0x3e3e3ca1	0.18577816
144	0x3d3b6b52	0.045756646
145	0xbd938354	-0.07202783
146	0xbded0a49	-0.11574227
147	0x3d839625	0.06425122
148	0x3e435e37	0.19078909
149	0xbe111c3a	-0.14170924
150	0xbd381264	-0.044939414
151	0xbdfbe7dc	-0.12300083
152	0x3d852584	0.06501296
153	0xbdc981e5	-0.098392285
154	0xbe05611c	-0.13025326
155	0xbdacdfd5	-0.0844113
156	0x3d50d394	0.050983027
157	0xbe0f7f1c	-0.14013332
158	0x3e106df9	0.14104451
159	0xbe3ed2f2	-0.18635157
160	0xbdb0e965	-0.086382665
161	0x3d48fd33	0.049069595
162	0xbb3b1ef8	-0.0028552394
163	0xbe147052	-0.14495972
164	0xbe526afd	-0.20548625
165	0xbe1b3518	-0.15156972
166	0x3da1d375	0.0790166
167	0x3e471d79	0.19444837
168	0x3e65b583	0.22432522
169	0x3d13e5cd	0.036107827
170	0x3e4bdddd	0.19908853
171	0xbe193afd	-0.14963908
172	0xbda01d4c	-0.07818088
173	0xbd126fe6	-0.035751246
174	0x3dd5bcdb	0.10436412
175	0x3d15c3c4	0.03656365
176	0x3d049d3d	0.032376517
177	0x3e0e5f0c	0.13903445
178	0xbe0b5dc2	-0.13609985
179	0x3b8027d9	0.003911
180	0xbdb1d488	-0.08683115
181	0xbe22be87	-0.15892993
182	0x3de07247	0.10959297
183	0xbbdc5e07	-0.006725076
184	0xbdea2772	-0.11433305
185	0xbd237f07	-0.039916065
186	0x3ea7a1a1	0.327405
187	0x3d97dc94	0.07415119
188	0x3e048263	0.12940364
189	0x3db7772a	0.089582756
190	0x3cbe1f1c	0.023208193
191	0x3e0b3f79	0.13598432
192	0xbe180b3e	-0.14848039
193	0x3db897e0	0.09013343
194	0xbc683716	-0.01417329
195	0x3e70672b	0.23476855
196	0xbd92443a	-0.071419194
197	0x3e52e4d3	0.20595102
198	0x3dc9e8a2	0.09858824
199	0xbdac8f79	-0.08425803
200	0xbe902fdd	-0.28161517
201	0xbe013e09	-0.12621321
202	0xbe46ee1b	-0.19426768
203	0x3d6c709e	0.057724588
204	0x3dc5db7b	0.09661003
205	0xbe47a744	-0.194974
206	0xbe132161	-0.14368202
207	0x3de0ba36	0.10973017
208	0xbde2758b	-0.11057576
209	0x3e41365d	0.18868394
210	0x3e1b8020	0.15185595
211	0x3d383830	0.04497546
212	0xbdcd8220	-0.10034585
213	0xbd2d0dfa	-0.042249657
214	0x3dc75188	0.09732348
215	0xbd8ba7b7	-0.068190984
216	0xbb42f025	-0.0029745188
217	0x3e34fdd0	0.17674947
218	0xbcb6e847	-0.022327555
219	0x3d35c20e	0.044374518
220	0xbe50403c	-0.20337003
221	0x3d22f2ee	0.039782457
222	0xbe3189e9	-0.17337765
223	0xbe4a6b72	-0.1976755
224	0xbe0e7ec4	-0.13915545
225	0x3d9d7b4d	0.076895334
226	0xbdc5476d	-0.09632764
227	0xbd757712	-0.059928007
228	0xbe2854a7	-0.16438542
229	0xbe62d303	-0.22150807
230	0x3dd81acd	0.10551987
231	0x3e08b609	0.13350691
232	0x3dc10ce8	0.0942629
233	0xbe15bd7c	-0.14623064
234	0xbd02f8b1	-0.03197545
235	0xbda074cc	-0.07834777
236	0x3dce5520	0.1007483
237	0xbc60ea94	-0.013727803
238	0xbddec4c6	-0.10877375
239	0x3aaee158	0.0013342304
240	0x3db985a7	0.09058695
241	0xbd5d91e3	-0.054094207
242	0xbdc35cee	-0.09539209
243	0x3e462543	0.19350152
244	0x3e079554	0.13240558
245	0x3e222b45	0.15836819
246	0xbc5587ab	-0.013032834
247	0x3e1d6af3	0.15372829
248	0xbe6275ad	-0.22115202
249	0x3d925ee9	0.07147009
250	0xbdcbc1f6	-0.099491045
251	0xbe2969d6	-0.1654428
252	0xbd90b49b	-0.07065698
253	0xbdf34990	-0.11879265
254	0x3da539d5	0.08067671
255	0x3df67ffe	0.12036131

model.encoder.eb_encoder.0.6.bias f4 [32]
0	0xbdb11c1c	-0.086479396
1	0x3e104971	0.14090516
2	0x3e2b5bf2	0.16734293
3	0xbcda10e1	-0.026619377
4	0x3e46332e	0.19355461
5	0xbd285ff1	-0.04110712
6	0x3ce645c6	0.028109442
7	0x3d6f9450	0.05849105
8	0x3d9ce18b	0.076602064
9	0xbde94abb	-0.11391207
10	0x3e308e0c	0.17241687
11	0xbe39f5c4	-0.18160158
12	0x3e276ff7	0.16351305
13	0x3ddfc5d5	0.10926405
14	0xbd6f73c0	-0.058459997
15	0xbde7cbf5	-0.113181986
16	0x3de2bfe6	0.11071758
17	0xbdcc2589	-0.09968097
18	0x3e22cdc4	0.15898806
19	0xbe16942d	-0.14704962
20	0x3d992fee	0.07479845
21	0x3e147cdb	0.14500754
22	0xbce180a9	-0.02752717
23	0xbd7ce582	-0.061742313
24	0xbd8b2fe2	-0.06796242
25	0x3d14c64c	0.036321923
26	0xbde79588	-0.11307818
27	0xbe4b9870	-0.19882369
28	0xbdd9588c	-0.10612592
29	0xbe1f400e	-0.15551779
30	0x3e56f0b2	0.20990255
31	0xbe3dd251	-0.1853726

model.encoder.eb_encoder.1.weight f4 [32]
0	0x3f9370d5	1.1518809
1	0x3f911d9b	1.133716
2	0x3f8c96f4	1.0983567
3	0x3f9555d4	1.1666818
4	0x3fae671e	1.3625219
5	0x3f91aa72	1.1380141
6	0x3f8f70d1	1.1206304
7	0x3f8fd067	1.1235474
8	0x3f8d1123	1.1020855
9	0x3f97b142	1.185097
10	0x3f8ecb46	1.1155784
11	0x3f98edbe	1.1947553
12	0x3f83b77e	1.0290372
13	0x3f919759	1.1374313
14	0x3f8f9908	1.1218576
15	0x3f898ae1	1.0745507
16	0x3f901a80	1.1258087
17	0x3f8a2519	1.0792571
18	0x3fa22dc3	1.2670215
19	0x3f9de91c	1.2336764
20	0x3f8fcbec	1.1234107
21	0x3f8eb6a4	1.1149487
22	0x3f93683d	1.1516186
23	0x3f926bff	1.1439208
24	0x3fad4a33	1.3538269
25	0x3f933afa	1.1502373
26	0x3fa09cee	1.2547891
27	0x3f92e4f2	1.1476119
28	0x3f8f825d	1.1211659
29	0x3f9b0026	1.210942
30	0x3f9f5f5e	1.2450979
31	0x3fa08956	1.2541912

model.encoder.eb_encoder.1.bias f4 [32]
0	0x3c695df9	0.014243596
1	0xbca50e91	-0.020148547
2	0xbd011529	-0.03151432
3	0xba12862d	-0.0005589452
4	0xbb474163	-0.0030403964
5	0xbcad7e55	-0.021178404
6	0x3c80072f	0.015628425
7	0xbcca0d0f	-0.02466443
8	0xbb32a8a4	-0.0027261162
9	0x3c2cde2d	0.010551018
10	0xbd18b107	-0.0372782
11	0x3d4dc1a0	0.050233483
12	0xbd1757fb	-0.03694914
13	0xbc937e96	-0.018004697
14	0x3ca4428d	0.020051265
15	0x3cc99467	0.024606897
16	0xbc7bc4f1	-0.015366779
17	0x3cdf064a	0.027224679
18	0xbc3bc16f	-0.011459692
19	0x3d1e39e0	0.038629413
20	0xbca23e45	-0.019805083
21	0xbcf67629	-0.03008564
22	0x3c4d9627	0.012548006
23	0x3ccbf2c9	0.024896042
24	0x3c43be58	0.011947237
25	0xbbc2ebe2	-0.0059485296
26	0x3d1b6205	0.037935276
27	0x3c401356	0.01172336
28	0x3bb9551b	0.0056558973
29	0x3cab39d5	0.0209016
30	0xbd0ad1c3	-0.03389145
31	0x3c363284	0.011120442

model.encoder.nb_encoder.0.0.weight f4 [32, 10]
0	0x3dc1e764	0.094679624
1	0x3e5918da	0.21200886
2	0x3e5a89a2	0.21341565
3	0x3e640375	0.22266944
4	0xbe03bacf	-0.1286423
5	0x3e92fe73	0.28709754
6	0x3e8f3b26	0.27974814
7	0x3e690596	0.22756037
8	0x3f29160c	0.66049266
9	0xbe2c3238	-0.16816032
10	0x3e8ab08a	0.27087814
11	0x3d9fbabf	0.07799291
12	0x3d5f08fe	0.054451935
13	0x3e87772a	0.26458102
14	0x3ccc5616	0.024943393
15	0x3e06d652	0.13167694
16	0xbda3cb76	-0.079977915
17	0xbe429ffa	-0.19006339
18	0xbed07d16	-0.40720433
19	0x3d0706e9	0.032965574
20	0x3e8a275f	0.26983163
21	0xbe942f96	-0.28942555
22	0xbe76294f	-0.24039195
23	0x3e059d98	0.13048398
24	0x3e286283	0.16443829
25	0x3d99595b	0.07487746
26	0x3e658714	0.2241481
27	0xbe35d1b0	-0.1775577
28	0x3eab9386	0.3351099
29	0x3e00f897	0.1259483
30	0x3e5b13be	0.2139425
31	0x3dfb5e1e	0.12273811
32	0xbd7dc4c3	-0.061955225
33	0xbd858f86	-0.065215155
34	0x3e2615f9	0.1621932
35	0x3e31dbc8	0.17368996
36	0xbdbdf6da	-0.09275599
37	0x3dbbc4c2	0.09168388
38	0xbf212125	-0.629412
39	0x3e8ae384	0.27126706
40	0x3e885b4b	0.2663215
41	0x3e71d57a	0.23616591
42	0xbe3b2e91	-0.18279482
43	0x3d29f62d	0.041494537
44	0xbe36a7d2	-0.17837456
45	0x3c7d75d5	0.015469988
46	0xbd203a78	-0.03911826
47	0xbd977168	-0.073946774
48	0x3f32bc27	0.6981835
49	0xbdeb35bd	-0.11484859
50	0x3e9419c2	0.28925902
51	0x3e7aa888	0.24478352
52	0x3cb1cf96	0.02170543
53	0x3e10362e	0.14083168
54	0xbe90ee38	-0.28306746
55	0x3de92d5e	0.11385606
56	0xbc9eee2b	-0.019400677
57	0xbe8dca03	-0.27693185
58	0xbeb853a9	-0.36001328
59	0xbcfaf98c	-0.030636571
60	0x3e6c78be	0.23092934
61	0x3cb1e2c1	0.02171457
62	0xbe3add91	-0.18248583
63	0xbd6c7ee4	-0.0577382
64	0xbeab613b	-0.33472618
65	0x3da0a77b	0.07844444
66	0xbe83277b	-0.2561606
67	0x3c3f0893	0.011659759
68	0xbe82b7ac	-0.25530756
69	0xbc524d04	-0.012835745
70	0xbe798ed5	-0.24370892
71	0xbe747f8e	-0.23876783
72	0xbd68a184	-0.05679466
73	0x3e9eeed8	0.31041598
74	0xbe8c9c90	-0.27463198
75	0xbe535580	-0.20638084
76	0x3e1fe9d7	0.15616547
77	0xbe82b0ae	-0.2552542
78	0xbe239b1f	-0.15977143
79	0x3dbcbb7e	0.09215449
80	0x3e86a80c	0.26300085
81	0xbd95be9e	-0.07311748
82	0xbd212f5d	-0.03935181
83	0xbe21d80c	-0.15805072
84	0x3db8f60a	0.09031303
85	0xbe2611ba	-0.162177
86	0x3e294c5c	0.16533035
87	0xbe8082a4	-0.2509967
88	0xbda9cf29	-0.08291466
89	0xbdd6742c	-0.10471377
90	0xbe71649f	-0.2357354
91	0xbde49f6e	-0.11163221
92	0x3e894314	0.2680899
93	0xbe7ca139	-0.24670877
94	0xbcf6df8b	-0.03013589
95	0x3ea0b0c4	0.3138486
96	0xbccd797c	-0.025082342
97	0xbe526a9e	-0.20548484
98	0xbc8a0d46	-0.016852032
99	0xbe7fa516	-0.24965319
100	0x3eb448fe	0.3521194
101	0xbdd43f11	-0.103635915
102	0xbe503b95	-0.20335229
103	0x3daf0117	0.0854513
104	0xbe25353b	-0.16133587
105	0xbca1567b	-0.019694557
106	0x3d03dd04	0.0321932
107	0xbe346b5b	-0.17619078
108	0x3d5262e2	0.051363833
109	0xbd8690de	-0.065706
110	0x3e5e7400	0.21723938
111	0xbdea33a6	-0.114356324
112	0x3e86e14f	0.26343772
113	0x3d9b2702	0.075757995
114	0x3e008aa7	0.12552892
115	0xbe431b3d	-0.1905336
116	0x3d9a2172	0.075259104
117	0xbded4f9d	-0.11587451
118	0xbf06ddb1	-0.52682024
119	0xbdddb152	-0.10824837
120	0xbe6f6ed4	-0.23382121
121	0x3e2d7cd0	0.16942143
122	0x3e0553d4	0.13020259
123	0xbe343ede	-0.17602107
124	0xbe962d01	-0.2933121
125	0x3e51dda8	0.20494711
126	0x3e8d089e	0.27545637
127	0x3d7c7818	0.061637968
128	0xbf06887b	-0.52552
129	0x3bc9bf7b	0.0061568595
130	0x3be47253	0.0069716363
131	0x3c10d287	0.008839256
132	0x3e655c1b	0.22398417
133	0xbe34f0ba	-0.17669955
134	0xbe2008b5	-0.15628321
135	0xbdb9ef2f	-0.09078824
136	0x3e68f485	0.22749527
137	0x3ea9b69b	0.3314713
138	0xbf200f19	-0.6252304
139	0xbdb6c1f2	-0.08923711
140	0xbc7cdb4e	-0.015433146
141	0xbe3135bd	-0.17305656
142	0x3df71e89	0.12066371
143	0x3eade832	0.33966213
144	0xbe6936e9	-0.22774853
145	0x3e33296e	0.17496273
146	0xbcb00e70	-0.02149126
147	0x3de327df	0.11091589
148	0x3cd99e5a	0.026564766
149	0x3e331402	0.17488101
150	0xbe8baaa5	-0.2727863
151	0xbd2fda39	-0.042932723
152	0x3e3e4009	0.18579115
153	0x3bdd36b3	0.0067509054
154	0xbdf2a976	-0.11848728
155	0xbd7c760a	-0.06163601
156	0xbe39245e	-0.18080279
157	0xbe38c316	-0.1804317
158	0xbcb8281b	-0.022480061
159	0xbdca31b9	-0.09872765
160	0x3e8d81ec	0.27638185
161	0xbe52d124	-0.20587593
162	0x3e22207a	0.15832701
163	0xbb76c6e3	-0.0037655167
164	0x3e8e03da	0.27737314
165	0x3d532c9a	0.051556207
166	0x3e8d2458	0.2756679
167	0xbe1cc98a	-0.15311256
168	0xbe6fc379	-0.2341441
169	0x3dedcdfe	0.116115555
170	0x3dbca6ee	0.09211527
171	0x3e620785	0.22073181
172	0x3e366e39	0.17815484
173	0xbe7a419e	-0.24439093
174	0xbe8df7b4	-0.27728045
175	0xbe80c929	-0.25153473
176	0x3e30340a	0.17207351
177	0xbc95f75f	-0.018306432
178	0xbee310bb	-0.44348702
179	0xbd2b5aa4	-0.04183449
180	0xbdad7f28	-0.08471519
181	0xbe3b84f3	-0.18312435
182	0x3d0baef5	0.0341024
183	0xbd7a86a2	-0.061163552
184	0xbe5deeba	-0.21673098
185	0x3e1b1ca4	0.15147644
186	0xbdb9dc9c	-0.09075281
187	0xbd6d0a3e	-0.057871096
188	0x3dc0497f	0.09389018
189	0x3e8d4356	0.27590436
190	0x3e8406ea	0.25786525
191	0x3c319dc7	0.01084084
192	0xbb8d5dc7	-0.0043141576
193	0xbd3c77e2	-0.046012767
194	0xbe120b04	-0.14262015
195	0x3e135599	0.14388122
196	0x3cf25f26	0.029586386
197	0xbec21b5b	-0.37911496
198	0x3db889d7	0.09010666
199	0xbde83ccb	-0.1133972
200	0x3e125cc7	0.14293204
201	0x3e6e71d6	0.23285612
202	0x3e260ab8	0.16215026
203	0xbe02adae	-0.12761566
204	0xbd015b51	-0.031581227
205	0xbd1f102e	-0.03883379
206	0x3d0a8604	0.033819214
207	0x3e0e86b9	0.1391858
208	0x3f28f067	0.65991825
209	0x3db38332	0.08765258
210	0x3d948616	0.07252137
211	0xbe873eec	-0.26415193
212	0x3e146d3d	0.14494796
213	0xbdf46012	-0.119323865
214	0xbe3a20bd	-0.18176551
215	0xbbb46f10	-0.0055064037
216	0x3da17f36	0.07885592
217	0x3e97c53f	0.29642674
218	0x3ed5b860	0.4174223
219	0x3cd9c04b	0.02658095
220	0x3e36357a	0.17793837
221	0x3aa63201	0.0012679697
222	0xbcaec676	-0.021334868
223	0xbdaf455b	-0.085581504
224	0x3d625e16	0.05526551
225	0xbd926870	-0.07148826
226	0x3d143e1c	0.036192045
227	0xbeb0e0ad	-0.34546414
228	0xbddff282	-0.109349266
229	0xbbe41179	-0.0069600907
230	0xbea5febe	-0.32420915
231	0xbdd75f7c	-0.10516259
232	0x3b3eb1a1	0.0029097574
233	0x3e9df02e	0.30847305
234	0xbe5778f5	-0.21042235
235	0x3e360fbb	0.17779438
236	0x3e697c86	0.22801408
237	0xbe8e35d2	-0.27775437
238	0x3e4c7e98	0.19970167
239	0xbd44c634	-0.048040584
240	0xbe8bf818	-0.27337718
241	0xbdee0404	-0.1162186
242	0x3d8cb73f	0.06870889
243	0x3ec34d44	0.38144886
244	0x3e0bc5c1	0.13649656
245	0x3e5823b1	0.21107365
246	0x3c7b343c	0.015332278
247	0x3e2e147d	0.17000003
248	0xbe2d5761	-0.16927864
249	0x3e4a077e	0.1972942
250	0x3e9b7c17	0.3036811
251	0x3d95a614	0.073070675
252	0x3e0cabae	0.13737366
253	0xbe1ff930	-0.15622401
254	0xbe251804	-0.16122442
255	0x3dda12af	0.10648095

model.encoder.nb_encoder.0.0.bias f4 [32]
0	0x3e3d9247	0.18512832
1	0xbc15b079	-0.009136313
2	0x3e34be13	0.17650633
3	0x3d4157c5	0.047202844
4	0xbe4a15bc	-0.19734854
5	0xbdc56354	-0.09638086
6	0x3e5f9fae	0.21838257
7	0xbe97455f	-0.29545113
8	0x3e2dd1f6	0.16974625
9	0x3c6bb542	0.014386477
10	0xbdb96a5a	-0.09053488
11	0xbde2bb66	-0.110709
12	0x3d447bda	0.047969677
13	0xbe9253a5	-0.2857944
14	0xbd86fe5d	-0.06591485
15	0x3e9b1b71	0.30294374
16	0xbe2ad7ca	-0.1668388
17	0x3d02ab10	0.03190142
18	0xbdc006f0	-0.09376323
19	0x3e92fc0f	0.2870793
20	0x3cb06fd4	0.021537699
21	0x3cc33a19	0.023831414
22	0x3f09a343	0.5376474
23	0x3d789e02	0.060697563
24	0x3e2f5b6e	0.17124721
25	0xbd0d2f39	-0.034468863
26	0xbe2f3430	-0.17109752
27	0x3e6aa468	0.22914279
28	0xbe4c1002	-0.19927981
29	0xbbc62f45	-0.0060481154
30	0x3e5f3080	0.21795845
31	0xbd9890bc	-0.07449481

model.encoder.nb_encoder.0.2.weight f4 [32, 32]
0	0x3da05bdd	0.078300215
1	0xbcf5216a	-0.02992316
2	0xbe1bdf18	-0.15221822
3	0x3d8122e2	0.063054815
4	0x3e4da7bf	0.20083521
5	0xbc93cfcc	-0.018043421
6	0x3de2c161	0.1107204
7	0xbb8aab3c	-0.0042318385
8	0x3df157b2	0.11784305
9	0x3e1e6e1f	0.15471695
10	0x3e5bd421	0.2146764
11	0x3e2bf245	0.16791637
12	0xbddf5adc	-0.10906002
13	0xbe0b2ded	-0.13591738
14	0x3d5397df	0.051658507
15	0xbca584fa	-0.02020501
16	0xbe0b0995	-0.13577874
17	0xbd51d0a9	-0.051224384
18	0x3de886aa	0.1135381
19	0x3de53cc9	0.111932345
20	0x3da8e8ff	0.082475655
21	0xbde135a4	-0.10996559
22	0x3e094513	0.13405256
23	0xbd854118	-0.06506556
24	0xbc8d0102	-0.017212395
25	0x3e1008df	0.14065884
26	0xbdac50fb	-0.08413883
27	0x3e1e9b38	0.15488899
28	0x3d55c806	0.05219271
29	0xbe0e4903	-0.1389504
30	0x3e2cb7e0	0.16867018
31	0x3e710aeb	0.23539321
32	0x3d37f0a7	0.04490724
33	0x3e21da4c	0.1580593
34	0xbdd12c3b	-0.102135144
35	0x3e33ba89	0.17551626
36	0xbdc8dcf8	-0.098077714
37	0x3e4a10da	0.19732991
38	0x3c27e75c	0.0102480315
39	0x3d5d9169	0.054093752
40	0x3d2cff62	0.04223574
41	0xbe157f70	-0.14599395
42	0xbdd57aea	-0.104238346
43	0xbd3a85c5	-0.04553773
44	0x3e71171a	0.23543969
45	0x3e354c69	0.1770493
46	0xbb8591f3	-0.0040762364
47	0x3e0db3c2	0.13838103
48	0xbcfc306d	-0.03078481
49	0x3d9e31b7	0.07724326
50	0xbe6e05cc	-0.23244399
51	0xbe6528fb	-0.22378914
52	0xbe2af32d	-0.16694327
53	0xbe1022c9	-0.1407577
54	0xbe84ec39	-0.25961474
55	0x3e1086b9	0.14113893
56	0x3d4c3aa7	0.049860623
57	0xbddfadcc	-0.10921821
58	0xbea5c0ea	-0.32373744
59	0xbdd555a4	-0.10416725
60	0xbda83c5d	-0.082146384
61	0x3e6317ec	0.22177094
62	0xbde5d727	-0.11222678
63	0xbe587ae3	-0.21140628
64	0xbca42f6d	-0.020042146
65	0xbe165f62	-0.14684823
66	0x3c9975cd	0.01873293
67	0xbe039fb7	-0.12853895
68	0xbdd18bf8	-0.10231775
69	0x3e09f526	0.13472423
70	0xbd913168	-0.070895016
71	0x3c436c3f	0.011927663
72	0x3dcf8d12	0.10134329
73	0xbc9c435f	-0.019075094
74	0xbe91d9f8	-0.2848661
75	0x3e0e5717	0.1390041
76	0x3e875285	0.26430145
77	0x3e3bbaed	0.18333025
78	0xbe6280f3	-0.22119503
79	0xbda03993	-0.078234814
80	0x3df09791	0.11747659
81	0xbdc94606	-0.09827809
82	0x3e1b318b	0.15155618
83	0xbf1e7cfe	-0.6190947
84	0x3d56e24d	0.05246191
85	0x3cd2fde4	0.02575583
86	0x3e07a880	0.13247871
87	0xbdba52d6	-0.09097831
88	0x3d972ca5	0.07381562
89	0xbe53359a	-0.20625916
90	0x3eb9262e	0.3616194
91	0xbd2714f9	-0.040791485
92	0x3dc3d270	0.09561622
93	0x3e4499b7	0.19199263
94	0xbef40129	-0.47657135
95	0xbe0866bf	-0.13320445
96	0xbdf09a80	-0.117482185
97	0x3db73b73	0.08946886
98	0x3de3deae	0.11126457
99	0xbbcb9518	-0.0062128417
100	0x3cf8f5ba	0.030390609
101	0x3dc450a5	0.09585694
102	0xbd8b8d3b	-0.06814047
103	0x3da044cf	0.07825624
104	0xbc4f6a89	-0.012659677
105	0x3df60a3b	0.1201367
106	0x3dd622e6	0.10455875
107	0x3e1d5a9d	0.15366597
108	0x3c852984	0.016255148
109	0xbde6ee13	-0.11275878
110	0x3d6ab1ac	0.057298347
111	0x3ac8cf5f	0.001532059
112	0xba84de77	-0.00101371
113	0x3d07016f	0.03296035
114	0xbde131ab	-0.109958015
115	0x3e398819	0.18118323
116	0xbe044bcc	-0.12919539
117	0xbea001dd	-0.31251422
118	0x3e9f4a76	0.31111497
119	0xbe0fd03e	-0.14044282
120	0x3d167674	0.03673406
121	0xbe0a5d7a	-0.13512221
122	0x3e39881c	0.18118328
123	0xbdbcb42f	-0.09214055
124	0x3d194a29	0.03742424
125	0x3e23deff	0.16003035
126	0x3e77aa31	0.24186017
127	0x3ca871a6	0.020562004
128	0x3e182244	0.14856821
129	0xbdaf41aa	-0.08557446
130	0x3e3b460f	0.18288444
131	0x3e20876c	0.1567666
132	0x3cd004ce	0.025392916
133	0xbdb424d9	-0.08796091
134	0xbe16514d	-0.14679451
135	0x3d462e5c	0.048384055
136	0xbe2debee	-0.16984531
137	0xbd8f306f	-0.0699166
138	0xbe1ca104	-0.15295798
139	0xbdc6a795	-0.096999325
140	0xbbfc8d92	-0.007707306
141	0xbc1ebcaa	-0.009688536
142	0x3e1db79f	0.15402077
143	0x3d9f08db	0.07765361
144	0xbda37942	-0.079821125
145	0x3d99b74c	0.07505664
146	0xbc22c9ea	-0.009935835
147	0x3d0010b8	0.031265944
148	0x3e05c209	0.130623
149	0xbc36eee9	-0.011165359
150	0xbcfa77d5	-0.030574718
151	0xbdff8da8	-0.12478191
152	0xbdc0722d	-0.09396777
153	0xbcb5fc27	-0.022214962
154	0x3d222a70	0.039591253
155	0xbd1423d6	-0.03616699
156	0x3ea1af5a	0.31579095
157	0xbdd23acb	-0.1026512
158	0x3dba9eb5	0.09112302
159	0x3dd91496	0.105996296
160	0x3dde329a	0.10849495
161	0xbd977dbc	-0.07397029
162	0xbd9c0156	-0.07617442
163	0x3dc0d0b8	0.0941481
164	0xbd52658b	-0.05136637
165	0xbc8f576d	-0.017497743
166	0xbd0599e5	-0.03261747
167	0xbdecebb2	-0.11568393
168	0xbd27dd0f	-0.040982302
169	0x3bb975a0	0.005659774
170	0x3db71a10	0.08940518
171	0x3db14c21	0.086570986
172	0x3d17bcda	0.037045337
173	0x3e55d5e9	0.20882381
174	0xbd8e4ad3	-0.06947865
175	0x3d23e44a	0.040012635
176	0xbdee2aaa	-0.11629231
177	0x3dcc5294	0.09976688
178	0xbe14c30f	-0.14527534
179	0xbd822ae1	-0.06355835
180	0x3df2b9c3	0.118518375
181	0x3e53fb93	0.20701437
182	0xbded6ef4	-0.11593428
183	0x3ddc3a3c	0.10753295
184	0x3e085780	0.13314629
185	0xbe1419f6	-0.14463028
186	0xbe1cd2e5	-0.15314825
187	0xbdda3988	-0.106555045
188	0x3d901970	0.07036102
189	0x3dc2df6c	0.095152706
190	0xbe9ec245	-0.3100759
191	0x3dc123a2	0.094306245
192	0x3c9453b5	0.01810632
193	0x3e3b9e49	0.183221
194	0x3dbab23a	0.09116025
195	0x3d591707	0.053000476
196	0xbe328e4b	-0.17437093
197	0x3e2d2dda	0.16912022
198	0xbdb7436d	-0.08948407
199	0x3e077394	0.13227683
200	0x3d14c59a	0.03632126
201	0x3d023e20	0.03179753
202	0xbe280892	-0.1640952
203	0x3db08c28	0.08620483
204	0x3d86d5be	0.06583737
205	0xbd240d2e	-0.04005163
206	0xbdd21d48	-0.10259491
207	0x3d696680	0.056982517
208	0xbe0da480	-0.13832283
209	0x3cb273d4	0.021783747
210	0x3d24c4a8	0.04022661
211	0xbca7ba8c	-0.020474695
212	0x3d18b220	0.03727925
213	0xbe6c0bbd	-0.23051353
214	0x3e199ecb	0.15001981
215	0x3dfef4c8	0.12449032
216	0xbe59f8c6	-0.21286306
217	0x3c8662cd	0.016404534
218	0x3e22f17b	0.1591243
219	0x3dac8d6f	0.08425414
220	0x3ebe9993	0.37226543
221	0xbcd8cfe3	-0.026466316
222	0x3dd6a642	0.1048093
223	0xbdc040a1	-0.09387327
224	0x3a943759	0.0011307999
225	0xbcbcc221	-0.023041787
226	0x3db44427	0.088020615
227	0xbddd7005	-0.10812382
228	0x3ca1b9cf	0.01974192
229	0xbdca953e	-0.09891747
230	0xbdf8a7c3	-0.12141373
231	0x3d2a5f4c	0.04159479
232	0xbde8bfe9	-0.11364729
233	0xbdc1fdec	-0.0947226
234	0xbdad8c80	-0.08474064
235	0x3d8cae95	0.068692364
236	0xbd9e231a	-0.07721539
237	0xbdca1c2c	-0.098686546
238	0x3ddae965	0.10689048
239	0xbdf647ea	-0.12025435
240	0xbdc5841f	-0.09644341
241	0xbe0e1457	-0.13874947
242	0xbd8c35b1	-0.06846178
243	0x3dc87934	0.09788743
244	0xbe32b4ac	-0.17451733
245	0xbdabd42c	-0.08390078
246	0x3e0ea9df	0.13931988
247	0xbe1b793a	-0.15182963
248	0x3d6aebc9	0.05735377
249	0xbda446ec	-0.0802134
250	0x3d41dc06	0.04732897
251	0x3e24888b	0.16067712
252	0x3db2ff97	0.08740156
253	0xbdbdeb3a	-0.092733815
254	0x3b3ecab1	0.0029112513
255	0x3a8f7b5e	0.00109468

model.encoder.nb_encoder.0.2.bias f4 [32]
0	0x3dffbaa9	0.124867745
1	0x3d433564	0.04765834
2	0x3db778cb	0.08958586
3	0x3a898320	0.0010491349
4	0xbdf28981	-0.11842633
5	0xbe2d3f7b	-0.16918747
6	0x3e6047a5	0.2190233
7	0x3d836f41	0.064177044
8	0xbae78413	-0.0017663263
9	0xbcd81aea	-0.026380021
10	0x3e1593c8	0.14607155
11	0x3c279f3b	0.010230835
12	0x3e511fe0	0.20422316
13	0x3d8d7d17	0.069086246
14	0xbd565c77	-0.052334275
15	0x3e1242b0	0.14283252
16	0x3db1cbcf	0.086814515
17	0x3c4082b0	0.011749908
18	0xbcb6a483	-0.022295242
19	0xbe0d4cc1	-0.1379881
20	0xbdfe6623	-0.12421825
21	0x3dba8427	0.09107237
22	0xbc08c794	-0.008348364
23	0x3e30aa8d	0.1725256
24	0x3d924591	0.07142175
25	0x3e525f3d	0.20544143
26	0x3e690d55	0.22758992
27	0x3e82bf63	0.2553664
28	0x3bfb1f43	0.007663639
29	0xbdbb533a	-0.091467336
30	0xbce66794	-0.028125562
31	0xbd617bba	-0.055049635
