new1/checkpoint/simulator.pth (torch, 708549 bytes, 267 tensors)

model.encoder.eb_encoder.0.0.weight f4 [32, 10]
0	0x3d76eafb	0.06028269
1	0x3e821ff2	0.25414997
2	0xbdcd1188	-0.100131094
3	0x3b608b59	0.0034262745
4	0x3e3a8273	0.18213825
5	0xbd77dfd8	-0.06051621
6	0x3e2366a7	0.15957128
7	0xbd873f4f	-0.06603872
8	0xbf353f38	-0.7079959
9	0x3da4684f	0.08027708
10	0x3e29564b	0.16536824
11	0xbe87aafd	-0.2649764
12	0x3e3b57ff	0.18295287
13	0x3c214c2f	0.009844824
14	0xbe306d9b	-0.17229311
15	0x3dd712b5	0.10501615
16	0x3dc8b7fb	0.098007165
17	0x3e8fbeb2	0.28075176
18	0x3edbdad6	0.42940396
19	0x3de13ef5	0.10998336
20	0xbe04860b	-0.12941758
21	0xbe8d3d5a	-0.2758587
22	0xbe2a1d56	-0.16612753
23	0xbb8e060e	-0.004334218
24	0x3d873585	0.06602005
25	0x3e251205	0.16120155
26	0x3d154f01	0.036452297
27	0xbe066eac	-0.13128155
28	0x3da80dcd	0.08205757
29	0xbd94cda4	-0.07265785
30	0xbeac4c36	-0.33651894
31	0x3e6a1e0f	0.22863029
32	0x3daa9cbe	0.083306774
33	0xbe1ed332	-0.15510252
34	0xbe82ffb5	-0.25585714
35	0xbda155b0	-0.07877672
36	0xbe73b17f	-0.23798178
37	0x3e811057	0.2520778
38	0xbeeedd2a	-0.4665311
39	0xbcbc4dfc	-0.022986405
40	0x3e090f06	0.13384637
41	0x3e3bbf7a	0.18334761
42	0x3e5101e3	0.20410876
43	0x3d65329f	0.05595648
44	0xbe737c2b	-0.23777835
45	0x3c6d939d	0.014500526
46	0x3d5d3e5c	0.05401455
47	0x3c8e0193	0.017334735
48	0xbf307bd6	-0.6893896
49	0x3c4d5fd9	0.012535059
50	0xbd759aeb	-0.059962194
51	0xbb9e8b72	-0.0048384005
52	0xbdd6291b	-0.10457059
53	0xbdba2462	-0.09088971
54	0xbd53d7cd	-0.051719476
55	0xbdcc2193	-0.09967341
56	0xbe22a2aa	-0.15882364
57	0xbca7b90d	-0.020473981
58	0x3f1f06cc	0.62119746
59	0xbb9f01d0	-0.004852511
60	0x3c84bf62	0.01620454
61	0xbe362ac3	-0.1778975
62	0xbe5dfae5	-0.2167774
63	0x3dd3823e	0.10327576
64	0xbea2f863	-0.3183013
65	0x3dded0bb	0.10879656
66	0xbea63300	-0.32460785
67	0x3e2c9a69	0.16855778
68	0x3f101129	0.56276184
69	0xbe311351	-0.17292525
70	0xbd0b0493	-0.03393991
71	0x3ddcd82a	0.107834175
72	0xbe1cbe44	-0.15306956
73	0xbe3d3926	-0.18478832
74	0x3df4fcf6	0.11962311
75	0xbe791b18	-0.24326742
76	0x3ced824e	0.028992798
77	0x3d20810d	0.039185572
78	0xbf0d1d4a	-0.55122817
79	0x3df1e2f5	0.11810867
80	0xbe5012d6	-0.20319685
81	0x3c3a5863	0.011373612
82	0x3e56b3d9	0.20967044
83	0xbe3bf992	-0.18356922
84	0xbc2335c8	-0.009961553
85	0x3de5edc8	0.11226994
86	0x39c615d7	0.00037781775
87	0x3e33fb98	0.17576444
88	0xbf08aacf	-0.53385633
89	0x3c31f4b9	0.010861569
90	0xbdc94e40	-0.09829378
91	0x3be2350a	0.0069032954
92	0x3e034756	0.12820181
93	0x3d292eac	0.041304275
94	0xbe1a6e9c	-0.15081257
95	0xbe1ff86f	-0.15622114
96	0x38935ea7	7.0271366e-05
97	0x3e940cc7	0.28915998
98	0xbf3f3f13	-0.7470562
99	0xbc389654	-0.01126631
100	0xbe545281	-0.20734598
101	0xbe17bbc7	-0.14817725
102	0xbd88257a	-0.06647773
103	0xbe644887	-0.22293292
104	0x3d5ed304	0.05440046
105	0xbe47d685	-0.19515426
106	0xbde8ded3	-0.11370625
107	0x3e0557cc	0.13021773
108	0xbf018029	-0.5058618
109	0xbdfe6427	-0.12421446
110	0x3e34ed3a	0.1766862
111	0x3e938418	0.28811717
112	0xbe1e88d3	-0.15481882
113	0x3e3882d9	0.18018664
114	0x3d9a730f	0.07541477
115	0x3d87bd9d	0.06627963
116	0x3d8dda87	0.069264464
117	0x3e9ea034	0.309816
118	0x3e03b122	0.1286054
119	0xbe60ff86	-0.21972474
120	0x3d6e15b4	0.058126166
121	0x3e6a546d	0.22883768
122	0xbe23d7eb	-0.16000335
123	0x3dd0c64f	0.10194074
124	0xbe89a82d	-0.2688612
125	0x3e3970d6	0.1810945
126	0xbe57168e	-0.21004698
127	0x3e892258	0.26784015
128	0x3e04fa29	0.12986054
129	0xbe232dba	-0.15935412
130	0xbde22133	-0.110414885
131	0x3d856f27	0.06515341
132	0xbdf46d3e	-0.11934899
133	0x3e16b1e1	0.14716293
134	0x3d2d190b	0.04226021
135	0x3e2ebdd7	0.17064606
136	0x3d69c6ee	0.05707448
137	0x3d41f03f	0.047348257
138	0x3f1db707	0.616074
139	0x3d46231c	0.048373327
140	0x3c3e1cb9	0.011603528
141	0x3e7085b4	0.23488504
142	0xbe2e2cdd	-0.17009301
143	0xbdbe9b48	-0.09306961
144	0x3e3358eb	0.17514388
145	0x3d8cf7a5	0.06883172
146	0x3d8c8511	0.06861318
147	0x3e14f792	0.14547566
148	0xbf0b5d9b	-0.54439706
149	0x3e490612	0.19631222
150	0x3c22c072	0.009933578
151	0x3e761477	0.24031244
152	0xbd47686e	-0.048683576
153	0xbe831a5e	-0.25606054
154	0xbdf45064	-0.11929396
155	0xbe17f562	-0.148397
156	0x3dd7b640	0.10532808
157	0xbe8648d1	-0.2622743
158	0x3e576165	0.21033247
159	0xbd3f31c4	-0.04667832
160	0x3e71b4a3	0.23604064
161	0x3e64bf18	0.22338521
162	0xbe1ec66a	-0.15505376
163	0xbe81172f	-0.25213
164	0xbce4caff	-0.027928827
165	0xbe1dc41e	-0.15406844
166	0xbe25199c	-0.1612305
167	0x3d1e5619	0.038656328
168	0x3f333a8a	0.700112
169	0x3dfbb119	0.12289638
170	0x3e394ac7	0.18094932
171	0xbe408846	-0.18801984
172	0xbc3fca42	-0.011705937
173	0xbdc592f2	-0.09647168
174	0x3e47924f	0.19489406
175	0xbe2dd7ce	-0.16976854
176	0xbe1fefab	-0.1561877
177	0x3e7c228d	0.24622555
178	0xbf3387ca	-0.7012907
179	0xbd9d147f	-0.07669925
180	0x3eaba07a	0.3352087
181	0xbe036f3a	-0.12835398
182	0xbe3ad8e7	-0.18246804
183	0xbd64c408	-0.055851012
184	0xbdce8154	-0.10083261
185	0x3e390c04	0.1807099
186	0xbe1a998c	-0.15097636
187	0x3e0db0d1	0.13836981
188	0xbed060a8	-0.40698743
189	0xbcb9c908	-0.022678867
190	0xbe95ae4f	-0.2923455
191	0xbeaea3c3	-0.34109315
192	0x3e42773b	0.18990795
193	0xbe50440b	-0.20338456
194	0xbd7b8b49	-0.06141213
195	0xbc19cada	-0.0093867425
196	0xbd43027f	-0.047609802
197	0xbe81b633	-0.2533432
198	0xbd5f1993	-0.05446775
199	0x3e6c0080	0.23047066
200	0xbe1d07b5	-0.15334971
201	0xbeeb1fe7	-0.45922777
202	0xbe4036d9	-0.18770923
203	0x3ea51e9e	0.32249922
204	0x3e94ab48	0.29036927
205	0x3e6826ae	0.22671005
206	0xbddfa6a7	-0.10920458
207	0x3db98968	0.09059411
208	0x3e34ee20	0.17668962
209	0x36ae2b55	5.1906486e-06
210	0xbe7bcaa7	-0.24589024
211	0x3e8ec2a1	0.27882865
212	0xbcc0cba1	-0.023534598
213	0x3c0bb6b2	0.008527445
214	0xbd882a14	-0.06648651
215	0xbdf74d3b	-0.120752774
216	0xbcf6ff98	-0.030151173
217	0x3e932dd8	0.28745914
218	0x3f3d5283	0.7395403
219	0xbcbfd184	-0.023415335
220	0xbdc0de5f	-0.09417414
221	0x3d8a075f	0.06739687
222	0x3b138c1d	0.0022513934
223	0xbb92d60c	-0.004481083
224	0xbe312831	-0.17300488
225	0x3e38205e	0.17981097
226	0x3e412829	0.18862976
227	0x3e1b2d88	0.15154088
228	0xbf216f4e	-0.6306046
229	0x3dbc5991	0.09196771
230	0xbe51de88	-0.20495045
231	0x3e1afa15	0.15134461
232	0x3d8d6544	0.069040805
233	0x3e5dc36d	0.2165658
234	0x3d2a2024	0.041534558
235	0x3e64af57	0.22332512
236	0xbe352144	-0.17688471
237	0x3e947a73	0.2899967
238	0xbf0216be	-0.5081595
239	0x3d8250e6	0.063630864
240	0xbddd8cc7	-0.10817867
241	0x3d123ac0	0.03570056
242	0x3dc9676e	0.09834181
243	0xbda79c07	-0.08184057
244	0xbc540e72	-0.012942897
245	0x3cebf389	0.02880265
246	0x3d51a0b5	0.051178653
247	0x3e14c16c	0.1452691
248	0x3eef365a	0.46721154
249	0x3b6a5ae0	0.0035759732
250	0x3e15ffa3	0.14648299
251	0xbe770bab	-0.24125545
252	0x3d990394	0.074713856
253	0xbce3158a	-0.027720232
254	0x3e821a8a	0.25410873
255	0xbda48a95	-0.08034245

model.encoder.eb_encoder.0.0.bias f4 [32]
0	0x3db0ede8	0.08639127
1	0xbed3bf01	-0.41356662
2	0xbe287adc	-0.16453117
3	0x3e552557	0.20815025
4	0xbe59c8f2	-0.21268061
5	0x3e5b1341	0.21394064
6	0xbe946f41	-0.2899113
7	0xbdcc1663	-0.099652074
8	0x3da9e6bf	0.082959644
9	0xbe99ab63	-0.3001357
10	0x3e217589	0.15767492
11	0x3e19cd3a	0.15019694
12	0xbd26913b	-0.040665846
13	0x3cab1891	0.020885738
14	0x3bd1b25f	0.0063994373
15	0x3d49f8d3	0.049309563
16	0xbd35a745	-0.044348974
17	0x39eadfa0	0.00044798572
18	0xbe8822a2	-0.26588923
19	0x3dbd61d4	0.09247175
20	0xbe56a91f	-0.20962952
21	0xbdb30c61	-0.087425955
22	0x3e540422	0.20704702
23	0xbd3fe308	-0.046847373
24	0xbdb0b383	-0.08627989
25	0xbe0162a3	-0.12635283
26	0x3ddacfa3	0.10684135
27	0x3db8dfaa	0.090270355
28	0xbe5c6750	-0.21523786
29	0x3ee22ed5	0.44176355
30	0x3eb869a2	0.3601809
31	0x3dd5666c	0.10419926

model.encoder.eb_encoder.0.2.weight f4 [32, 32]
0	0x3d580920	0.052743077
1	0x3d2e0096	0.042481028
2	0xbd99d6f1	-0.075117
3	0xbdd42bfb	-0.10359951
4	0xbe668523	-0.22511725
5	0x3e27fcde	0.16405055
6	0x3d3f6f44	0.04673697
7	0xbe06d235	-0.13166125
8	0x3dac2028	0.08404571
9	0x3e0229ca	0.12711254
10	0x3dcc37f9	0.099716134
11	0xbd7bfe5a	-0.061521865
12	0x3dccfff7	0.10009759
13	0xbc18a837	-0.009317449
14	0xbddaa0c2	-0.10675193
15	0x3d560281	0.05224848
16	0x3e27771f	0.16354035
17	0x3b855aea	0.0040696757
18	0x3dc49e36	0.09600489
19	0x3dde3e90	0.108517766
20	0xbef075bd	-0.46964827
21	0xbdccb08c	-0.09994611
22	0x3dfd23ed	0.12360368
23	0x3d5500f1	0.05200285
24	0xbda98330	-0.08276975
25	0x3e0bc322	0.13648656
26	0xbdf2eeea	-0.118619755
27	0xbdefc028	-0.11706573
28	0xbd810eed	-0.06301675
29	0x3e8ca127	0.274667
30	0x3edae04e	0.42749256
31	0xbdaf8648	-0.08570534
32	0x3c99c042	0.018768433
33	0x3e26d4c6	0.16292104
34	0x3d6f7683	0.05846263
35	0xbe03a051	-0.12854125
36	0x3da63c20	0.08116937
37	0xbe11382e	-0.14181587
38	0xbd3ee35b	-0.04660354
39	0xbc9a5c2d	-0.018842781
40	0xbe667952	-0.22507218
41	0xbe185f4a	-0.148801
42	0xbcdf3d27	-0.02725084
43	0x3dd91e55	0.106014885
44	0xbd6c35a1	-0.057668332
45	0xbd49155c	-0.049092636
46	0xbcdfdd54	-0.027327217
47	0x3d064747	0.03278282
48	0x3de1f1ef	0.11032473
49	0x3d8e6c56	0.06954257
50	0x3ea652dd	0.32485095
51	0xbdd0e756	-0.10200374
52	0xbeb6f0f4	-0.35730708
53	0xbd6036ff	-0.05473995
54	0xbd6f3067	-0.05839577
55	0x3d0a886d	0.033821512
56	0xbe93d997	-0.28876945
57	0xbcdb18f6	-0.0267453
58	0x3d186a22	0.03721059
59	0x3d0af545	0.033925314
60	0x3e0062cf	0.12537692
61	0x3d6a0f4f	0.057143506
62	0x3d86bf4d	0.065794565
63	0xbda06957	-0.07832592
64	0xbcdafd7f	-0.026732204
65	0x3d2c7075	0.042099435
66	0xbd5a45f1	-0.053289358
67	0x3c92a1c8	0.017899409
68	0x3d6a8f27	0.057265427
69	0x3d0e6996	0.034768663
70	0xbeac6bd6	-0.33676022
71	0x3dadea85	0.08491997
72	0xbc93e79c	-0.018054776
73	0xbd8ea3be	-0.06964825
74	0xbb990325	-0.0046695643
75	0xbdc929af	-0.09822404
76	0x3cf6e850	0.030140072
77	0xbded7108	-0.115938246
78	0x3db3d0f1	0.08780087
79	0x3cda3124	0.02663476
80	0xbe12c058	-0.14331186
81	0x3c805e45	0.015669951
82	0xbd47c987	-0.048776176
83	0x3e0a7afa	0.13523474
84	0x3ea505b6	0.3223092
85	0xbea90086	-0.33008212
86	0xbd9ff5c5	-0.07810549
87	0xbd1147d3	-0.035468888
88	0xbf29551a	-0.6614548
89	0x3cad6d49	0.021170275
90	0x3d5b69b3	0.0535676
91	0x3e10da3d	0.14145751
92	0xbbf2c0e9	-0.0074082506
93	0xbe3b4071	-0.18286301
94	0x3f1887fe	0.5958251
95	0xbe002feb	-0.12518279
96	0x3dfc355e	0.123148665
97	0xbdb5995e	-0.08867143
98	0x3e2b5d9c	0.16734928
99	0xbe6e1880	-0.23251534
100	0x3e1f1bea	0.15537992
101	0x3e5146d0	0.20437169
102	0x3cf5f6ce	0.030024912
103	0xbe5fb947	-0.21848021
104	0x3c7aadbe	0.015300212
105	0xbdbf3718	-0.0933668
106	0x3f28c4df	0.659254
107	0xbd2088b1	-0.03919286
108	0xbd884aeb	-0.066549145
109	0xbb53f445	-0.003234164
110	0xbcaf843d	-0.02142536
111	0xbe37cdce	-0.17949602
112	0x3d6eec7e	0.058331005
113	0xbe0c8c9f	-0.13725518
114	0x3b671c6f	0.003526475
115	0xbe558d74	-0.20854741
116	0xbe4c96b6	-0.19979367
117	0xbdccbf90	-0.09997475
118	0x3ccf10bd	0.025276536
119	0x3df85b6f	0.121268146
120	0xbc86cd56	-0.016455334
121	0x3d9ea513	0.07746329
122	0x3e5cd4c7	0.21565543
123	0xbe35e94c	-0.17764777
124	0x3d0265c0	0.031835318
125	0x3e09978d	0.13436718
126	0x3c36e5e5	0.01116321
127	0x3d429b94	0.047511652
128	0xbcbe5967	-0.02323599
129	0x3a2dc849	0.0006629271
130	0xbd93a0fd	-0.072084405
131	0xbe099e3c	-0.13439268
132	0xbcf6fe1d	-0.030150468
133	0xbf1b81fd	-0.6074522
134	0x3d43373b	0.047660094
135	0x3dde811c	0.108644694
136	0x3e7f2369	0.24915852
137	0x3e798c05	0.2436982
138	0x3d32fc39	0.04369757
139	0x3e1a94f0	0.15095878
140	0xbbf32692	-0.0074203694
141	0x3d9be0c9	0.07611234
142	0x3d984839	0.074356504
143	0x3d83b29e	0.06430553
144	0xbb966418	-0.004589569
145	0x3daa0dff	0.08303451
146	0xbe265a40	-0.16245365
147	0xbddf8ea6	-0.1091588
148	0x3ebc8e66	0.3682739
149	0xbe635466	-0.22200164
150	0x3e42da23	0.19028525
151	0x3e55cbb8	0.20878494
152	0xbdc416cb	-0.0957466
153	0xbe15153a	-0.14558879
154	0xbe0f3056	-0.13983282
155	0xbdeeb3c2	-0.1165538
156	0xbd528387	-0.051394965
157	0xbcad8729	-0.021182613
158	0x3deda6f0	0.116041064
159	0xbe0b2de3	-0.13591723
160	0x3d3e50f2	0.046463914
161	0xbde391a0	-0.1111176
162	0xbd519585	-0.051167984
163	0x3e2305bd	0.15920158
164	0xbe1c44b7	-0.15260588
165	0x3d9b94fe	0.075967774
166	0x3e09f682	0.13472942
167	0xbd32c4b4	-0.043644622
168	0x3e3485d1	0.17629172
169	0x3e15e523	0.1463819
170	0x3d9e8f69	0.07742197
171	0xbe3befce	-0.18353197
172	0x3c6ae9bf	0.014337956
173	0x3ebbee0a	0.36705047
174	0xbe2d5c5e	-0.16929767
175	0xbc08f667	-0.008359528
176	0x3dd6fc78	0.10497373
177	0xbd32223e	-0.043489687
178	0x3deed8ac	0.11662421
179	0x3d887bb9	0.06664223
180	0xbdf77f80	-0.120848656
181	0xbdda14a7	-0.1064847
182	0x3c1eaa56	0.009684166
183	0x3db0ccea	0.08632834
184	0xbe3af410	-0.18257165
185	0xbd573c54	-0.052547768
186	0x3e1e82e7	0.15479623
187	0xbdd92ea8	-0.10604602
188	0x3e3a9ba9	0.18223442
189	0x3e6af909	0.22946562
190	0x3d81f9f0	0.063465
191	0x3d75f6bc	0.060049757
192	0xbddeaab6	-0.10872404
193	0xbbbe986e	-0.005816511
194	0xbd53533a	-0.051593043
195	0xbd3070dc	-0.04307638
196	0xbe092881	-0.13394357
197	0x3d0330f9	0.032029126
198	0xbe44738d	-0.19184704
199	0x3d807154	0.062716156
200	0x3e025162	0.12726358
201	0xba9eb376	-0.0012107927
202	0xbdfcc134	-0.12341538
203	0xbdc0d449	-0.0941549
204	0x3d970f5f	0.07375979
205	0xbe1422ca	-0.14466396
206	0x3dcbbf14	0.09948555
207	0x3e43c66e	0.19118664
208	0xbda61381	-0.08109189
209	0x3e235199	0.15949096
210	0x3ce5d7af	0.028056948
211	0x3d1016e2	0.035178073
212	0x3f4cae93	0.7995388
213	0x3d9170fa	0.07101627
214	0x3e25ba20	0.16184282
215	0xbe3b5089	-0.1829244
216	0x3db6c686	0.08924584
217	0x3e099735	0.13436587
218	0x3c6c5ed6	0.0144269075
219	0x3dbf7e91	0.093503125
220	0x3dbdf77b	0.09275719
221	0xbe2b9241	-0.1675501
222	0xbf09a460	-0.5376644
223	0xbc45a70c	-0.012063753
224	0xbe084b30	-0.13309932
225	0xbd97aef8	-0.074064195
226	0xbe04ec51	-0.12980773
227	0x3b7b2131	0.0038319344
228	0xbe307420	-0.17231798
229	0x3d139b6d	0.036036897
230	0x3c5a1868	0.013311483
231	0xbc3a28a4	-0.011362229
232	0x3d7d5134	0.06184502
233	0x3db24fc8	0.08706623
234	0xbc84550f	-0.01615384
235	0x3e4d5073	0.2005022
236	0xbd9b84c0	-0.075936794
237	0xbd3ce9f0	-0.046121538
238	0xbd2523bd	-0.040317286
239	0xbd857002	-0.065155044
240	0x3e3b1de7	0.18273126
241	0xbe313b70	-0.1730783
242	0x3cd3d072	0.02585623
243	0xbe040a29	-0.12894501
244	0xbda6b12e	-0.08139263
245	0x3e0574e8	0.13032877
246	0xbccf3061	-0.025291624
247	0x3bc2e0df	0.005947217
248	0x3d9a6d8b	0.07540425
249	0x3e557618	0.2084583
250	0x3c69faa9	0.014280953
251	0xbc7d27c9	-0.01545138
252	0x3de0ea79	0.10982222
253	0x3d22e5c9	0.03976992
254	0xbf379674	-0.7171395
255	0x3e1db263	0.1540008

model.encoder.eb_encoder.0.2.bias f4 [32]
0	0xbdd933cc	-0.106055826
1	0xbe2aa504	-0.16664511
2	0x3d20a47b	0.03921936
3	0xbd55fd1a	-0.05224333
4	0xbe509f1e	-0.20373198
5	0x3d16b7fb	0.03679655
6	0xbd924666	-0.07142334
7	0xbb9ec54f	-0.0048452984
8	0xbe0126f6	-0.12612519
9	0xbdddc166	-0.108279034
10	0xbd815242	-0.063145176
11	0xbd1341de	-0.035951488
12	0xbe13210f	-0.1436808
13	0x3d9ecbdd	0.077537276
14	0x3d591cbc	0.05300592
15	0xbdc26903	-0.09492686
16	0xbe14d32c	-0.1453368
17	0xbdbabbdd	-0.09117863
18	0xbc3adcb3	-0.011405158
19	0x3d043ad1	0.032282654
20	0x3d957947	0.072985224
21	0x3e87c95e	0.26520818
22	0x3e2170ff	0.15765761
23	0x3de23c5a	0.110466674
24	0x3e37c043	0.17944436
25	0x3dc29801	0.09501649
26	0x3db62264	0.08893278
27	0xba0461bc	-0.0005049964
28	0x39105f7f	0.00013768485
29	0xbcd7126e	-0.026253905
30	0xbd9f1b09	-0.077688284
31	0xbde8a974	-0.113604456

model.encoder.eb_encoder.0.4.weight f4 [32, 32]
0	0xbe0b81a5	-0.13623674
1	0x3df40a17	0.11915987
2	0xbea11e36	-0.31468362
3	0x38f0ac85	0.00011476226
4	0x3e00de6d	0.12584849
5	0xbe263110	-0.16229653
6	0xbd98955b	-0.07450362
7	0xbe2e65c6	-0.17031011
8	0x3d685ba4	0.05672802
9	0x3d8ee744	0.06977704
10	0x3db6a228	0.089176476
11	0xbe27f607	-0.16402446
12	0x3b073167	0.0020628811
13	0x3cdc43d4	0.026887812
14	0x3e3baad3	0.18326883
15	0xbdda6065	-0.10662917
16	0x3c0ddcda	0.008658612
17	0x3e078f0f	0.13238166
18	0xbdab0672	-0.08350839
19	0xbe01948b	-0.12654321
20	0x3d3f238b	0.046664756
21	0xbe03fe94	-0.12890083
22	0x3d832e78	0.064053476
23	0x3dd60c3f	0.104515545
24	0x3e022ffc	0.12713617
25	0x3e0abd64	0.1354881
26	0x3e438377	0.19093119
27	0x3d383ab8	0.044977874
28	0x3e0b8d9d	0.1362824
29	0xbe264327	-0.16236554
30	0xbd7d7503	-0.06187917
31	0xbcaf08ea	-0.021366555
32	0xbde7b62d	-0.11314044
33	0x3b9d4a9d	0.0048001544
34	0xbe48aa27	-0.19596158
35	0xbe15d094	-0.14630347
36	0xbe756a8f	-0.2396643
37	0x3db07558	0.086161315
38	0x3d832ae2	0.064046636
39	0xbd484b01	-0.048899654
40	0xbe27b0ce	-0.1637604
41	0xbd8cabac	-0.06868681
42	0xbe08f3d3	-0.13374262
43	0xbe2fb16c	-0.17157525
44	0x3e0f0f51	0.13970686
45	0xbe3235c8	-0.17403328
46	0xbdb6a87e	-0.08918856
47	0x3dea7e9f	0.11449932
48	0x3e0e4672	0.1389406
49	0xbe0ba31f	-0.13636445
50	0x3cb71a1d	0.022351319
51	0x3dd0e1ea	0.1019934
52	0x3ddcbb58	0.107779205
53	0xbdf06ebf	-0.11739873
54	0x3d022ad0	0.03177911
55	0xbdfc8d4a	-0.12331636
56	0x3e3cf3a4	0.18452317
57	0x3e049b07	0.12949763
58	0xbd91113c	-0.07083365
59	0xbd42c5dd	-0.04755198
60	0x3d7c73e5	0.061633963
61	0xbda6b29b	-0.08139535
62	0x3d1f0ae6	0.038828753
63	0xbe4e66df	-0.2015643
64	0x3c080b31	0.0083034495
65	0xbc4cab4d	-0.012492013
66	0xbeaffe58	-0.34373736
67	0xbcb25bb7	-0.021772249
68	0x3e08cace	0.13358614
69	0x3df7d1c6	0.12100558
70	0x3d66161c	0.05617343
71	0x3e1df072	0.15423754
72	0x3e474fa8	0.1946398
73	0xbd8097a4	-0.06278923
74	0xbdbb7d23	-0.09154727
75	0xbde220c9	-0.110414095
76	0x3d20c7d0	0.039253056
77	0xbc9b5aff	-0.018964289
78	0x3de1c546	0.11023955
79	0x3d8a7ba8	0.06761867
80	0x3d9f7409	0.07785804
81	0x3dba32f6	0.09091751
82	0xbaa921e1	-0.0012903773
83	0xbd3b7804	-0.045768753
84	0xbc9f609e	-0.01945525
85	0x3e1683ae	0.1469867
86	0xbba5bfb3	-0.0050582527
87	0x3dea2e59	0.11434621
88	0x3db672fe	0.08908652
89	0xbdc0ce15	-0.09414307
90	0xbe939a05	-0.28828445
91	0x3d0468e6	0.0323266
92	0xbe07d45f	-0.13264607
93	0x3d77970b	0.06044678
94	0xbe01b2bc	-0.12665838
95	0xbde26dcc	-0.11056098
96	0xbb942a07	-0.0045216116
97	0xbbff4e3f	-0.00779131
98	0x3e4f22ef	0.2022817
99	0x3d8c4eca	0.06850965
100	0x3dbedf21	0.09319902
101	0x3e69ef10	0.22845101
102	0xbc755d9a	-0.01497593
103	0x3e48e97b	0.19620316
104	0xbe3824d1	-0.17982794
105	0xbe0e9f2d	-0.13927908
106	0xbbb82913	-0.005620131
107	0xbe334f62	-0.17510751
108	0xbda677c8	-0.08128315
109	0xbdb2253b	-0.086985074
110	0xbd6aeb36	-0.05735322
111	0xbe6dc50c	-0.23219699
112	0xbe064a75	-0.1311434
113	0x3e09638d	0.13416882
114	0x3df1eb5e	0.11812471
115	0x3e1a758f	0.15083908
116	0x3dc3b29d	0.09555552
117	0xbd8ae28d	-0.067814924
118	0x3dd5cffb	0.1044006
119	0xbe63ac37	-0.22233663
120	0xbe03263a	-0.12807551
121	0x3ed5312c	0.41639078
122	0xbe2f8de1	-0.17143966
123	0x3dc9ac5f	0.0984733
124	0x3e248f7c	0.1607036
125	0xbcc9165d	-0.024546796
126	0x3c904cd5	0.017614761
127	0x3f466dc3	0.77511233
128	0x3dc86675	0.09785167
129	0x3d8895bc	0.066691846
130	0x3eba34ee	0.36368507
131	0x3d954ad1	0.07289661
132	0xbd8d9ec2	-0.06915046
133	0xbdcd4014	-0.100219876
134	0x3cfb4dd4	0.03067676
135	0x3e3e51e9	0.18585934
136	0xba84ea10	-0.0010140557
137	0x3dcbb155	0.09945933
138	0xbe0cbc65	-0.13743742
139	0xba7b1fd7	-0.00095796346
140	0xbdd4eb8f	-0.10396492
141	0xbe12054c	-0.14259833
142	0xbe386d08	-0.18010342
143	0x3c8a3f99	0.016876029
144	0x3db1ddad	0.086848594
145	0x3d2fb2f9	0.04289529
146	0x3e28c0dc	0.1647982
147	0x3e6a6232	0.22889021
148	0xbdc8adce	-0.097987756
149	0x3de89c2f	0.11357915
150	0x3dd9394e	0.10606633
151	0xbd1ea7fa	-0.038734414
152	0x3e597629	0.21236481
153	0xbe4160a0	-0.18884516
154	0x3d9b2137	0.075746946
155	0x3d9aaad6	0.075521156
156	0x3c63a292	0.01389374
157	0x3e3061ab	0.17224757
158	0x3ded8ff2	0.11599721
159	0xbdd010d4	-0.1015946
160	0xbd8e5550	-0.06949866
161	0x3bd158df	0.006388768
162	0x3e81382b	0.25238165
163	0x3cbad558	0.022806808
164	0x3ea169e8	0.31526113
165	0x3da65a7c	0.08122727
166	0xbd026284	-0.031832233
167	0x3d94a245	0.07257513
168	0xbd951a52	-0.07280411
169	0xbc802552	-0.015642796
170	0xbd5d6c75	-0.05405851
171	0xbe1b1154	-0.15143329
172	0xbc0cd0d2	-0.0085947085
173	0x3eaf6fd6	0.34265012
174	0xbd78278e	-0.060584597
175	0xbe7344f5	-0.23756774
176	0xbe0689a2	-0.1313844
177	0xbe1868d2	-0.14883736
178	0x3d01998a	0.031640567
179	0x3cd450ed	0.025917495
180	0x3c595f0c	0.01326729
181	0x3d7b7aa1	0.061396245
182	0xbd13455b	-0.035954814
183	0xbded1628	-0.115764916
184	0x3dcf4b0f	0.10121738
185	0xbc9faa98	-0.019490525
186	0x3d938edf	0.07204985
187	0xbe1510e2	-0.14557222
188	0xbe1e0696	-0.154322
189	0xbdf8c909	-0.121477194
190	0xbe29614d	-0.16541024
191	0x3edd2728	0.43193936
192	0xbcd36380	-0.025804281
193	0xbd7671cc	-0.06016712
194	0x3e1c5f63	0.15270762
195	0x3b1998bf	0.002343699
196	0xbe1bb505	-0.15205772
197	0xbe8cef40	-0.27526283
198	0xbcc7e59a	-0.024401475
199	0xbbf0218e	-0.007328219
200	0xbe8c93d1	-0.27456525
201	0x3e0c1566	0.13680038
202	0xbd3095d1	-0.043111626
203	0xbd0d88b1	-0.034554187
204	0x3cbf3da6	0.023344826
205	0x3ee62283	0.44948205
206	0x3cdcb657	0.026942415
207	0xbdeb1523	-0.11478641
208	0x3d9a0c3a	0.07521863
209	0xbe14d173	-0.14533024
210	0x3dd93fb3	0.10607853
211	0x3d8a2b70	0.06746566
212	0x3d84fcfb	0.06493565
213	0x3e0367ef	0.12832616
214	0xbe6f4a1e	-0.23368117
215	0xbe456bf7	-0.19279467
216	0x3dab5ee7	0.083677106
217	0xbdd85e41	-0.105648525
218	0x3d90e29d	0.07074473
219	0xbbe59382	-0.0070061097
220	0x3e192555	0.14955647
221	0xbd9b98de	-0.075975165
222	0x3d6b7add	0.05749022
223	0xbbe89d93	-0.0070988624
224	0xbc1438d9	-0.009046757
225	0xbd8ffff4	-0.07031241
226	0xbe881441	-0.26577953
227	0x3d649c88	0.055813342
228	0xbc4a62f4	-0.012352694
229	0x3c970be7	0.018438293
230	0xbd9ae18b	-0.0756255
231	0x3dd3ca5c	0.10341331
232	0x3bfef6af	0.007780872
233	0x3c65fee1	0.014037819
234	0xbac5e1db	-0.0015097217
235	0x3e1495cb	0.14510266
236	0x3d873903	0.06602671
237	0xbe302b5a	-0.17204037
238	0x3d87f23c	0.066379994
239	0x3e177f15	0.14794572
240	0xbd79f14c	-0.061021134
241	0x3ce68d46	0.028143536
242	0x3ced58bd	0.028972978
243	0xbe2b9444	-0.16755778
244	0xbdccd39b	-0.10001298
245	0xbb5959f4	-0.0033165189
246	0xbc4bdbe5	-0.012442564
247	0x3dd61396	0.104529545
248	0xbdd8a26b	-0.10577854
249	0xbdc13d15	-0.094354786
250	0xbe1ee880	-0.15518379
251	0xbd31a107	-0.04336646
252	0x3def606b	0.11688312
253	0xbd960abd	-0.07326267
254	0x3d7ea7d2	0.062171765
255	0x3e715bf1	0.23570229

model.encoder.eb_encoder.0.4.bias f4 [32]
0	0x3d6a0af6	0.05713936
1	0xbd0b26f6	-0.033972703
2	0xbd9eefe1	-0.07760597
3	0x3db03b45	0.08605055
4	0xbe533e90	-0.20629334
5	0x3e7d983c	0.24765104
6	0x3ddcdd65	0.10784415
7	0xbe3f3e46	-0.18676099
8	0xbe2f2927	-0.17105542
9	0xbe108180	-0.141119
10	0xbe5ab40d	-0.21357746
11	0x3e783de0	0.24242353
12	0xbdf6ee29	-0.12057144
13	0xbe0e52c8	-0.13898766
14	0xbcffb167	-0.031212522
15	0x3e5fd6e3	0.21859317
16	0x3d8f4210	0.06995022
17	0xbd691971	-0.05690903
18	0xbd5e1d89	-0.054227386
19	0xbe046ed5	-0.12932904
20	0x3e41f2f7	0.1894034
21	0x3e25910a	0.1616861
22	0xbe35e6bc	-0.177638
23	0xbe56240d	-0.2091219
24	0x3d3f7835	0.046745498
25	0xbe517615	-0.20455201
26	0xbd8e87b2	-0.069594756
27	0x3d17efd7	0.037093963
28	0x3bce8887	0.0063028964
29	0xbe11b7c6	-0.1423026
30	0x3e2cf01a	0.16888466
31	0xbd0e039c	-0.03467141

model.encoder.eb_encoder.0.6.weight f4 [32, 32]
0	0x3e1f4fce	0.15557787
1	0x3e3c526d	0.18390818
2	0xbdff7a43	-0.124744914
3	0xbe1ace82	-0.15117839
4	0xbe339a7a	-0.17539397
5	0xbe71d8ec	-0.23617905
6	0x3e0684bb	0.1313657
7	0xbca7ad28	-0.02046831
8	0x3e5f8824	0.21829277
9	0x3e7f7a3b	0.24948971
10	0xbde596e4	-0.11210421
11	0xbdf8ee9c	-0.12154886
12	0xbe2ab095	-0.16668923
13	0xbe139251	-0.14411284
14	0x3db2d916	0.08732812
15	0xbe176f6b	-0.14788596
16	0x3e2e85b1	0.17043187
17	0x3e0d095b	0.137731
18	0xbdca92aa	-0.09891255
19	0x3b9dd4bd	0.00481662
20	0xbe300257	-0.17188393
21	0x3d410a97	0.04712924
22	0x3e25b635	0.16182788
23	0x3d107d4b	0.03527574
24	0x3d24197a	0.04006336
25	0xbe80053f	-0.25004002
26	0x3e807c03	0.25094613
27	0x3d88c4a3	0.066781305
28	0x3dbd1b8a	0.09233768
29	0xbc89faba	-0.016843189
30	0x3e27e25f	0.16394947
31	0x3d8273f3	0.06369772
32	0x3e1aa70f	0.1510279
33	0xbe9166f0	-0.28398848
34	0x3d149931	0.036278907
35	0x3d459c93	0.048245024
36	0x3da1c070	0.07898033
37	0xbe47fa06	-0.1952897
38	0xbe0dc682	-0.13845256
39	0xbd8cf3a7	-0.068824105
40	0xbead6fa2	-0.33874232
41	0xbe227424	-0.15864617
42	0x3dd66b5c	0.10469696
43	0xbe9cefe5	-0.30651775
44	0x3dffed01	0.12496377
45	0xbd39a60d	-0.045324374
46	0xbda36b9a	-0.07979508
47	0xbd0f6b6c	-0.035014555
48	0xbdabb89d	-0.083848216
49	0xbe21505f	-0.15753315
50	0xbd77929c	-0.060442552
51	0x3d7113e4	0.05885686
52	0xbd926fb3	-0.07150211
53	0x3dd6c5e4	0.104869634
54	0xbcee4554	-0.029085793
55	0x3e63391d	0.22189756
56	0xbd91e88d	-0.07124434
57	0x3e258312	0.1616328
58	0xbe8ee522	-0.2790919
59	0xbde20605	-0.110363044
60	0xbe7b86ac	-0.24563092
61	0xbdce6d72	-0.10079469
62	0xbe3ddde0	-0.1854167
63	0x3e3547a8	0.17703116
64	0xbe3c98fa	-0.18417731
65	0x3ca4b48b	0.02010562
66	0x3e1871da	0.14887181
67	0xbdd97987	-0.106188826
68	0xbd457f07	-0.048216846
69	0xbe2d32a2	-0.16913846
70	0xbcbe177a	-0.023204554
71	0x3df6b059	0.120453544
72	0xbe98a8a4	-0.29816163
73	0xbdf00146	-0.11718993
74	0xbd398329	-0.0452911
75	0xba621b15	-0.00086252514
76	0x3cb97625	0.022639344
77	0xbd8f7a0e	-0.07005702
78	0x3df264ac	0.11835608
79	0x3e059470	0.13044906
80	0xbe449119	-0.19195975
81	0xbd2150dd	-0.039383758
82	0x3dff626b	0.124699436
83	0x3d8e5c01	0.06951142
84	0xbdcb6614	-0.09931579
85	0xbd9b914a	-0.07596071
86	0x3e31936d	0.17341395
87	0xbc8cbcc0	-0.017179847
88	0xbd95e3b6	-0.07318823
89	0xbc73586f	-0.014852627
90	0x3c044e61	0.008075328
91	0x3e21adb3	0.15788917
92	0xbe257be4	-0.16160542
93	0xbe135e48	-0.14391434
94	0xbd4fb7ce	-0.0507124
95	0xbc20d607	-0.009816653
96	0xbe18b1e7	-0.14911614
97	0x3e08abd3	0.13346796
98	0xbd939432	-0.072060004
99	0xbea19071	-0.31555513
100	0xbe0ae60f	-0.13564323
101	0xbe0cb84d	-0.1374218
102	0x3b922a42	0.004460604
103	0x3d2b7923	0.04186357
104	0x3da6e5f3	0.08149328
105	0xbd8e7a34	-0.06956902
106	0xbe1af3e6	-0.15132102
107	0x3d8606cd	0.06544266
108	0x3d3063a6	0.043063782
109	0xbdc15968	-0.09440881
110	0xbdb09c03	-0.08623507
111	0xbda2144d	-0.07914028
112	0x3e0780b2	0.13232687
113	0x3e22cc20	0.1589818
114	0xbd9d531e	-0.07681869
115	0xbd80ff7a	-0.06298728
116	0xbce4ee0b	-0.027945539
117	0xbcee1a03	-0.029065138
118	0x3e31f058	0.1737684
119	0xbe0f9194	-0.14020377
120	0xbe38b282	-0.18036845
121	0xbd8dcb77	-0.069235735
122	0xbd07ad78	-0.033124417
123	0x3e20f36f	0.15717863
124	0xbd6decc0	-0.05808711
125	0xbc8a3e46	-0.016875397
126	0xbe7ad1c5	-0.24494083
127	0x3e27d7bb	0.16390888
128	0x3e065aba	0.13120547
129	0xbe366c3e	-0.17814729
130	0x3b9baae9	0.0047505987
131	0x3e647733	0.22311096
132	0xbe2d408f	-0.16919158
133	0x3e1537a5	0.14572008
134	0x3c8e6e1d	0.01738649
135	0xbd79f4d2	-0.061024494
136	0xbe53cc97	-0.20683514
137	0x3d8bc0a5	0.068238534
138	0x3de19657	0.11015003
139	0xbdca2795	-0.09870831
140	0x3de1a41d	0.1101763
141	0x3e78be20	0.24291277
142	0x3d23e0ac	0.040009186
143	0x3e37043c	0.17872709
144	0x3d30dbb0	0.04317826
145	0xbd76abfb	-0.060222607
146	0xbde6cb11	-0.112692006
147	0x3d71d6e2	0.05904282
148	0x3e3a5218	0.18195379
149	0xbe123468	-0.14277804
150	0xbd381264	-0.044939414
151	0xbdfdb63f	-0.12388276
152	0x3d8eca0d	0.06972132
153	0xbdac1db8	-0.08404106
154	0xbe249510	-0.16072488
155	0xbd999a94	-0.075001866
156	0x3d8b498b	0.068011366
157	0xbe11d3f3	-0.14241008
158	0x3e13f678	0.14449489
159	0xbe3fcc2f	-0.18730234
160	0xbdc4d594	-0.09611049
161	0x3d58328d	0.052782584
162	0x3c031ea7	0.008002914
163	0xbdc6f017	-0.09713762
164	0xbe5930f3	-0.21210079
165	0xbe2d91f6	-0.16950211
166	0x3db98e56	0.090603516
167	0x3e5769b6	0.2103642
168	0x3e80f6e4	0.25188363
169	0xbd3c80ee	-0.046021394
170	0x3e1a4b3d	0.15067764
171	0xbe28328f	-0.16425537
172	0xbd92b20c	-0.07162866
173	0x3cffd35b	0.031228712
174	0x3e61342d	0.2199256
175	0x3d1695d5	0.036763985
176	0x3d48902a	0.04896561
177	0x3e0bb424	0.13642937
178	0xbe0d5b52	-0.13804367
179	0xbd0b6f59	-0.034041736
180	0xbdf9132b	-0.12161859
181	0xbe24b4ad	-0.16084547
182	0x3de07247	0.10959297
183	0xbb9d0733	-0.004792118
184	0xbdf2c3e5	-0.1185377
185	0xbd2836af	-0.041067775
186	0x3e969cc8	0.2941649
187	0x3d9423b7	0.072333746
188	0x3e0d5985	0.1380368
189	0x3dd9956b	0.10624202
190	0x3d6f2b9a	0.05839119
191	0x3e0b42ed	0.13599749
192	0xbe1941e1	-0.14966537
193	0x3dbb9a29	0.09160263
194	0xbba262a9	-0.004955609
195	0x3e386fe1	0.18011428
196	0xbd8f96e4	-0.07011202
197	0x3e57c0ec	0.21069688
198	0x3dade51e	0.08490966
199	0xbdb09821	-0.08622766
200	0xbe1a10ea	-0.15045515
201	0xbe161951	-0.14658095
202	0xbe6f630f	-0.23377632
203	0x3d3af466	0.045643233
204	0x3dc9ffb8	0.098632276
205	0xbe4ddbf3	-0.20103435
206	0xbdf2a075	-0.11847011
207	0x3de48cff	0.11159705
208	0xbde18190	-0.1101104
209	0x3e432146	0.19055662
210	0x3e1e607e	0.15466496
211	0x3d828a05	0.063739814
212	0xbe126f63	-0.14300303
213	0xbd3a1c17	-0.045436945
214	0x3dc75188	0.09732348
215	0xbd9d7d61	-0.0768993
216	0xbc46293e	-0.012094794
217	0x3e473198	0.19452512
218	0x3d4d7d35	0.050168235
219	0x3d35d389	0.04439119
220	0xbe52b9dd	-0.20578714
221	0x3d56e347	0.052462842
222	0xbe1ce54b	-0.15321843
223	0xbe4bce5e	-0.19902942
224	0xbe1068b9	-0.14102449
225	0x3d42a325	0.047518868
226	0xbdc9a8a1	-0.098466165
227	0xbd51a83c	-0.05118583
228	0xbe192493	-0.14955358
229	0xbe836566	-0.25663298
230	0x3e01d647	0.12679397
231	0x3e1044cd	0.14088745
232	0x3de4be75	0.11169139
233	0xbe121862	-0.14267114
234	0x3d8741f3	0.06604376
235	0xbdbfa904	-0.09358409
236	0x3dca18a2	0.098679796
237	0x3d359e42	0.04434038
238	0xbda72bbc	-0.081626385
239	0xbc5c4b4b	-0.013445686
240	0x3d771d14	0.060330465
241	0xbd674bba	-0.056468703
242	0xbdc726ce	-0.09724198
243	0x3e7315a7	0.23738728
244	0x3e1006ad	0.14065047
245	0x3e209f5e	0.15685794
246	0xbc5587ab	-0.013032834
247	0x3e230047	0.15918075
248	0xbe5bcb64	-0.21464306
249	0x3d74c97f	0.059762474
250	0xbde1224f	-0.10992872
251	0xbe299148	-0.16559327
252	0xbd737d39	-0.059445594
253	0xbdec18c5	-0.11528162
254	0x3d9f398e	0.077746496
255	0x3df078c4	0.11741784

model.encoder.eb_encoder.0.6.bias f4 [32]
0	0xbdbc3cf1	-0.09191311
1	0x3e195dcb	0.14977185
2	0x3e3a96bb	0.18221562
3	0xbcb8e419	-0.022569703
4	0x3e4f36fa	0.20235816
5	0xbd216bc2	-0.039409406
6	0x3cb7e941	0.022450091
7	0x3d81992a	0.06328042
8	0x3dab5944	0.083666354
9	0xbdf63f5b	-0.12023803
10	0x3e36c873	0.17849903
11	0xbe45b4e9	-0.19307293
12	0x3e31ee5a	0.1737608
13	0x3def47d6	0.116836235
14	0xbd8474b0	-0.06467569
15	0xbdf135b0	-0.11777818
16	0x3de62dac	0.1123918
17	0xbdd21775	-0.1025838
18	0x3e2ab1ad	0.1666934
19	0xbe2515d9	-0.16121615
20	0x3da61248	0.081089556
21	0x3e1dbbfe	0.15403745
22	0xbce72236	-0.028214555
23	0xbd89dede	-0.06731962
24	0xbd95ba96	-0.07310979
25	0x3d012e2d	0.031538177
26	0xbdf8c44e	-0.12146817
27	0xbe56b6ed	-0.20968218
28	0xbdeb0ee2	-0.11477448
29	0xbe2653ce	-0.16242906
30	0x3e5de3c2	0.21668914
31	0xbe4b9a8d	-0.19883175

model.encoder.eb_encoder.1.weight f4 [32]
0	0x3f952a12	1.1653464
1	0x3f9286e8	1.144742
2	0x3f8dc78f	1.1076525
3	0x3f95d42e	1.1705377
4	0x3fb2e14d	1.3975006
5	0x3f93d6b7	1.1549901
6	0x3f910fbb	1.1332926
7	0x3f91afe7	1.1381806
8	0x3f8edbb1	1.1160794
9	0x3f9ac347	1.2090844
10	0x3f8f9822	1.1218302
11	0x3f9babec	1.2161841
12	0x3f8575f4	1.0426621
13	0x3f932346	1.149514
14	0x3f927c06	1.1444099
15	0x3f890e5a	1.0707505
16	0x3f93b36a	1.1539128
17	0x3f89f8df	1.0779074
18	0x3fa5e1f0	1.2959576
19	0x3f9eeec1	1.2416612
20	0x3f91ef77	1.1401204
21	0x3f8fa8e3	1.1223415
22	0x3f966c48	1.1751795
23	0x3f93c199	1.1543456
24	0x3fa9bdfb	1.3261102
25	0x3f95beba	1.169883
26	0x3fa56e7c	1.2924342
27	0x3f94d3f9	1.1627189
28	0x3f8fead9	1.1243545
29	0x3fa0a1a6	1.2549331
30	0x3fa29d5d	1.2704273
31	0x3fa84601	1.3146363

model.encoder.eb_encoder.1.bias f4 [32]
0	0x3c7f4be2	0.015582057
1	0xbccdb967	-0.02511282
2	0xbd12988f	-0.035790022
3	0xba3d48fe	-0.00072206545
4	0xbb8e30af	-0.0043392996
5	0xbcb0f14b	-0.021599432
6	0x3c9b5043	0.01895917
7	0xbcd6504d	-0.026161337
8	0xbb66afaf	-0.003519993
9	0x3c4b26f2	0.012399422
10	0xbd2338d9	-0.039849136
11	0x3d67e17d	0.056611527
12	0xbd1bc697	-0.038031187
13	0xbc9469c5	-0.018116841
14	0x3ca9ab09	0.020711439
15	0x3cd0a012	0.025466952
16	0xbc8f8d53	-0.017523443
17	0x3d0589f6	0.032602273
18	0xbc3fecb7	-0.011714152
19	0x3d1b7236	0.037950717
20	0xbcae3639	-0.02126609
21	0xbd1c826e	-0.038210325
22	0x3c616f66	0.01375947
23	0x3cccba7a	0.024991263
24	0x3c7fcbbe	0.015612541
25	0xbc161fc1	-0.009162844
26	0x3d3ceda5	0.046125073
27	0x3c6d5256	0.014484962
28	0x3bfaeb37	0.0076574343
29	0x3cb39735	0.021922687
30	0xbd1af59e	-0.037831895
31	0x3c65c15e	0.014023153

model.encoder.nb_encoder.0.0.weight f4 [32, 10]
0	0x3db1e976	0.08687107
1	0x3e5ab7d9	0.21359195
2	0x3e54da2c	0.20786351
3	0x3e6d01d2	0.23145226
4	0xbde251fd	-0.11050794
5	0x3e97a67a	0.296192
6	0x3e99870e	0.2998585
7	0x3e6a2c08	0.22868359
8	0x3f3a07a9	0.7266794
9	0xbe081d78	-0.13292491
10	0x3e8ab60a	0.2709201
11	0x3d9c45a0	0.076304674
12	0x3d62a95a	0.055337287
13	0x3e889331	0.26674798
14	0x3d059f6e	0.032622747
15	0x3e1b0b7f	0.15141104
16	0xbdb1393e	-0.08653496
17	0xbe49f31b	-0.19721644
18	0xbef666f9	-0.48125437
19	0x3c020b87	0.007937319
20	0x3e8d0916	0.27545995
21	0xbe8ec3e1	-0.2788382
22	0xbe57232e	-0.21009514
23	0x3e193741	0.14962484
24	0x3e71122c	0.23542088
25	0x3d62842e	0.055301838
26	0x3e89491c	0.2681359
27	0xbe33eaff	-0.17570113
28	0x3e992e20	0.29918003
29	0x3d3a2efa	0.045454957
30	0x3e5ee68c	0.21767634
31	0x3e05429b	0.13013689
32	0xbd6a792f	-0.057244476
33	0xbd67b63e	-0.056570284
34	0x3e3b549a	0.18293992
35	0x3e31ff19	0.17382468
36	0xbdad0429	-0.08448059
37	0x3de5c17e	0.11218546
38	0xbf2fbef0	-0.6865072
39	0x3e71b4d3	0.23604135
40	0x3e905c36	0.2819535
41	0x3e76879a	0.24075165
42	0xbe3609a4	-0.17777115
43	0x3ceaf22b	0.028679928
44	0xbe36cacb	-0.17850797
45	0x3b9bd758	0.0047558956
46	0xbd5019ea	-0.050805964
47	0xbd571696	-0.052511774
48	0x3f4819ee	0.78164566
49	0xbd915b80	-0.0709753
50	0x3e93034a	0.28713447
51	0x3e759a27	0.23984586
52	0x3cbd6da3	0.023123568
53	0x3dfd0359	0.12354154
54	0xbe979ca0	-0.29611683
55	0x3dce9133	0.10086288
56	0xbcda20f1	-0.026627036
57	0xbe8ee8d1	-0.27912
58	0xbecc99f7	-0.39961216
59	0xbca66e0e	-0.02031615
60	0x3e77d9ee	0.24204227
61	0x3c27fd47	0.010253257
62	0xbe389a5c	-0.18027633
63	0xbd59b2bf	-0.05314898
64	0xbeaf8530	-0.34281301
65	0x3da22400	0.07917023
66	0xbe8c4bc2	-0.2740155
67	0x3c832439	0.016008483
68	0xbe8d8c7c	-0.27646244
69	0xbc92f522	-0.017939154
70	0xbe798ed5	-0.24370892
71	0xbe747f8e	-0.23876783
72	0xbd68a184	-0.05679466
73	0x3e9eeed8	0.31041598
74	0xbe8c9c90	-0.27463198
75	0xbe535580	-0.20638084
76	0x3e1fe9d7	0.15616547
77	0xbe82b0ae	-0.2552542
78	0xbe239b1f	-0.15977143
79	0x3dbcbb7e	0.09215449
80	0x3e89ebf6	0.26937836
81	0xbdaf2086	-0.08551125
82	0xbd4f5bcf	-0.050624665
83	0xbe356d94	-0.17717582
84	0x3dce8543	0.100840114
85	0xbe33f139	-0.17572488
86	0x3e314666	0.17312011
87	0xbe76f3e7	-0.24116479
88	0xbdd865d5	-0.10566298
89	0xbccc0ddf	-0.024908958
90	0xbe73c0b2	-0.23803976
91	0xbde65879	-0.112473436
92	0x3e88a84e	0.26690906
93	0xbe7bd781	-0.24593927
94	0xbcf6fb9f	-0.03014928
95	0x3ea06a5e	0.31331152
96	0xbccc9738	-0.02497445
97	0xbe52724c	-0.20551413
98	0xbc8ca18d	-0.017166877
99	0xbe7fa9b2	-0.24967077
100	0x3eb43656	0.35197705
101	0xbde69698	-0.11259192
102	0xbe6035cf	-0.21895526
103	0x3d9003a9	0.07031948
104	0xbe12b09f	-0.14325188
105	0x3cf8532f	0.030313103
106	0x3c972fce	0.018455412
107	0xbe469541	-0.19392873
108	0x3d8ac16e	0.06775175
109	0x3acb1003	0.0015492443
110	0x3e6c8c42	0.23100379
111	0xbdea7213	-0.11447539
112	0x3e879312	0.26479393
113	0x3d2d93c2	0.04237724
114	0x3e0af724	0.13570839
115	0xbe5cefce	-0.21575853
116	0x3da7c7a1	0.08192373
117	0xbdcb2323	-0.09918811
118	0xbf0e7c8c	-0.55658793
119	0xbd9c3ac4	-0.07628396
120	0xbe708456	-0.23487982
121	0x3e318c31	0.17338635
122	0x3e03619a	0.12830201
123	0xbe206f2c	-0.15667409
124	0xbe93881f	-0.2881479
125	0x3e515df5	0.20445998
126	0x3e8b4cdc	0.27207077
127	0x3d93540b	0.07193764
128	0xbf195f49	-0.5991102
129	0x3b8d11a3	0.004305081
130	0x3c092b3b	0.008372123
131	0x3c455966	0.01204524
132	0x3e6722f2	0.22571924
133	0xbe258e1a	-0.16167489
134	0xbe157343	-0.1459475
135	0xbdba8c83	-0.09108832
136	0x3e5f946e	0.21833965
137	0x3eadd956	0.33954877
138	0xbf27f520	-0.65608406
139	0xbdacc405	-0.08435825
140	0xbba6779e	-0.0050801774
141	0xbe19c770	-0.15017486
142	0x3e07ff3d	0.1328096
143	0x3ebab59d	0.36466685
144	0xbe7515cb	-0.23934095
145	0x3e447552	0.19185379
146	0xbd8269b1	-0.06367815
147	0x3e15f25d	0.14643236
148	0x3d794c77	0.06086394
149	0x3e053153	0.13007097
150	0xbe8baaa5	-0.2727863
151	0xbd2fda39	-0.042932723
152	0x3e3e4009	0.18579115
153	0x3bdd36b3	0.0067509054
154	0xbdf2a976	-0.11848728
155	0xbd7c760a	-0.06163601
156	0xbe39245e	-0.18080279
157	0xbe38c316	-0.1804317
158	0xbcb8281b	-0.022480061
159	0xbdca31b9	-0.09872765
160	0x3e92e779	0.28692225
161	0xbe4ea381	-0.2017956
162	0x3e1b4e9b	0.15166704
163	0x3c3431c0	0.010998189
164	0x3eae1741	0.34002116
165	0x3d9a4945	0.07533506
166	0x3ea6a18f	0.32545134
167	0xbe1de822	-0.15420583
168	0xbe81ca23	-0.2534953
169	0x3d8180ea	0.063234165
170	0x3dba07a6	0.0908349
171	0x3e6647ab	0.22488277
172	0x3e3a8556	0.18214926
173	0xbe89fb07	-0.2694933
174	0xbe84d719	-0.25945356
175	0xbe8d3b94	-0.27584517
176	0x3e2c6882	0.16836742
177	0xbc2ce9ec	-0.010553818
178	0xbf0136ac	-0.5047405
179	0xbd55e672	-0.052221723
180	0xbe16eb2d	-0.1473815
181	0xbe811a35	-0.25215307
182	0xbd51194f	-0.051049527
183	0xba268919	-0.00063528266
184	0xbe871afa	-0.2638777
185	0x3e6fcacd	0.23417206
186	0xbe1cb6ad	-0.1530406
187	0xbda0a415	-0.07843796
188	0x3e19c06d	0.15014811
189	0x3e31c74f	0.17361186
190	0x3e84a5a4	0.25907624
191	0x3a58ab1a	0.0008265242
192	0x39a4a459	0.00031402966
193	0xbd8f0ea4	-0.06985214
194	0xbe08528b	-0.13312738
195	0x3e07f2a8	0.1327616
196	0x3c39639d	0.011315254
197	0xbecb903a	-0.39758474
198	0x3dde0056	0.10839908
199	0xbd3c29ce	-0.045938306
200	0x3e0d54b2	0.1380184
201	0x3e6e343f	0.23262118
202	0x3e22f149	0.15912355
203	0xbe0173ad	-0.12641783
204	0xbd3c4980	-0.045968533
205	0xbd2d299d	-0.042276014
206	0x3cb37af7	0.02190922
207	0x3e14543e	0.14485261
208	0x3f3b1178	0.7307353
209	0x3dccecdc	0.10006115
210	0x3d91098f	0.07081901
211	0xbe865ca2	-0.26242548
212	0x3e0fcf8b	0.14044015
213	0xbdd93213	-0.10605254
214	0xbe3bb278	-0.18329799
215	0xbbd11c23	-0.006381528
216	0x3db92577	0.09040349
217	0x3e9abc4b	0.3022178
218	0x3ee82468	0.45340276
219	0x3d5902b2	0.052981086
220	0x3e3b3338	0.18281257
221	0xba768a3c	-0.0009404754
222	0xbc9d2c01	-0.019186022
223	0xbdaa67e5	-0.083205976
224	0x3d3d1088	0.046158344
225	0xbd998507	-0.07496076
226	0x3d30a39b	0.043124776
227	0xbeb7ad79	-0.35874537
228	0xbdd3f44e	-0.10349332
229	0x3b4da1cb	0.0031376954
230	0xbea5febe	-0.32420915
231	0xbdd75f7c	-0.10516259
232	0x3b3eb1a1	0.0029097574
233	0x3e9df02e	0.30847305
234	0xbe5778f5	-0.21042235
235	0x3e360fbb	0.17779438
236	0x3e697c86	0.22801408
237	0xbe8e35d2	-0.27775437
238	0x3e4c7e98	0.19970167
239	0xbd44c634	-0.048040584
240	0xbe884f12	-0.26622826
241	0xbdc2845f	-0.09497904
242	0x3d972bb3	0.07381382
243	0x3ec349b4	0.3814217
244	0x3e354286	0.17701158
245	0x3e4b8e5e	0.19878528
246	0x3d81f3ee	0.06345354
247	0x3e5ca00d	0.2154543
248	0xbe148bc8	-0.14506447
249	0x3d688c10	0.0567742
250	0x3ea0a3bb	0.31374916
251	0x3d972b53	0.0738131
252	0x3e128f26	0.1431242
253	0xbe36f564	-0.17867047
254	0xbe14b302	-0.14521411
255	0x3dba3cb8	0.090936124

model.encoder.nb_encoder.0.0.bias f4 [32]
0	0x3e283ec9	0.164302
1	0x3bab545d	0.0052285627
2	0x3e3a71c4	0.1820746
3	0x3d2568ef	0.040383276
4	0xbe2c732b	-0.16840808
5	0xbdaa4b3d	-0.08315132
6	0x3e7e34fc	0.248249
7	0xbe97455f	-0.29545113
8	0x3e5dc161	0.216558
9	0x3c697486	0.014248973
10	0xbd8d8c68	-0.06911546
11	0xbd9ef730	-0.07761991
12	0x3d1522d8	0.036410183
13	0xbe968cdc	-0.29404342
14	0xbd52074a	-0.051276483
15	0x3e9b1b71	0.30294374
16	0xbe1285e2	-0.14308885
17	0x3c65254b	0.013985942
18	0xbdee3b13	-0.11632361
19	0x3ea1a3e9	0.31570366
20	0x3babe326	0.005245584
21	0x3c1fefe3	0.009761783
22	0x3f1236fc	0.5711515
23	0x3d789e02	0.060697563
24	0x3e0c22d5	0.13685162
25	0xbc3eaf5f	-0.011638491
26	0xbe1343b4	-0.14381295
27	0x3e86dc32	0.2633987
28	0xbe6867fe	-0.2269592
29	0x3c373bb6	0.01118367
30	0x3e85e2c3	0.26149568
31	0xbe07107c	-0.13189882

model.encoder.nb_encoder.0.2.weight f4 [32, 32]
0	0x3da2706b	0.07931598
1	0xbcc3ad9e	-0.023886498
2	0xbe118898	-0.14212263
3	0x3d7459f0	0.059656084
4	0x3e570f32	0.2100189
5	0xbc40ec30	-0.0117750615
6	0x3df49cbd	0.11943958
7	0xbb8aab3c	-0.0042318385
8	0x3dc32c44	0.095299274
9	0x3e1e68ef	0.15469716
10	0x3e5ffd6b	0.21874015
11	0x3e240b75	0.16019996
12	0xbe085b72	-0.13316134
13	0xbe157392	-0.14594868
14	0x3d8c9be8	0.06865674
15	0xbca584fa	-0.02020501
16	0xbe0cedc0	-0.1376257
17	0xbd4f2556	-0.050572716
18	0x3ccdb7b6	0.025112014
19	0x3dcd29c6	0.10017733
20	0x3dac0c81	0.084008224
21	0xbde282de	-0.11060117
22	0x3e16c43f	0.147233
23	0xbd854118	-0.06506556
24	0x3cb258bc	0.021770827
25	0x3e15980e	0.14608786
26	0xbd55fc9a	-0.052242853
27	0x3e306220	0.17224932
28	0x3e52a078	0.20569026
29	0xbe18e850	-0.1493237
30	0x3e15dcd6	0.14635023
31	0x3e6b5fc9	0.22985758
32	0x3d4ad053	0.04951508
33	0x3e2e7287	0.17035876
34	0xbd52d1d4	-0.05146964
35	0x3e393f0e	0.1809046
36	0xbdd96c7c	-0.10616395
37	0x3e4b7af1	0.19871117
38	0xba270988	-0.00063719647
39	0x3d5d9169	0.054093752
40	0x3d48137c	0.048846707
41	0xbe157f70	-0.14599395
42	0xbdcf6439	-0.10126538
43	0xbca0aad3	-0.019612705
44	0x3e8d57f3	0.27606162
45	0x3e402e3b	0.18767636
46	0xbbf859b5	-0.0075790533
47	0x3e0db3c2	0.13838103
48	0xbc772cd3	-0.0150863705
49	0x3da8d86c	0.08244404
50	0xbe0e2ef3	-0.13885097
51	0xbe70747b	-0.23481934
52	0xbe2d4d78	-0.16924083
53	0xbe15920d	-0.14606495
54	0xbe904aec	-0.2818216
55	0x3e1086b9	0.14113893
56	0x3d66611a	0.056244947
57	0xbde5afc9	-0.11215169
58	0xbe6f1349	-0.233472
59	0xbddf1d33	-0.10894241
60	0xbc3d9657	-0.011571488
61	0x3e7296a8	0.23690283
62	0xbe10f038	-0.14154136
63	0xbe325721	-0.1741605
64	0xbd8b09d4	-0.06788984
65	0xbe3db346	-0.18525419
66	0x3d0e0dd6	0.034681164
67	0xbde0c88c	-0.10975751
68	0xbe2295a0	-0.1587739
69	0x3dc88c0b	0.09792336
70	0xbdbd8179	-0.092532106
71	0x3c436c3f	0.011927663
72	0x3d57ccae	0.052685432
73	0xbc9c435f	-0.019075094
74	0xbe8cc2c7	-0.27492353
75	0x3db271af	0.0871309
76	0x3e8f63ba	0.28005773
77	0x3e2774e6	0.16353187
78	0xbe0b9b10	-0.1363337
79	0xbda03993	-0.078234814
80	0x3dd13501	0.10215188
81	0xbde339bd	-0.11094997
82	0x3e8497be	0.2589702
83	0xbf131e77	-0.5746836
84	0x3d67972c	0.056540653
85	0x3ce4e371	0.027940484
86	0x3e622886	0.22085771
87	0xbdba52d6	-0.09097831
88	0x3e1c076d	0.15237208
89	0xbe1523f0	-0.1456449
90	0x3e90fd55	0.28318277
91	0x3d6c9fa3	0.05776943
92	0x3d45fcb7	0.04833671
93	0x3e5e90fd	0.21734996
94	0xbea6ddfa	-0.3259123
95	0xbe2ed339	-0.17072763
96	0xbe183ec8	-0.14867699
97	0x3da416a5	0.080121316
98	0x3dbdcdac	0.092677444
99	0xbc74e7b3	-0.0149478195
100	0x3c1bd913	0.009512204
101	0x3db92d21	0.09041811
102	0xbd92486f	-0.07142722
103	0x3da044cf	0.07825624
104	0x3c73ab40	0.014872372
105	0x3df61de2	0.120174184
106	0x3df98c08	0.12184912
107	0x3e1ca43f	0.1529703
108	0x3d03ce08	0.03217891
109	0xbdf1a037	-0.11798137
110	0xbacb865a	-0.0015527711
111	0x3ac8cf5f	0.001532059
112	0xbbb94b11	-0.0056547006
113	0x3d1fe288	0.039034396
114	0xbda5467b	-0.08070084
115	0x3e3f6587	0.18691073
116	0xbe195e62	-0.1497741
117	0xbe5c5f6b	-0.21520774
118	0x3eb20257	0.3476741
119	0xbe0fd03e	-0.14044282
120	0x3e03ccce	0.12871096
121	0xbe0f114a	-0.13971439
122	0x3e931f7c	0.28734958
123	0xbdc06863	-0.0939491
124	0x3d21041e	0.039310567
125	0x3e2fd922	0.17172673
126	0x3e87ce4a	0.26524574
127	0x3dd1f8b1	0.10252512
128	0x3e2b3dbc	0.16722769
129	0xbdaf2b5c	-0.08553192
130	0x3e25a798	0.16177213
131	0x3e1ec490	0.1550467
132	0x3d0da6c4	0.03458287
133	0xbd98757e	-0.07444285
134	0xbe176c3a	-0.14787379
135	0x3d462e5c	0.048384055
136	0xbdf5a75b	-0.11994811
137	0xbd8f2523	-0.06989505
138	0xbe2001d2	-0.15625694
139	0xbdaa6642	-0.083202854
140	0xbbeedf8d	-0.007289833
141	0x3b9967cc	0.004681563
142	0x3e066658	0.13124979
143	0x3d9f08db	0.07765361
144	0xbdb8cb49	-0.090231486
145	0x3da25c44	0.079277545
146	0x3d0e4164	0.03473033
147	0x3dc490a8	0.095979035
148	0x3e0b3d3c	0.13597578
149	0xbc0342ea	-0.008011559
150	0xbd2a7acc	-0.041621014
151	0xbdff8da8	-0.12478191
152	0xbd94fd54	-0.07274881
153	0xbd01128b	-0.031511825
154	0x3b9b6bd9	0.004743081
155	0xbd7d9401	-0.061908726
156	0x3e85a195	0.2609984
157	0xbdf5e40c	-0.12006387
158	0x3de93b1d	0.11388228
159	0x3d778af4	0.06043525
160	0x3dcc0097	0.0996105
161	0xbdb2a071	-0.08722008
162	0xbd2f1f33	-0.042754363
163	0x3df62810	0.1201936
164	0xbd802013	-0.06256118
165	0xbd191793	-0.037375998
166	0xbd206a59	-0.03916392
167	0xbdecebb2	-0.11568393
168	0xbd5d2cf0	-0.053997934
169	0x3bb975a0	0.005659774
170	0x3d9aa60d	0.07551203
171	0x3d7f2406	0.062290214
172	0xba7287a9	-0.00092517823
173	0x3e59cd24	0.21269661
174	0xbd5edd34	-0.054410174
175	0x3d23e44a	0.040012635
176	0xbde22482	-0.110421196
177	0x3dc63cb7	0.09679549
178	0xbdbf64ab	-0.09345373
179	0xbd85e803	-0.06538393
180	0x3e0a8ee5	0.13531072
181	0x3e6b1e26	0.2296072
182	0xbdf8b5c3	-0.12144043
183	0x3ddc3a3c	0.10753295
184	0x3e0067c9	0.12539591
185	0xbe02f890	-0.12790132
186	0xbdd06cc9	-0.10176999
187	0xbdc815cc	-0.097697824
188	0x3df0656c	0.11738095
189	0x3e046499	0.12929
190	0xbe78d420	-0.2429967
191	0x3d94db1c	0.07268354
192	0x3b2cb20e	0.0026351246
193	0x3e39f70a	0.18160644
194	0x3dba9cc9	0.09111936
195	0x3d62371e	0.055228345
196	0xbe314955	-0.1731313
197	0x3e3b2dd7	0.18279205
198	0xbdc6246e	-0.09674917
199	0x3e077394	0.13227683
200	0x3d630a7b	0.055429917
201	0x3d0243dd	0.031803
202	0xbe372c2f	-0.17887948
203	0x3db3d355	0.08780543
204	0x3d907d80	0.07055187
205	0xbd566c9e	-0.05234968
206	0xbdb187d9	-0.08668489
207	0x3d696680	0.056982517
208	0xbe0d9732	-0.13827208
209	0x3d309f1b	0.043120485
210	0x3dd66c83	0.10469916
211	0x3b2d8941	0.0026479515
212	0x3d495014	0.049148634
213	0xbe649e19	-0.22325934
214	0x3e2ba921	0.16763736
215	0x3dfef4c8	0.12449032
216	0xbd8c6f38	-0.06857151
217	0x3d443e33	0.04791088
218	0x3c855d26	0.016279768
219	0x3de85af8	0.11345476
220	0x3f163b03	0.58683795
221	0xbd7c1090	-0.061539233
222	0x3de2f302	0.11081506
223	0xbe05e146	-0.13074216
224	0x3a943759	0.0011307999
225	0xbcbcc221	-0.023041787
226	0x3db44427	0.088020615
227	0xbddd7005	-0.10812382
228	0x3ca1b9cf	0.01974192
229	0xbdca953e	-0.09891747
230	0xbdf8a7c3	-0.12141373
231	0x3d2a5f4c	0.04159479
232	0xbde8bfe9	-0.11364729
233	0xbdc1fdec	-0.0947226
234	0xbdad8c80	-0.08474064
235	0x3d8cae95	0.068692364
236	0xbd9e231a	-0.07721539
237	0xbdca1c2c	-0.098686546
238	0x3ddae965	0.10689048
239	0xbdf647ea	-0.12025435
240	0xbdc5841f	-0.09644341
241	0xbe0e1457	-0.13874947
242	0xbd8c35b1	-0.06846178
243	0x3dc87934	0.09788743
244	0xbe32b4ac	-0.17451733
245	0xbdabd42c	-0.08390078
246	0x3e0ea9df	0.13931988
247	0xbe1b793a	-0.15182963
248	0x3d6aebc9	0.05735377
249	0xbda446ec	-0.0802134
250	0x3d41dc06	0.04732897
251	0x3e24888b	0.16067712
252	0x3db2ff97	0.08740156
253	0xbdbdeb3a	-0.092733815
254	0x3b3ecab1	0.0029112513
255	0x3a8f7b5e	0.00109468

model.encoder.nb_encoder.0.2.bias f4 [32]
0	0x3e13af22	0.14422277
1	0x3d524831	0.05133838
2	0x3d77f315	0.060534555
3	0xbb6064c4	-0.0034239748
4	0xbe0d741f	-0.13813828
5	0xbe3c687c	-0.18399233
6	0x3e67e56b	0.2264611
7	0x3d836f41	0.064177044
8	0xbd951909	-0.07280166
9	0xbd051796	-0.032493196
10	0x3e0541af	0.13013338
11	0x3d6cd35e	0.057818763
12	0x3e626029	0.22106995
13	0x3d8d7d17	0.069086246
14	0xbd6d466e	-0.057928495
15	0x3e021aa7	0.1270548
16	0x3dbeff9c	0.09326097
17	0xbc0ad48a	-0.008473525
18	0xbd0d77d0	-0.03453809
19	0xbdda2af8	-0.10652727
20	0xbdfe6623	-0.12421825
21	0x3dce6505	0.10077862
22	0x39913678	0.00027697138
23	0x3e4a114e	0.19733164
24	0x3dd01561	0.10160328
25	0x3e78b8a2	0.24289182
26	0x3e41ecab	0.18937938
27	0x3e63265b	0.221826
28	0x3d301330	0.04298705
29	0xbdad370e	-0.084577665
30	0xbd32f54f	-0.043690976
31	0xbd5d1335	-0.053973395
