v6/checkpoint/simulator.pth (torch, 872005 bytes, 328 tensors)

model.encoder.eb_encoder.0.0.weight f4 [32, 6]
0.5623354 0.19130293 -0.0710463 -0.027535537 -0.06171298 0.09845838 -0.58445686 -0.020002685
0.17892554 0.26078224 0.3662947 0.25340164 0.079991736 0.06548313 -0.14949201 0.36340693
-0.21978828 0.24683411 -0.5806296 -0.19175401 0.13570586 -0.30825254 0.16317222 0.11292273
0.3626428 -0.2048638 -0.07632803 -0.41076133 0.12534417 0.122182295 -0.119322315 0.23418045
-0.031061087 0.43792915 0.35281903 -0.24261625 -0.34917793 0.0014918528 -0.02686033 0.18517563
-0.091512784 0.30912632 0.43052432 0.15689202 0.08987764 -0.11066963 0.42134684 0.20294043
-0.21559083 0.23317213 -0.27437937 0.22174183 -0.08515861 -0.015661418 -0.3461083 0.028566355
0.29901212 -0.44636515 -0.038939614 0.22696063 0.05176231 -0.35824275 0.21962576 0.27817664
-0.34491336 0.3750176 0.57448536 0.2988352 0.17756951 -0.043934163 0.09203118 -0.048617724
-0.2914423 -0.039792538 0.18192062 -0.0042583863 -0.21282257 0.045592546 -0.1001746 -0.3594179
-0.002542434 -0.14571412 0.35570514 0.1056666 -0.7431105 -0.09885845 0.15461029 -0.21539941
0.31621653 -0.32409894 0.28837103 0.0628413 -0.01771685 -0.3490849 -0.09937592 -0.09218265
-0.33552337 0.18824962 0.08087282 0.3798905 -0.12174009 -0.12945297 0.00017886027 -0.2534918
-0.03514455 -0.20231296 -0.29912406 0.023697942 0.07141234 -0.18736653 0.020665646 0.3000207
0.45716083 0.0093217185 0.8745837 0.042950727 0.009081461 0.18756051 0.32703722 -0.068975665
-0.36967602 0.3363298 -0.31105137 -0.28832144 0.24100098 -0.39872363 0.29361588 0.29341346
0.1257772 0.21129632 0.51102674 -0.38573098 -0.42458317 0.17410482 0.048231933 -0.2363243
-0.17985514 -0.0560018 -0.34003502 0.2566902 -0.24526066 -0.078767344 -0.20321698 0.32455647
0.06102485 0.025563449 0.25517988 -0.24905008 -0.39056554 -0.17551014 0.5221567 -0.22725703
0.1463859 -0.29248086 -0.42739692 0.03838848 0.067407265 -0.0031280261 -0.18225625 0.3125435
-0.21842082 -0.0056236614 0.4787864 -0.20390882 0.23764187 0.23899326 -0.14920232 0.23509791
-0.58599955 0.20636483 0.030097717 0.07904522 0.29296666 -0.25077248 -0.4214469 0.061765365
-0.076214984 -0.1441343 0.14816105 0.2575448 -0.6034327 -0.19245529 -0.109059766 0.0031786966
-0.39237422 0.36210614 -0.050851583 -0.31691062 0.30938846 0.20360625 -0.2410726 0.08040237
00000000: 36f5 0f3f eae4 433e b980 91bd 3592 e1bc
00000010: c0c6 7cbd 8ca4 c93d f79e 15bf acdc a3bc
00000020: 4238 373e 4085 853e fb8a bb3e dcbd 813e
00000030: b5d2 a33d 051c 863d 6f14 19be 7910 ba3e
00000040: 2e10 61be 15c2 7c3e 24a4 14bf 2a5b 44be
00000050: 7af6 0a3e 47d3 9dbe 9e16 273e 0844 e73d
00000060: 51ac b93e d1c7 51be df51 9cbd 4f4f d2be
00000070: 395a 003e b63a fa3d 425f f4bd 00cd 6f3e
00000080: d273 febc 4038 e03e b2a4 b43e 6570 78be
00000090: 73c7 b2be 468a c33a 320a dcbc ae9e 3d3e
000000a0: 0e6b bbbd ce45 9e3e af6d dc3e 4da8 203e
000000b0: c511 b83d c2a6 e2bd c6ba d73e 9ecf 4f3e
000000c0: d8c3 5cbe adc4 6e3e 747b 8cbe 4a10 633e
000000d0: a367 aebd 604c 80bc 1b35 b1be fd03 ea3c
000000e0: 1e18 993e f989 e4be 257f 1fbd 5e68 683e
000000f0: b704 543d 986b b7be 93e5 603e 2b6d 8e3e
00000100: 7c98 b0be 4f02 c03e 7911 133f ed00 993e
00000110: c8d4 353e 4ff4 33bd d87a bc3d 6123 47bd
00000120: ed37 95be 80fd 22bd 6649 3a3e ef89 8bbb
00000130: 29ee 59be 40bf 3a3d 5728 cdbd 9f05 b8be
00000140: f79e 26bb 1536 15be fc1e b63e bb67 d83d
00000150: 7d3c 3ebf 4d76 cabd 2952 1e3e aa91 5cbe
00000160: 22e7 a13e 4cf0 a5be 5ea5 933e f1b2 803d
00000170: ed22 91bc 42bb b2be 9a85 cbbd 42ca bcbd
00000180: b8c9 abbe 82c4 403e a6a0 a53d 0281 c23e
00000190: de52 f9bd 528f 04be 708c 3b39 adc9 81be
000001a0: bbf3 0fbd 212b 4fbe ca26 99be 3022 c23c
000001b0: a240 923d 03dd 3fbe 004b a93c 509c 993e
000001c0: fc10 ea3e 1fba 183c b8e4 5f3f 1aed 2f3d
000001d0: 68ca 143c dd0f 403e 6c71 a73e 1d43 8dbd
000001e0: 2d46 bdbe 6b33 ac3e 2042 9fbe de9e 93be
000001f0: f6c8 763e 8125 ccbe d254 963e 4a3a 963e
00000200: bdcb 003e 105e 583e a6d2 023f 887e c5be
00000210: f762 d9be 8948 323e d98e 453d fffe 71be
00000220: f22b 38be 2562 65bd 1219 aebe e66c 833e
00000230: 9c25 7bbe c650 a1bd 1d18 50be 442c a63e
00000240: 31f5 793d 706a d13c f0a6 823e fc06 7fbe
00000250: 35f8 c7be eeb8 33be 10ac 053f 11b6 68be
00000260: 2fe6 153e 0dc0 95be c5d3 dabe 3d3d 1d3d
00000270: d20c 8a3d 92ff 4cbb 62a1 3abe b405 a03e
00000280: b5a9 5fbe b146 b8bb 7e23 f53e 79cd 50be
00000290: 6458 733e a6ba 743e 7ec8 18be 82bd 703e
000002a0: 1104 16bf 4d51 533e 7d8f f63c 76e2 a13d
000002b0: baff 953e 4065 80be e3c7 d7be aefd 7c3d
000002c0: 9a16 9cbd f197 13be 88b7 173e e9dc 833e
000002d0: 917a 1abf 0013 45be ba5a dfbd ae51 503b
000002e0: 46e5 c8be fa65 b93e c049 50bd 1c42 a2be
000002f0: 2a68 9e3e 287e 503e bcdb 76be ffa9 a43d

model.encoder.eb_encoder.0.0.bias f4 [32]
-0.25287655 -0.28526288 -0.1708166 0.48584196 -0.116074584 -0.04899809 -0.396837 0.07899892
-0.3082844 0.06448574 0.205615 -0.4127963 0.16613765 -0.07823159 0.06285613 0.5954802
0.20044684 0.5549358 0.52446985 -0.020915352 0.14790007 -0.12844987 -0.005048653 -0.18159176
-0.1704166 0.31418666 -0.04886558 0.06959538 -0.30807513 -0.026605519 -0.27423325 0.3533291
00000000: 0979 81be fa0d 92be 8cea 2ebe 47c0 f83e
00000010: 83b8 edbd 39b2 48bd 382e cbbe 30ca a13d
00000020: 74d7 9dbe 1a11 843d bd8c 523e 095a d3be
00000030: fd1f 2a3e e237 a0bd b7ba 803d 6471 183f
00000040: f041 4d3e 4610 0e3f a843 063f ac56 abbc
00000050: 1e73 173e 5d88 03be 2c6f a5bb 31f3 39be
00000060: b081 2ebe 13dd a03e 4627 48bd 0688 8e3d
00000070: 06bc 9dbe d1f3 d9bc 4d68 8cbe 8de7 b43e

model.encoder.eb_encoder.0.2.weight f4 [32, 32]
-0.037752952 -0.03495193 0.014295818 0.20363219 -0.0033103998 -0.025778322 -0.11280375 0.034280878
-0.007958699 -0.0069422578 0.015998987 -0.011060847 -0.10281875 0.30708244 0.0913328 0.24869671
-0.1270665 0.2220021 -0.07111597 0.39272523 0.09260991 0.065253414 0.06539325 -0.047764085
0.13135827 0.08618331 -0.045505784 -0.09953261 -0.10413908 0.011531806 0.072281264 -0.048687007
0.18813765 -0.21042284 0.08660329 0.072943546 -0.0681239 0.103538625 -0.019073743 0.15517841
0.0289933 -0.16259676 0.20787059 0.12099204 -0.15564227 -0.21819922 0.051895183 0.08864492
-0.21155939 -0.060354512 0.20878631 0.15295719 -0.14368656 0.013473484 -0.070788674 -0.03886899
0.13319658 -0.039600063 -0.08651824 0.20569444 -0.030340126 0.059301335 -0.17017901 -0.086572535
-0.29760855 0.24862137 -0.05263497 0.08064061 -0.048163004 -0.022300513 -0.04903793 0.10026656
0.010686415 -0.022794744 0.043889858 -0.16814978 0.013276414 -0.28280514 -0.10814913 -0.25479528
0.1826299 -0.15180671 -0.19859907 -0.021746906 -0.041653514 -0.08891242 0.063342966 0.16627137
0.06620187 -0.14970787 -0.07720609 -0.17305782 -0.07260923 0.1290829 -0.18627249 0.036600895
0.03799088 0.06105424 0.12171312 0.09909281 0.24213195 -0.14457154 0.03892598 0.052347723
0.121977836 0.1747703 -0.053904507 0.045019824 0.006418388 -0.06450316 -0.045919333 -0.23105495
-0.21121988 -0.163205 -0.0029461328 0.15038106 0.21926224 -0.13796249 0.13555112 -0.0886492
0.017104195 -0.18825847 -0.08037118 -0.11567157 0.004796115 -0.10882142 0.053041566 -0.07953923
-0.01074315 0.04853178 -0.23494142 0.074619286 0.12803221 -0.046200197 -0.13032165 -0.09720178
0.12743402 -0.17882638 -0.05101156 0.031889208 -0.0692378 0.012192785 -0.046691343 0.11098732
0.05770554 0.10867449 0.1528352 0.1781039 0.18756951 0.043967854 0.20646039 0.038749505
0.0029031748 0.057135638 0.063630186 0.033724003 -0.06418975 -0.025427807 0.0826423 0.11634538
0.054926075 -0.097171776 -0.07733667 -0.10693367 -0.1888436 -0.071744 -0.23695056 0.17072643
0.064935945 0.022512836 -0.15163696 0.11798192 -0.11580589 -0.79875654 0.069256715 0.12111899
0.065447 -0.1451128 -0.09472692 0.0029609522 0.14119588 0.21928135 -0.019040972 -0.04476156
-0.0027711582 -0.09736294 0.19848724 0.19553363 -0.09700068 -0.027926607 -0.13195264 -0.081386015
-0.0018461457 -0.044039566 -0.15327606 0.030171474 0.01576059 0.088730626 0.021404315 0.09209885
0.07971826 0.17621994 0.004169202 0.092566475 -0.1663308 -0.04538415 0.08607772 -0.15295511
-0.13502443 -0.2513617 -0.29049096 0.1801316 0.056029838 0.11461149 -0.12687463 0.19146866
-0.066361465 -0.015488126 -0.11010404 0.11233098 -0.03139552 -0.033846103 0.06769623 -0.028304359
0.10781658 -0.18913114 0.17494154 0.022636559 0.076760635 0.021450391 0.07142648 0.12833524
-0.0037806467 -0.065722615 -0.0893086 0.15240881 0.043919176 -0.39727423 0.027671266 -0.022357712
0.02975467 -0.033337176 -0.22859372 -0.19039525 -0.08628787 0.048772693 -0.14405113 0.0007792705
0.061594654 0.007760461 0.1097302 0.056345426 0.16072963 -0.14057761 -0.051612664 0.070423275
00000000: d7a2 1abd c129 0fbd 0239 6a3c f584 503e
00000010: 4bf3 58bb 0f2d d3bc a705 e7bd 1b6a 0c3d
00000020: 3465 02bc e17b e3bb 4f10 833c 8e38 35bc
00000030: a392 d2bd e939 9d3e b10c bb3d 5aaa 7e3e
00000040: b81d 02be 8554 633e 40a5 91bd 4813 c93e
00000050: 44aa bd3d 95a3 853d e5ec 853d 46a4 43bd
00000060: c882 063e e080 b03d 4664 3abd c1d7 cbbd
00000070: df46 d5bd e6ef 3c3c 3308 943d 076c 47bd
00000080: 28a7 403e 1679 57be 115d b13d 6d63 953d
00000090: 8b84 8bbd 0f0c d43d 8a40 9cbc 17e7 1e3e
000000a0: 5b83 ed3c c47f 26be 07dc 543e adca f73d
000000b0: b060 1fbe 9e6f 5fbe 0b90 543d 788b b53d
000000c0: 06a3 58be 4b36 77bd 14cc 553e cfa0 1c3e
000000d0: 9222 13be e3bf 5c3c a7f9 90bd 1735 1fbd
000000e0: af64 083e ad33 22bd 7a30 b1bd 90a1 523e
000000f0: db8b f8bc f5e5 723d 6843 2ebe f14c b1bd
00000100: 2660 98be 9a96 7e3e c497 57bd e726 a53d
00000110: 9246 45bd 91af b6bc ffdb 48bd 8e58 cd3d
00000120: 1316 2f3c 0bbc babc dac5 333d 752f 2cbe
00000130: 5185 593c d6cb 90be 4b7d ddbd 8774 82be
00000140: 5503 3b3e 3873 1bbe 8e5d 4bbe 9126 b2bc
00000150: e09c 2abd b717 b6bd f5b9 813d 0b43 2a3e
00000160: d994 873d 054d 19be 3a1e 9ebd 1236 31be
00000170: 26b4 94bd 4f2e 043e 37be 3ebe d2ea 153d
00000180: 539c 1b3d 0314 7a3d ba44 f93d 2cf1 ca3d
00000190: 70f1 773e 900a 14be d970 1f3d 916a 563d
000001a0: 84cf f93d fcf6 323e f9ca 5cbd b566 383d
000001b0: 5751 d23b 3c1a 84bd e915 3cbd ab99 6cbe
000001c0: 064a 58be 361f 27be e813 41bb 7efd 193e
000001d0: 4886 603e 0a46 0dbe eacd 0a3e b68d b5bd
000001e0: 191e 8c3c d4c6 40be a599 a4bd 37e5 ecbd
000001f0: bb28 9d3b c4dd debd 1d42 593d 77e5 a2bd
00000200: 0904 30bc 42c9 463d 7c94 70be ffd1 983d
00000210: e01a 033e 6b3c 3dbd 0a73 05be ba11 c7bd
00000220: 107e 023e 431e 37be 7ff1 50bd 429e 023d
00000230: 8ccc 8dbd 3fc4 473c 6c3f 3fbd 524d e33d
00000240: a55c 6c3d bb90 de3d d580 1c3e de60 363e
00000250: 3912 403e a317 343d 5a6a 533e cdb7 1e3d
00000260: 3143 3e3b 0f07 6a3d 8b50 823d 2e22 0a3d
00000270: ea75 83bd fa4d d0bc 5e40 a93d 7d46 ee3d
00000280: 2afa 603d ff01 c7bd b062 9ebd 0a00 dbbd
00000290: 3760 41be 85ee 92bd 2ba3 72be e9d2 2e3e
000002a0: 23fd 843d d76c b83c b846 1bbe 81a0 f13d
000002b0: a32b edbd 4f7b 4cbf 77d6 8d3d 3c0d f83d
000002c0: 1409 863d 7398 14be 3000 c2bd 890c 423b
000002d0: a795 103e 4a8b 603e d0fb 9bbc e657 37bd
000002e0: 529c 35bb 3966 c7bd 3d40 4b3e f839 483e
000002f0: 4ba8 c6bd 57c6 e4bc 981e 07be b6ad a6bd
00000300: 5ffa f1ba d562 34bd 66f4 1cbe 2b2a f73c
00000310: 5a1c 813c 67b8 b53d 1a58 af3c 529e bc3d
00000320: 5443 a33d 0073 343e cd9d 883b 7e93 bd3d
00000330: 9f52 2abe bbe4 39bd 8449 b03d 44a0 1cbe
00000340: d843 0abe 7bb2 80be 3bbb 94be 6b74 383e
00000350: 8b7f 653d 6eb9 ea3d 6ceb 01be 5c10 443e
00000360: 85e8 87bd e9c1 7dbc 3a7e e1bd c90d e63d
00000370: 9798 00bd 36a2 0abd 52a4 8a3d 8bde e7bc
00000380: f0ce dc3d 98ab 41be e023 333e 4e70 b93c
00000390: ae34 9d3d bbb8 af3c 0c48 923d 506a 033e
000003a0: bac4 77bb 9499 86bd 6de7 b6bd 0e11 1c3e
000003b0: 98e4 333d 8767 cbbe daae e23c 8527 b7bc
000003c0: 11c0 f33c 908c 08bd 7914 6abe f9f6 42be
000003d0: b2b7 b0bd e0c5 473d 2482 13be f547 4c3a
000003e0: ad4a 7c3d 774b fe3b 3aba e03d 76ca 663d
000003f0: 4f96 243e 94f3 0fbe cd67 53bd 143a 903d

model.encoder.eb_encoder.0.2.bias f4 [32]
-0.10767339 0.16715994 0.0505785 0.058731873 0.14252752 -0.025971714 -0.05285659 0.06413992
0.13499951 -0.1170748 0.12747021 0.14558113 -0.24576575 0.1654697 -0.08468838 -0.13632771
0.0089473 -0.0018320895 -0.14498332 -0.010333651 0.019587139 0.107205465 0.072086796 0.05775492
0.25542447 0.115249604 0.14403957 0.214687 0.16165948 0.10432579 -0.09988603 -0.038855564
00000000: de83 dcbd fa2b 2b3e 672b 4f3d d590 703d
00000010: bcf2 113e a2c2 d4bc 2780 58bd ca5b 833d
00000020: 503d 0a3e eac4 efbd 8d87 023e 3813 153e
00000030: 04aa 7bbe e470 293e 1a71 adbd 7e99 0bbe
00000040: b297 123c b922 f0ba 8276 14be 794e 29bc
00000050: 3575 a03c 8a8e db3d 3ea2 933d 6c90 6c3d
00000060: ffc6 823e fc07 ec3d 1c7f 133e e9d6 5b3e
00000070: 108a 253e c3a8 d53d 0c91 ccbd 0327 1fbd

model.encoder.eb_encoder.0.4.weight f4 [32, 32]
-0.011360333 0.024728242 0.1676509 -0.3727805 0.069146 0.06336832 -0.111589976 -0.037190046
0.12191283 -0.06112427 0.23181355 0.07038375 0.25219485 -0.1602707 -0.16754153 -0.034642465
-0.1235682 0.008507098 0.14100833 0.083846055 -0.068148 0.22104706 -0.04200641 0.03289925
-0.0032396603 0.1786592 0.0018316038 0.16567093 -0.37463605 0.013409581 -0.13761932 -0.10222332
0.15865742 -0.0819196 -0.18132032 -0.12361646 0.25908417 0.24151754 -0.09448765 0.13914654
0.12654886 0.0809929 0.2708663 0.13241836 0.24231017 0.14503038 -0.11761883 -0.047164053
0.34110087 -0.14561227 -0.07909632 0.3663681 0.0568861 -0.104328446 -0.012301895 -0.17897278
0.04177089 0.07629539 -0.112976275 0.26172662 0.088804096 -0.08433482 -0.039909665 -0.010966278
-0.12617846 -0.102171876 -0.021882385 0.13829541 -0.32882658 -0.09080975 0.12347018 0.066086195
0.057295796 0.013863735 0.108161055 -0.0461903 0.07829686 -0.08577257 -0.08161685 -0.013184475
-0.025053706 -0.032845367 -0.12267679 -0.06471535 0.082620464 -0.06919014 0.15919611 -0.116448395
-0.1082161 -0.08263287 -0.012230355 0.03749462 -0.10276808 0.054877795 -0.07044256 -0.21473458
-0.016356805 -0.12738195 0.018605852 0.0321082 -0.3420759 -0.03963101 0.12742531 0.12355319
-0.010882353 0.14398968 -0.22967194 -0.033615205 -0.1457403 0.11776631 0.13786845 -0.2244025
0.06594922 0.12965822 0.16633461 -0.05500943 0.015334357 0.057418425 -0.12477993 0.11460559
0.056826822 0.03416422 -0.0638038 -0.05305045 0.1993043 -0.10382799 -0.027656183 0.15488032
0.08322496 0.17012894 -0.031310998 0.00034133572 0.053524297 0.15360357 -0.056841206 -0.031221947
0.099394806 -0.053419117 -0.061578758 -0.033977497 0.17720224 0.17740628 0.0542269 -0.2855993
-0.041842658 -0.06721733 0.09624768 -0.038288955 0.1610078 -0.10125623 -0.059880223 -0.06957093
-0.09741278 0.17127441 -0.08856647 0.09107769 -0.19919969 0.026983388 -0.15981875 -0.002867267
0.11078622 0.14784467 -0.15134883 0.025365625 -0.18385419 0.123323075 0.025349785 -0.030249469
0.09552384 -0.03871483 0.0789786 0.09831016 -0.04173341 -0.14990549 -0.2165035 0.0705411
0.028868565 0.12935908 0.14877285 -0.18065293 0.17495213 -0.009719203 -0.14758657 -0.08743472
0.059400223 0.04302837 -0.17605941 0.041634515 -0.1834424 -0.32596847 -0.031628195 0.15668698
-0.019071445 0.119138435 -0.23037505 -0.026308266 0.08964509 0.09823807 0.1273464 0.1699185
0.025241377 0.050772008 0.05825214 -0.0230397 -0.052446865 -0.082397446 -0.3410391 0.015122432
-0.042481944 -0.11674308 -0.01672016 -0.10679996 0.09057892 0.26142797 -0.045070652 -0.10053937
-0.019408131 -0.020599237 -0.151512 -0.088770404 -0.078392476 -0.32643557 0.15642144 0.15605108
-0.10728332 -0.05926288 0.015225966 0.13851921 0.097235516 -0.05599837 -0.04084042 0.15436296
0.076377824 -0.014117698 0.19852826 -0.09660718 0.27928773 0.1688377 -0.20494236 0.17277601
-0.10578735 -0.06498528 -0.175109 -0.13009204 -0.03542928 0.114471726 0.13184865 -0.11941079
-0.099172026 -0.18111607 -0.006284127 0.02946147 -0.0263593 0.05582672 0.08634497 -0.1787869
00000000: b120 3abc e292 ca3c adac 2b3e 16dd bebe
00000010: 6b9c 8d3d 40c7 813d 4989 e4bd 9754 18bd
00000020: 6fad f93d 715d 7abd 8860 6d3e 5b25 903d
00000030: af1f 813e 011e 24be 0290 2bbe 42e5 0dbd
00000040: 5311 fdbd 5b61 0b3c 7d64 103e 7bb7 ab3d
00000050: 2e91 8bbd 295a 623e ea0e 2cbd 5dc1 063d
00000060: 7b50 54bb 70f2 363e 6d12 f03a a4a5 293e
00000070: 4cd0 bfbe dcb3 5b3c 14ec 0cbe 765a d1bd
00000080: 1777 223e 77c5 a7bd 09ac 39be a02a fdbd
00000090: aea6 843e 6050 773e be82 c1bd 6e7c 0e3e
000000a0: 0696 013e 9bdf a53d fdae 8a3e ae98 073e
000000b0: 2820 783e d882 143e 24e2 f0bd 182f 41bd
000000c0: c6a4 ae3e 621b 15be 40fd a1bd 9994 bb3e
000000d0: 6601 693d 27aa d5bd e38d 49bc a444 37be
000000e0: f417 2b3d c240 9c3d 1b60 e7bd 0801 863e
000000f0: ecde b53d bcb7 acbd 5178 23bd e7ab 33bc
00000100: ed34 01be 7d3f d1bd b042 b3bc 509d 0d3e
00000110: f55b a8be 76fa b9bd efdd fc3d 3358 873d
00000120: ffae 6a3d b824 633c 8b83 dd3d 0a32 3dbd
00000130: 1b5a a03d 87a9 afbd bc26 a7bd b203 58bc
00000140: 6e3d cdbc dd88 06bd f83d fbbd 7b89 84bd
00000150: eb34 a93d 8fb3 8dbd 4e04 233e 7f7c eebd
00000160: 67a0 ddbd 6c3b a9bd d461 48bc f593 193d
00000170: 1278 d2bd 8ac7 603d 3044 90bd 62e3 5bbe
00000180: b5fe 85bc 6a70 02be 4d6b 983c e383 033d
00000190: 9324 afbe 2054 22bd c87b 023e 7409 fd3d
000001a0: e64b 32bc 0872 133e 1f2f 6bbe 19b0 09bd
000001b0: f23c 15be 772f f13d 632d 0d3e c5c9 65be
000001c0: 6210 873d 20c5 043e 9f53 2a3e 9151 61bd
000001d0: f43c 7b3c 952f 6b3d 9f8c ffbd 56b6 ea3d
000001e0: 3ec3 683d c8ef 0b3d 91ab 82bd 6e4b 59bd
000001f0: 6d16 4c3e c5a3 d4bd 388f e2bc f298 1e3e
00000200: d971 aa3d 4836 2e3e f63f 00bd 4ef5 b239
00000210: 4b3c 5b3d 414a 1d3e 53d2 68bd 2bc5 ffbc
00000220: 818f cb3d 01ce 5abd 023a 7cbd fd2b 0bbd
00000230: 8174 353e fea9 353e 071d 5e3d 123a 92be
00000240: 3563 2bbd 3da9 89bd 811d c53d e1d4 1cbd
00000250: 3bdf 243e 6d5f cfbd f744 75bd 347b 8ebd
00000260: 5a80 c7bd 8f62 2f3e 5662 b5bd f186 ba3d
00000270: 01fb 4bbe 440c dd3c 87a7 23be c2e8 3bbb
00000280: e3e3 e23d 9864 173e 30fb 1abe 92cb cf3c
00000290: 4644 3cbe cf90 fc3d 5aaa cf3c bccd f7bc
000002a0: 01a2 c33d 7193 1ebd 88bf a13d d656 c93d
000002b0: a7f0 2abd d380 19be 18b3 5dbe da77 903d
000002c0: c57d ec3c b576 043e e957 183e 15fd 38be
000002d0: a726 333e 4b3d 1fbc ef20 17be f910 b3bd
000002e0: a64d 733d 843e 303d eb48 34be f488 2a3d
000002f0: 53d8 3bbe 57e5 a6be 918c 01bd 8d72 203e
00000300: b83b 9cbc dafe f33d 70e7 6bbe 6f84 d7bc
00000310: d897 b73d 0b31 c93d 1867 023e 1eff 2d3e
00000320: 01c7 ce3c 4ff6 4f3d cc99 6e3d c1bd bcbc
00000330: 86d2 56bd febf a8bd ad9c aebe 14c4 773c
00000340: 8c01 2ebd ff16 efbd b8f8 88bc f0b9 dabd
00000350: 7181 b93d e3d9 853e 019c 38bd 96e7 cdbd
00000360: cdfd 9ebc bbbf a8bc f625 1bbe 42cd b5bd
00000370: 3c8c a0bd 9022 a7be f12c 203e dbcb 1f3e
00000380: 5bb7 dbbd a2bd 72bd 5576 793c fbd7 0d3e
00000390: 6a23 c73d 8c5e 65bd 4948 27bd 5311 1e3e
000003a0: fa6b 9c3d eb4d 67bc fe4a 4b3e fcd9 c5bd
000003b0: cdfe 8e3e cae3 2c3e 69dc 51be 32ec 303e
000003c0: 0aa7 d8bd 0117 85bd c64f 33be d936 05be
000003d0: 4b1e 11bd 2770 ea3d 5503 073e a58d f4bd
000003e0: b41a cbbd 7e76 39be 14eb cdbb 2e59 f13c
000003f0: 75ef d7bc 8faa 643d a2d5 b03d ea13 37be

model.encoder.eb_encoder.0.4.bias f4 [32]
0.010587402 -0.14682995 -0.016628563 0.095840886 0.049277913 0.10730233 0.051305722 0.06816703
0.16281068 0.015492633 0.16369298 0.040182363 -0.10226103 -0.16135205 -0.017368058 0.20648146
-0.0652155 -0.112258114 0.12856174 -0.04734273 0.10692316 0.12848923 0.13815899 -0.20468087
0.25854963 -0.10564762 0.066856585 -0.15815273 -0.20381603 -0.023719307 0.13883881 -0.031903207
00000000: c876 2d3c 975a 16be a038 88bc 3a48 c43d
00000010: a3d7 493d 53c1 db3d f325 523d 289b 8b3d
00000020: d8b7 263e d0d4 7d3c 229f 273e 4396 243d
00000030: 3b6e d1bd 7939 25be 7547 8ebc e06f 533e
00000040: b48f 85bd 95e7 e5bd b0a5 033e 73ea 41bd
00000050: 88fa da3d ae92 033e 8d79 0d3e dd97 51be
00000060: 9e60 843e c85d d8bd 1bec 883d caf2 21be
00000070: 26b5 50be fe4e c2bc c32b 0e3e f0ac 02bd

model.encoder.eb_encoder.0.6.weight f4 [32, 32]
-0.025575044 -0.017113322 -0.0034752735 -0.13188803 -0.1254111 -0.016550876 -0.30971047 -0.050741293
-0.12030057 -0.13329408 0.051623326 -0.07261667 -0.1539705 0.0010610417 -0.0024217647 -0.11807314
-0.059985258 0.007392431 -0.1486602 0.023033693 0.074301064 -0.023156011 -0.029291317 -0.19542243
0.13272755 0.0761177 0.25188652 -0.15904161 0.11416122 0.13663717 -0.08043376 0.16939752
0.028631581 0.046032086 -0.21944793 0.15045889 -0.14294568 -0.13520184 -0.054561585 -0.26747054
-0.112205155 0.04296257 -0.1419224 -0.06127556 -0.12384438 -0.05994076 -0.19066267 -0.0753503
0.041385747 -0.024357513 -0.037884004 -0.1956506 0.15552226 -0.11595839 -0.027331492 -0.05714189
0.28011504 0.12701327 -0.028023882 -0.318479 -0.0838191 0.26486862 -0.14673789 0.18582384
0.2478474 -0.115539424 0.059996147 0.033965986 -0.055865984 0.091158725 0.29849422 0.02325705
-0.05550904 -0.09349444 -0.052520774 -0.04819314 0.020161994 0.11990995 -0.09742993 0.021708297
0.1565236 -0.09615485 -0.038994182 -0.051258877 0.052356023 0.14741081 -0.089346215 0.101789154
0.047867987 0.0986391 -0.2136158 0.12647614 -0.0471627 0.015937783 -0.15210082 0.010297018
-0.08629694 -0.18792453 -0.102150865 0.08122295 0.1402569 -0.23823112 -0.02282682 0.12644146
0.20454322 0.08500502 0.116225965 0.13956298 -0.11157022 0.031014167 -0.10765549 -0.091509044
-0.22443882 -0.0796972 -0.14403366 0.0072473963 -0.08067203 -0.040465217 0.22199024 -0.14401077
0.028480165 -0.11853614 -0.08138236 0.058863506 -0.16199595 -0.08975641 0.033791285 -0.14987345
-0.14826933 -0.21114786 -0.00022007621 0.07200059 -0.010980885 0.04228368 0.25526175 -0.043236423
-0.0018270581 0.2460155 -0.18249206 0.15552539 -0.1355946 -0.026382538 0.07752783 -0.0841491
0.018174 0.12389176 -0.08508636 0.010129674 0.14803302 -0.106393956 -0.18819338 0.1888889
-0.02697809 -0.071228154 -0.119283184 0.019498276 0.18569529 -0.15619776 0.14637664 0.047145415
0.06536702 0.046049755 0.03548125 -0.07046923 0.053994093 -0.1470582 -0.050846476 -0.15251055
0.16622916 -0.045039855 -0.024598615 0.10327435 -0.19113868 0.14407372 -0.08390209 0.06595263
-0.26128247 -0.07051768 0.15943983 0.11490774 -0.0050978675 0.15954824 0.082106866 -0.076874204
-0.10450774 -0.06185546 0.08618331 -0.14271751 0.11015359 0.007501118 0.17147648 -0.07969914
-0.10062358 -0.038568024 -0.1243987 -0.17531697 0.11515243 0.1682519 0.013188462 -0.1253547
0.21978283 0.060305275 0.13624826 0.11356425 -0.10169837 -0.04167074 0.12550674 0.034122847
0.15464531 -0.20947729 -0.007073721 0.009059855 -0.011267168 0.09999584 0.22167781 -0.09243896
-0.18712357 -0.17362373 0.15842167 0.10313389 -0.03319756 0.14602873 -0.04310991 -0.056844976
0.18999074 0.024695035 0.18493064 -0.15974183 0.1966988 0.00092122087 0.043607008 0.23414591
0.04677134 -0.1203081 -0.18499342 0.13049002 0.1736791 -0.12660895 0.04801846 -0.21392497
-0.11671887 -0.09708222 -0.04125072 0.099907845 0.28523126 -0.12497785 -0.027094511 0.033095613
-0.23424314 0.16271466 -0.13426106 0.036144618 0.02718978 -0.085802235 -0.030964203 0.025811044
00000000: c182 d1bc 3d31 8cbc 6ac1 63bb a80d 07be
00000010: c46b 00be b495 87bc 5f92 9ebe 1ad6 4fbd
00000020: 2560 f6bd 3e7e 08be fb72 533d 0cb8 94bd
00000030: 71aa 1dbe a712 8b3a 78b6 1ebb 55d0 f1bd
00000040: 1ab3 75bd 353c f23b 613a 18be 28b1 bc3c
00000050: 282b 983d adb1 bdbc 58f4 efbc d11c 48be
00000060: bbe9 073e 99e3 9b3d 45f7 803e cedb 22be
00000070: 5ccd e93d 9dea 0b3e 75ba a4bd 8b76 2d3e
00000080: c78c ea3c 248c 3c3d f5b6 60be e511 1a3e
00000090: 5a60 12be 5a72 0abe f87b 5fbd e6f1 88be
000000a0: d1cb e5bd 85f9 2f3d 1b54 11be 15fc 7abd
000000b0: 1fa2 fdbd 7184 75bd 133d 43be 4251 9abd
000000c0: 1a84 293d 6889 c7bc 422c 1bbd a258 48be
000000d0: 3a41 1f3e 987b edbd 4be6 dfbc 9d0d 6abd
000000e0: 3d6b 8f3e c40f 023e 5792 e5bc ae0f a3be
000000f0: 59a9 abbd dc9c 873e 7542 16be 9b48 3e3e
00000100: b5cb 7d3e ef9f ecbd 85be 753d eb1f 0b3d
00000110: bbd3 64bd 6db1 ba3d 3cd4 983e 9285 be3c
00000120: 725d 63bd 037a bfbd 0620 57bd 2c66 45bd
00000130: c42a a53c 5993 f53d 5889 c7bd 99d5 b13c
00000140: b947 203e d6ec c4bd 5db8 1fbd d4f4 51bd
00000150: 4573 563d dcf2 163e 26fb b6bd d576 d03d
00000160: 3911 443d 4c03 ca3d 1abe 5abe f682 013e
00000170: ad2d 41bd f48f 823c 51c0 1bbe d3b4 283c
00000180: 73bc b0bd 4a6f 40be 7934 d1bd 3858 a63d
00000190: 819f 0f3e dcf2 73be 50ff babc df79 013e
000001a0: c773 513e 1d17 ae3d e107 ee3d 99e9 0e3e
000001b0: ed7e e4bd 6c11 fe3c 7b7a dcbd 1869 bbbd
000001c0: 4ad3 65be 4938 a3bd 8f7d 13be 917b ed3b
000001d0: 6137 a5bd dbbe 25bd 6951 633e 8f77 13be
000001e0: 3c4f e93c 13c3 f2bd cbab a6bd dc1a 713d
000001f0: 44e2 25be 35d2 b7bd bb68 0a3d 6d78 19be
00000200: ead3 17be 2537 58be 42c4 66b9 0c75 933d
00000210: 2be9 33bc a731 2d3d abb1 823e ad18 31bd
00000220: e679 efba 7deb 7b3e 33df 3abe 0c42 1f3e
00000230: 50d9 0abe 3120 d8bc e9c6 9e3d 5d56 acbd
00000240: a4e1 943c f7ba fd3d c241 aebd eff6 253c
00000250: f895 173e 13e5 d9bd c4b5 40be 186c 413e
00000260: 2801 ddbc 11e0 91bd be4a f4bd d9ba 9f3c
00000270: e826 3e3e 4ef2 1fbe c2e3 153e 8d1b 413d
00000280: 25df 853d ab9e 3c3d ca54 113d 2c52 90bd
00000290: e928 5d3d 6d96 16be 6544 50bd ba2b 1cbe
000002a0: fa37 2a3e b67b 38bd 0983 c9bc 8181 d33d
000002b0: dcb9 43be 1088 133e dcd4 abbd 2c12 873d
000002c0: d1c6 85be 936b 90bd 3244 233e c054 eb3d
000002d0: 030c a7bb 9d60 233e a527 a83d 3970 9dbd
000002e0: 2708 d6bd 275c 7dbd e080 b03d 8a24 12be
000002f0: 3598 e13d f0cb f53b 8897 2f3e 4d39 a3bd
00000300: bc13 cebd 81f9 1dbd bfc4 febd 4b86 33be
00000310: 0ad5 eb3d 3a4a 2c3e 6b14 583c fc5c 00be
00000320: c00e 613e aa02 773d aa84 0b3e 6094 e83d
00000330: 3c47 d0bd f0ae 2abd d784 003e 66c4 0b3d
00000340: 575b 1e3e 3781 56be acca e7bb c96f 143c
00000350: ee99 38bc 9eca cc3d 82ff 623e a350 bdbd
00000360: 529d 3fbe 6bca 31be 4a39 223e dc37 d33d
00000370: 2afa 07bd 8e88 153e 0494 30bd 47d6 68bd
00000380: ef8c 423e 3e4d ca3c 755e 3d3e 5d93 23be
00000390: 696b 493e 167e 713a 439d 323d f2c3 6f3e
000003a0: 4e93 3f3d 1864 f6bd ea6e 3dbe 2d9f 053e
000003b0: efd8 313e c7a5 01be 01af 443d 260f 5bbe
000003c0: 4e0a efbd 0bd3 c6bd 84f6 28bd 7c9c cc3d
000003d0: d509 923e 63f4 ffbd 4ff5 ddbc 448f 073d
000003e0: 6fdd 6fbe ac9e 263e bb7b 09be 610c 143d
000003f0: 1abd de3c 15b9 afbd a4a8 fdbc af71 d33c

model.encoder.eb_encoder.0.6.bias f4 [32]
0.17917499 0.09293291 -0.04901886 0.1587492 -0.201243 0.13003662 -0.034088768 0.05550724
-0.033760358 0.004476537 0.12109635 0.19475053 0.07704987 -0.029991118 0.097154155 -0.053694583
0.092835754 -0.13687505 -0.13729623 -0.20517127 0.027363028 0.00025223367 -0.17452909 -0.065685034
-0.14434485 0.029220533 0.1229504 0.05779393 -0.010845577 -0.2022648 -0.08499245 0.051125497
00000000: a679 373e 9c53 be3d 00c8 48bd 268f 223e
00000010: a512 4ebe 5228 053e aaa0 0bbd 8f5b 633d
00000020: 4d48 0abd eaaf 923b 5d01 f83d af6c 473e
00000030: 52cc 9d3d efaf f5bc c2f8 c63d daee 5bbd
00000040: ac20 be3d f928 0cbe 6297 0cbe 6b18 52be
00000050: 6e28 e03c 3b3e 8439 c1b7 32be e085 86bd
00000060: 23cf 13be e65f ef3c 6bcd fb3d 54b9 6c3d
00000070: a6b1 31bc 811e 4fbe 8610 aebd f868 513d

model.encoder.eb_encoder.1.weight f4 [32]
1.0829324 1.1127734 1.2792951 1.3048322 1.3407079 1.2277614 1.3930923 1.1880763
1.4984165 1.2419178 1.0811394 1.0695324 1.2286311 0.9726546 1.047191 1.4199914
1.1875316 1.1445705 1.059066 1.3230267 1.3078754 1.1655954 1.1092249 0.97946
1.0299783 1.1414232 1.2561084 1.1470797 0.943864 1.2529622 1.0921123 1.1295328
00000000: 879d 8a3f 5c6f 8e3f f1bf a33f be04 a73f
00000010: 519c ab3f 4927 9d3f d950 b23f e212 983f
00000020: 1dcc bf3f 2af7 9e3f c762 8a3f 70e6 883f
00000030: c943 9d3f e4ff 783f 5b0a 863f 47c2 b53f
00000040: 0901 983f 4981 923f 7a8f 873f f058 a93f
00000050: 7668 a73f 3b32 953f 15fb 8d3f e4bd 7a3f
00000060: 54d6 833f 281a 923f 29c8 a03f 82d3 923f
00000070: 12a1 713f 1161 a03f 56ca 8b3f 8894 903f

model.encoder.eb_encoder.1.bias f4 [32]
-0.021662336 -0.01748899 -0.017032212 0.0010341513 -0.008441838 0.0028670456 -0.009376636 -0.011249394
-0.020757884 -0.017949734 0.0012637802 -0.0279209 0.013098607 0.072344445 -0.029421397 0.014475774
0.0034438935 -0.020607062 0.05815228 -0.0013177949 0.0057230648 -0.019072903 0.0335025 -0.006483743
-0.016140664 0.03734353 0.021643834 0.0566413 0.043181587 -0.0072828056 -0.013835429 0.015650278
00000000: 3675 b1bc 1245 8fbc 2387 8bbc 5c8c 873a
00000010: a34f 0abc 0be5 3b3b 76a0 19bc 614f 38bc
00000020: 700c aabc 520b 93bc 6da5 a53a 5fba e4bc
00000030: 8a9b 563c 5329 943d 2405 f1bc cc2b 6d3c
00000040: f2b2 613b 24d0 a8bc 1631 6e3d dcb9 acba
00000050: 8c88 bb3b c73e 9cbc eb39 093d 9475 d4bb
00000060: 6d39 84bc 88f5 183d 694e b13c b500 683d
00000070: 2ddf 303d 9aa4 eebb ffad 62bc 0335 803c

model.encoder.nb_encoder.0.0.weight f4 [32, 6]
-0.47431964 -0.1334057 -0.074919134 -0.18688829 -0.13113594 -0.23403113 -0.19970782 0.2837332
0.3293265 -0.035383165 -0.14788945 0.080445774 -0.35308608 -0.3496577 0.27060676 -0.4779229
0.017372824 -0.27001515 -0.040320426 -0.5913537 -0.37313303 -0.019089699 0.12052502 0.07351614
0.0037507766 -0.36949188 0.339491 -0.09703894 0.06375754 0.13392073 -0.16522846 -0.26897004
-0.017388191 0.100554496 -0.41114384 0.3524497 0.3448522 -0.20293337 -0.05460207 -0.09584257
-0.25633115 -0.39504418 -0.17471932 0.24953586 0.05507472 -0.20907837 -0.35222 0.25635242
0.45042303 -0.121917345 -0.17887224 -0.26826808 0.07833334 -0.17954662 0.138111 -0.12015851
0.050658166 -0.3826058 0.32704046 0.24307519 0.7377734 0.2406804 -0.07031044 -0.12116711
-0.15121022 -0.234846 -0.16810891 -0.4078151 0.025591932 -0.1867029 -0.23964441 0.21184579
-0.19060133 0.336077 0.086762585 -0.15310694 0.07286871 -0.22317688 -0.10724814 0.0016751118
-0.14372605 0.19072947 -0.4239612 0.2667715 0.11472274 0.14676304 -0.3347875 0.12445327
0.21855757 -0.31939694 0.052139908 0.31726354 -0.30970258 0.15680932 -0.082718715 -0.075909674
0.059299346 -0.15417224 -0.15326934 -0.27452642 0.10257186 0.13228422 -0.0812966 0.078622594
-0.1970179 -0.19204657 0.21889132 -0.34694222 -0.13132131 0.09520046 0.33266684 -0.19745377
0.053571034 -0.4024369 -0.0800804 -0.13865218 -0.036293577 0.29472417 -0.34809113 -0.18529025
0.22680072 -0.14781357 -0.05639156 -0.19717884 0.1304764 -0.27835485 -0.19945325 -0.15046026
-0.006090081 -0.0775837 -0.091915935 0.24286136 -0.011898814 -0.29174626 -0.0055988203 0.28667256
-0.109334886 0.1659311 -0.053576287 -0.16384178 0.110853836 -0.018156754 -0.077022776 -0.33973223
-0.11816343 0.12924011 0.103618726 -0.30593386 -0.43705335 -0.4014545 0.42135084 0.020774553
0.06897022 -0.45288876 0.27708632 -0.13769229 0.45673972 0.31108814 0.12029789 0.12179857
0.32486314 -0.36116058 0.4513009 -0.17529982 0.30992892 0.22500059 -0.3483695 0.105946384
0.4022031 -0.116550826 0.030785229 -0.21254133 -0.22348988 -0.32983863 0.11462836 0.24546458
0.18401526 -0.21551786 0.03185582 0.06786892 0.04632807 0.26651436 -0.17905562 0.5217692
-0.17019892 0.07919992 0.2460551 0.29323852 0.044074908 -0.22500747 -0.40470338 -0.17290308
00000000: 06da f2be 819b 08be 346f 99bd a55f 3fbe
00000010: 8048 06be dba5 6fbe 3580 4cbe 7a45 913e
00000020: 7c9d a83e f0ed 10bd 5570 17be c1c0 a43d
00000030: b3c7 b4be 5606 b3be f88c 8a3e 4fb2 f4be
00000040: 7451 8e3c 6d3f 8abe 0827 25bd f562 17bf
00000050: 4b0b bfbe 0062 9cbc d2d5 f63d a18f 963d
00000060: 97cf 753b 0a2e bdbe c4d1 ad3e 5abc c6bd
00000070: 5093 823d 8422 093e a631 29be 71b6 89be
00000080: ae71 8ebc 84ef cd3d 7281 d2be 4974 b43e
00000090: 7890 b03e c4cd 4fbe 6ca6 5fbd 1c49 c4bd
000000a0: d63d 83be 3b43 cabe 9fe9 32be 5486 7f3e
000000b0: 0896 613d a418 56be 2e56 b4be a040 833e
000000c0: d99d e63e cdaf f9bd 492a 37be 6f5a 89be
000000d0: 3b6d a03d 12db 37be f86c 0d3e aa15 f6bd
000000e0: f07e 4f3d e8e4 c3be d971 a73e b4e8 783e
000000f0: b8de 3c3f ec74 763e ecfe 8fbd 7626 f8bd
00000100: dad6 1abe 787b 70be be24 2cbe 24cd d0be
00000110: 2ca6 d13c 0c2f 3fbe 5865 75be 1aee 583e
00000120: ff2c 43be 4912 ac3e 95b0 b13d 11c8 1cbe
00000130: 313c 953d 7b88 64be eaa4 dbbd 6d8f db3a
00000140: ec2c 13be 964e 433e 7111 d9be 4696 883e
00000150: c2f3 ea3d 0d49 163e 4469 abbe 5be1 fe3d
00000160: 8ecd 5f3e ff87 a3be a890 553d 5e70 a23e
00000170: 5691 9ebe 9f92 203e 6e68 a9bd 8876 9bbd
00000180: dfe3 723d 54df 1dbe a3f2 1cbe ba8e 8cbe
00000190: 3211 d23d 8475 073e d57e a6bd e204 a13d
000001a0: 0fbf 49be dba7 44be 0c25 603e 69a2 b1be
000001b0: 1879 06be 75f8 c23d 4f53 aa3e 5231 4abe
000001c0: 4d6d 5b3d 360c cebe 3101 a4bd d6fa 0dbe
000001d0: 93a8 14bd 16e6 963e 0039 b2be babc 3dbe
000001e0: 733e 683e 715c 17be d6fa 66bd 40e9 49be
000001f0: 9b9b 053e 8784 8ebe 793d 4cbe 4112 1abe
00000200: 4d8f c7bb 34e4 9ebd 6c3e bcbd a6b0 783e
00000210: 3ef3 42bc c45f 95be 4f76 b7bb bfc6 923e
00000220: f8ea dfbd d8e9 293e cf72 5bbd 24c6 27be
00000230: 5607 e33d 79bd 94bc 1ebe 9dbd 62f1 adbe
00000240: abff f1bd 8557 043e 0e36 d43d 5da3 9cbe
00000250: 75c5 dfbe 728b cdbe 4cbb d73e 652f aa3c
00000260: 4240 8d3d 09e1 e7be 42de 8d3e 35ff 0cbe
00000270: cad9 e93e f246 9f3e bd5e f63d 8771 f93d
00000280: 7654 a63e 0aea b8be e910 e73e cc81 33be
00000290: 01af 9e3e 8e66 663e 7d5d b2be 6bfa d83d
000002a0: 91ed cd3e 33b2 eebd 4e31 fc3c 6fa4 59be
000002b0: 88da 64be 9ce0 a8be 46c2 ea3d 115b 7b3e
000002c0: 7f6e 3c3e b7b0 5cbe 407b 023d dcfe 8a3d
000002d0: 81c2 3d3d 9274 883e 5b5a 37be ab92 053f
000002e0: a048 2ebe 9133 a23d def5 7b3e 5c23 963e
000002f0: e487 343d 5c68 66be 4835 cfbe 810d 31be

model.encoder.nb_encoder.0.0.bias f4 [32]
0.4685543 -0.4571337 0.43962547 -0.06294509 0.15268736 0.046184402 -0.35464475 -0.43720946
-0.053820133 -0.29076865 -0.12224702 0.33570513 0.2752133 -0.4574374 0.16003035 -0.27830884
0.18811466 0.17695576 -0.38866478 0.050763723 -0.22780415 -0.039960492 0.00368266 0.08085085
0.07247653 0.12630093 -0.21906197 -0.16455284 0.24821097 -0.4595109 0.054740675 -0.45340455
00000000: 59e6 ef3e 6e0d eabe 9716 e13e 5be9 80bd
00000010: 135a 1c3e db2b 3d3d ff93 b5be ebd9 dfbe
00000020: 8072 5cbd a1df 94be a55c fabd 8be1 ab3e
00000030: c2e8 8c3e 3c35 eabe ffde 233e 7f7e 8ebe
00000040: 21a1 403e e433 353e 12ff c6be 9fed 4f3d
00000050: 7e45 69be 9dad 23bd c858 713b 2195 a53d
00000060: 936e 943d 0855 013e c851 60be 8a80 28be
00000070: 042b 7e3e 0345 ebbe c237 603d a424 e8be

model.encoder.nb_encoder.0.2.weight f4 [32, 32]
0.30716285 0.10323988 0.0299588 -0.22685583 0.031401973 -0.028240371 0.030003224 -0.051698998
-0.010021677 -0.053135097 0.025187414 -0.18316844 0.19456004 -0.0462676 0.12395049 0.23039158
-0.009264601 -0.101335794 -0.17621177 -0.114726976 0.054183356 0.10706697 0.14554867 -0.1211669
0.021613995 -0.047415603 0.08221365 -0.07579113 -0.015501255 0.16001783 0.10164316 0.0019849024
-0.04314911 0.064665265 -0.04719727 -0.06286608 0.07825554 -0.011737584 -0.128918 0.09561861
-0.27190343 -0.024370845 -0.14398839 -0.022580678 -0.23805682 0.17297994 0.012944772 -0.05434143
0.07606605 0.11833397 0.080503866 -0.046588633 0.13849673 0.17441186 0.2497806 -0.15933809
0.08813932 -0.10684243 -0.054913957 -0.045530215 -0.054296885 -0.022046793 -0.062933564 0.05571943
0.14569096 -0.02674337 0.13815658 0.10823453 -0.09000631 -0.07500704 -0.046137027 -0.014277323
0.1108209 0.15327507 -0.14591692 -0.026319554 -0.0856468 -0.08134012 0.014502351 0.163561
-0.17526463 0.16416113 0.09451222 0.16761819 0.06711677 -0.19742207 0.2839633 -0.11234547
-0.055217445 -0.024674267 -0.06581447 0.05929855 0.040914103 0.16832763 0.20531344 0.1732715
0.11416036 -0.025626702 -0.15888715 0.10284388 0.13386436 0.0110411635 0.09267144 0.022520917
-0.2449522 -0.0005302319 -0.25023943 -0.12093872 0.15984689 0.06623252 -0.11259971 0.19892503
0.003054954 0.09571555 -0.12900165 0.048678514 0.09217838 -0.09119095 0.18857306 0.123414576
-0.13810663 -0.24603377 -0.025034722 0.15314485 -0.15550272 -0.08901422 -0.15574823 0.1821348
-0.16193801 -0.100215934 -0.4832536 0.5575879 -0.19001906 0.023249323 -0.07380253 0.05116222
0.005138336 0.07555134 0.24731685 -0.061398312 -0.121347405 0.07408022 -0.07392272 0.18089484
-0.14148797 0.17585349 -0.08540739 -0.14394769 0.031198362 0.123355575 0.130012 0.09409452
0.1451792 0.31602204 -0.2419476 -0.13739032 0.012045152 0.027895244 0.059898686 -0.19468649
0.011240061 0.14231853 0.07901156 -0.43000656 -0.00079961226 -0.122990236 0.17124137 0.054994598
0.0045809024 0.10150884 -0.27843755 0.116051175 -0.086900406 0.01046673 -0.08461886 0.13104233
0.07828528 0.056798123 -0.1084616 -0.049826227 -0.15668088 0.06986888 -0.115964144 0.0021682568
-0.25591767 0.08556941 0.08055518 0.059354275 -0.1862403 -0.19127166 -0.11247894 -0.16567819
-0.15373039 0.04264205 0.19299638 -0.014617955 -0.05494366 0.16932699 -0.16984873 -0.04898737
-0.5249269 -0.024559096 -0.20122026 0.16627362 -0.14689367 -0.11824534 -0.037157863 0.14672005
0.00073315675 -0.13583674 0.052327357 0.009732474 0.17087293 0.023941377 0.01585076 -0.12718943
-0.10433407 0.055940647 -0.11048935 0.048944183 -0.42919233 -0.16704772 0.01315507 -0.07969679
-0.011565966 0.17510833 -0.15480688 0.41537064 -0.22906446 0.14730379 -0.16950372 -0.082426034
-0.15177624 -0.019163659 0.052060895 -0.13723506 0.09805244 0.16269569 0.052947335 0.174122
0.04234444 -0.08086899 -0.0923244 0.032214638 0.06856502 0.13622588 -0.05591555 -0.029736515
-0.10061615 -0.104337655 -0.15485257 0.12758838 0.0012676404 0.17330371 0.11207052 -0.20617452
00000000: 7344 9d3e 6e6f d33d 286c f53c e54c 68be
00000010: 5b9f 003d 5a58 e7bc 52c9 f53c 54c2 53bd
00000020: f631 24bc 30a4 59bd d655 ce3c 8290 3bbe
00000030: bf3a 473e 1883 3dbd c1d9 fd3d c5eb 6b3e
00000040: 8eca 17bc 2489 cfbd dc70 34be faf5 eabd
00000050: 5eef 5d3d ed45 db3d b60a 153e 5a26 f8bd
00000060: d50f b13c dd36 42bd a15f a83d 6138 9bbd
00000070: faf8 7dbc b7db 233e 4a2a d03d 2315 023b
00000080: 1fbd 30bd 396f 843d ed51 41bd eebf 80bd
00000090: 7144 a03d ff4e 40bc 1503 04be b1d3 c33d
000000a0: ed36 8bbe 5ea5 c7bc b171 13be 1dfb b8bc
000000b0: 2bc5 73be a721 313e 4f16 543c 1f95 5ebd
000000c0: 84c8 9b3d 1559 f23d 36df a43d b9d3 3ebd
000000d0: 16d2 0d3e 0699 323e 7cc6 7f3e 8629 23be
000000e0: 6382 b43d 34d0 dabd 75ed 60bd e47d 3abd
000000f0: 6966 5ebd 7a9b b4bc 50e3 80bd 0f3a 643d
00000100: 0330 153e e914 dbbc eb78 0d3e 11aa dd3d
00000110: 3a55 b8bd 4a9d 99bd 2efa 3cbd 6feb 69bc
00000120: 11f6 e23d 24f4 1c3e 3f6b 15be 1b9c d7bc
00000130: 9767 afbd a695 a6bd 459b 6d3c 897c 273e
00000140: 9278 33be db19 283e 9f8f c13d 1aa4 2b3e
00000150: 8474 893d 0329 4abe a363 913e 6215 e6bd
00000160: b02b 62bd b021 cabc bdc9 86bd 09e3 723d
00000170: 8c95 273d 145e 2c3e b03d 523e 166e 313e
00000180: e8cc e93d 17ef d1bc 50b3 22be d09f d23d
00000190: bd13 093e ffe5 343c 86ca bd3d c97d b83c
000001a0: c0d4 7abe 43ff 0aba 621f 80be b8ae f7bd
000001b0: e7ae 233e eaa4 873d ad9a e6bd 01b3 4b3e
000001c0: a035 483b 8406 c43d 0219 04be 1f63 473d
000001d0: 05c8 bc3d 52c2 babd 4c19 413e c8c0 fc3d
000001e0: d36b 0dbe 47f0 7bbe 9e15 cdbc 01d2 1c3e
000001f0: 1b3c 1fbe 164d b6bd 777c 1fbe 8c81 3a3e
00000200: 14d3 25be 033e cdbd 046d f7be 15be 0e3f
00000210: 5b94 42be 5d75 be3c c825 97bd 7a8f 513d
00000220: 7d5f a83b a9ba 9a3d a140 7d3e cc7c 7bbd
00000230: fd84 f8bd 5fb7 973d cc64 97bd 7f3c 393e
00000240: 39e2 10be f012 343e 12ea aebd 0667 13be
00000250: b593 ff3c d9a1 fc3d de21 053e a1b4 c03d
00000260: dba9 143e a4cd a13e 1dc1 77be 0cb0 0cbe
00000270: 0759 453c 9184 e43c 5358 753d e55b 47be
00000280: 3c28 383c f3bb 113e d0d0 a13d d229 dcbe
00000290: 129d 51ba 4ee2 fbbd e659 2f3e 0442 613d
000002a0: 651b 963b dee3 cf3d 5e8f 8ebe 3dac ed3d
000002b0: d7f8 b1bd a67c 2b3c a74c adbd f62f 063e
000002c0: 0854 a03d 26a5 683d 1e21 debd 9616 4cbd
000002d0: f470 20be 6a17 8f3d 9c7e edbd 5019 0e3b
000002e0: a407 83be 043f af3d 1dfa a43d 781d 733d
000002f0: c7b5 3ebe b8dc 43be 5c5b e6bd 8ba7 29be
00000300: 806b 1dbe 6ea9 2e3d d8a0 453e 2680 6fbc
00000310: 9a0c 61bd 0e64 2d3e d3ec 2dbe fba6 48bd
00000320: 9c61 06bf 2830 c9bc af0c 4ebe a243 2a3e
00000330: 4b6b 16be 9d2a f2bd d832 18bd c83d 163e
00000340: 5131 403a c918 0bbe 3655 563d f474 1f3c
00000350: 50f9 2e3e b520 c43c 74d9 813c f23d 02be
00000360: 1aad d5bd 0522 653d 3e48 e2bd b279 483d
00000370: 19bf dbbe 8f0e 2bbe 5d88 573c 1238 a3bd
00000380: 2d7f 3dbc 994f 333e b285 1ebe 76ab d43e
00000390: e08f 6abe ced6 163e 6292 2dbe fbce a8bd
000003a0: 3b6b 1bbe 1bfd 9cbc ce3d 553d 5987 0cbe
000003b0: b8cf c83d b399 263e 4edf 583d 0a4d 323e
000003c0: 5d71 2d3d a49e a5bd 9314 bdbd 7ff3 033d
000003d0: d16b 8c3d cc7e 0b3e b407 65bd fe99 f3bc
000003e0: d70f cebd fbae d5bd ac91 1ebe 87a6 023e
000003f0: f426 a63a 8776 313e 3b85 e53d 6a1f 53be

model.encoder.nb_encoder.0.2.bias f4 [32]
-0.22518308 -0.06578666 -0.13406749 -0.17509641 -0.107507594 0.18676761 0.1357135 -0.2028224
-0.02141934 -0.14823508 -0.18028201 -0.14660493 0.13723673 0.16718973 -0.069491796 -0.18296923
-0.055216342 0.047080684 -0.056439597 -0.03912303 -0.060821496 0.1605921 -0.004602541 0.11196006
0.122893974 -0.18232867 -0.08515016 -0.11845401 -0.007379041 0.0017311954 -0.05666595 0.11915089
00000000: 6596 66be 28bb 86bd fd48 09be 794c 33be
00000010: f12c dcbd 0240 3f3e 7bf8 0a3e adb0 4fbe
00000020: 9d77 afbc f0ca 17be d99b 38be 9a1f 16be
00000030: c987 0c3e c933 2b3e b751 8ebd 495c 3bbe
00000040: 882a 62bd add7 403d 352d 67bd 783f 20bd
00000050: f61f 79bd 4172 243e ead0 96bb 514b e53d
00000060: d6af fb3d 5eb4 3abe 3563 aebd 0498 f2bd
00000070: e2cb f1bb 47e9 e23a 8e1a 68bd 6205 f43d

model.encoder.nb_encoder.0.4.weight f4 [32, 32]
0.07957996 -0.06137557 -0.06821942 0.020617813 -0.012821766 -0.03477014 -0.085090734 -0.060933355
0.042735975 -0.039491136 0.00628843 0.07315032 -0.07993648 -0.085564956 -0.32966718 0.12352548
0.22381133 0.017160911 0.09679818 -0.018174605 0.12926102 0.041169602 0.0941338 0.12039537
-0.0028204452 0.122862935 0.13390447 -0.12926883 0.042614903 -0.12403347 -0.09634178 -0.08534561
0.03961413 0.014833053 -0.07832649 -0.12370151 0.02084378 -0.14605272 0.115265585 -0.21995148
-0.062555835 0.046487045 0.14983718 -0.22212122 0.39989248 0.19197987 -0.06877584 -0.2549018
-0.024900015 -0.21371394 -0.054891113 -0.0070709903 0.055541556 -0.02370587 -0.044106737 0.24872312
0.114467956 0.035890486 0.13168876 0.059212003 -0.11838764 -0.21230066 -0.2632642 -0.09242862
0.043024387 -0.1838513 0.1322362 -0.054595876 0.14717546 -0.1616622 -0.08721279 -0.11264451
0.122079544 0.032762364 -0.15711875 -0.06790151 0.1336085 -0.07467225 0.01557302 -0.0193092
0.142979 0.023922672 -0.027790325 0.05340944 0.1012083 0.20144597 -0.053463444 -0.08653619
0.056923512 0.07233126 -0.038977858 0.020017307 -0.023458317 -0.07674959 0.10602929 -0.082335465
-0.09373687 0.20910783 -0.3089581 -0.07589326 -0.056416538 0.05125549 0.06163198 0.058481764
-0.069471724 0.08368069 0.06918805 -0.33982024 0.2040733 0.11073519 -0.11228675 -0.29990155
-0.2324284 0.056813035 -0.0026063707 0.11233169 0.004775603 0.6192252 -0.12046826 0.10335855
0.1700694 -0.029640589 -0.09367536 0.07377616 0.033742268 -0.101365656 -0.17397022 0.050588995
0.033175565 -0.20340355 0.008294597 -0.093721434 0.040248923 0.017771957 0.04963417 -0.1671298
-0.036133293 -0.19268556 -0.14219733 -0.023749083 0.14469267 -0.18990405 -0.031761702 0.057046816
-0.14704886 -0.20381543 0.13941313 -0.15355876 -0.1066942 -0.084063575 -0.0324544 -0.0057539176
-0.105098665 -0.101548396 -0.004498615 0.12813951 -0.011190272 -0.16971444 0.007786156 -0.06686967
-0.1022794 -0.12298558 0.0483995 0.09628791 -0.15759316 -0.066136174 -0.12736699 -0.19621088
-0.21696267 0.13198824 -0.14374799 0.20069374 -0.053530302 0.009628483 0.015852256 -0.0047120648
-0.018075502 -0.12584652 0.13128783 -0.15451299 -0.1490733 -0.33827305 0.093326874 0.26755774
0.011572447 -0.155406 -0.008389242 -0.048267666 -0.31153727 -0.22198646 -0.11413999 -0.051111214
-0.027207026 0.1827041 -0.16670668 0.15036541 0.0005693125 -0.053788178 0.114112414 0.21961887
0.08437764 0.059196312 0.19812831 -0.15841551 -0.2644368 0.06261788 -0.1648836 -0.064147055
-0.045234643 -0.09696875 0.14164205 0.083560415 0.045348737 0.27779084 0.14322717 -0.10864541
0.21671759 0.03338932 0.013008551 -0.12858056 0.18747236 -0.25948027 -0.18385352 0.056003775
-0.14574827 0.04746787 -0.009063729 -0.002349903 -0.03741144 0.11066035 0.120323375 -0.09851495
-0.013893636 0.02705106 -0.027140873 0.0065962663 0.011878652 0.006474081 0.04132886 0.024619682
-0.17676722 -0.38381025 -0.11214373 0.092953734 -0.036233664 -0.18884729 -0.12655139 0.06586282
0.07526002 0.016555225 -0.14804742 0.09199671 0.10366067 -0.35126862 -0.024876876 -0.0026199277
00000000: d1fa a23d f364 7bbd a0b6 8bbd b0e6 a83c
00000010: 6212 52bc 226b 0ebd 0d44 aebd 4195 79bd
00000020: eb0b 2f3d 75c1 21bd 2d0f ce3b d6cf 953d
00000030: bdb5 a3bd ae3c afbd 23ca a8be edfa fc3d
00000040: cc2e 653e 0a95 8c3c 203e c63d e9e2 94bc
00000050: 005d 043e 75a1 283d 39c9 c03d d991 f63d
00000060: 38d7 38bb 909f fb3d 411e 093e 0c5f 04be
00000070: f78c 2e3d 4305 febd d74e c5bd aec9 aebd
00000080: 6d42 223d 5506 733c a469 a0bd 3857 fdbd
00000090: 93c0 aa3c d88e 15be 5d10 ec3d f63a 61be
000000a0: 461d 80bd 3369 3e3d eb6e 193e bf73 63be
000000b0: b5be cc3e 5f96 443e 59da 8cbd 7d82 82be
000000c0: 1efb cbbc d4d7 5abe 81d5 60bd c4b3 e7bb
000000d0: 8b7f 633d d032 c2bc 44a9 34bd 46b1 7e3e
000000e0: 2d6e ea3d e701 133d 6bd9 063e 4988 723d
000000f0: 3875 f2bd 5865 59be 91ca 86be 374b bdbd
00000100: 573a 303d 8443 3cbe ed68 073e ed9f 5fbd
00000110: 2ab5 163e c78a 25be 9f9c b2bd 2ab2 e6bd
00000120: d704 fa3d d431 063d bde3 20be f20f 8bbd
00000130: abd0 083e c4ed 98bd fb25 7f3c 542e 9ebc
00000140: 1669 123e 7bf9 c33c 89a8 e3bc dbc3 5a3d
00000150: 4c46 cf3d da47 4e3e 7cfc 5abd e339 b1bd
00000160: a128 693d 6922 943d 3fa7 1fbd 56fb a33c
00000170: a82b c0bc e42e 9dbd e225 d93d 7f9f a8bd
00000180: 1ef9 bfbd 5d20 563e c22f 9ebe ed6d 9bbd
00000190: 0715 67bd 47f1 513d d171 7c3d 938a 6f3d
000001a0: 3147 8ebd c860 ab3d 77b2 8d3d ebfc adbe
000001b0: 97f8 503e 22c9 e23d 98f6 e5bd b28c 99be
000001c0: b601 6ebe c9b4 683d a5cf 2abb 280e e63d
000001d0: a97c 9c3b 8b85 1e3f 10b8 f6bd a6ad d33d
000001e0: ac26 2e3e d2d0 f2bc ded8 bfbd f517 973d
000001f0: 5535 0a3d cc98 cfbd 4025 32be 6836 4f3d
00000200: 1ae3 073d 0549 50be 10e6 073c 06f1 bfbd
00000210: 0edc 243d 7f96 913c 334d 4b3d 1324 2bbe
00000220: 8100 14bd 5d4f 45be 2d9c 11be 708d c2bc
00000230: 512a 143e 3576 42be 8f18 02bd eca9 693d
00000240: fa93 16be feb4 50be 51c2 0e3e 823e 1dbe
00000250: 7d82 dabd 8629 acbd e8ee 04bd 5c8b bcbb
00000260: f83d d7bd 9bf8 cfbd 1e69 93bb 0137 033e
00000270: 6757 37bc 9fc9 2dbe 0323 ff3b f7f2 88bd
00000280: dd77 d1bd dddf fbbd 8e3e 463d 9932 c53d
00000290: 1a60 21be 6772 87bd 7e6c 02be 81eb 48be
000002a0: 762b 5ebe ed27 073e ac32 13be a982 4d3e
000002b0: 9742 5bbd c9c0 1d3c 97dc 813c aa67 9abb
000002c0: 1313 94bc e9dd 00be 5170 063e a738 1ebe
000002d0: aca6 18be 2032 adbe 2922 bf3d 54fd 883e
000002e0: 5c9a 3d3c c022 1fbe 0873 09bc 51b4 45bd
000002f0: d081 9fbe 6b50 63be 3ac2 e9bd fe59 51bd
00000300: 45e1 debc c916 3b3e 28b5 2abe 64f9 193e
00000310: ea3d 153a fe50 5cbd c5b3 e93d c5e3 603e
00000320: 2fce ac3d d577 723d 26e2 4a3e ad37 22be
00000330: 4364 87be ce3d 803d 3fd7 28be 885f 83bd
00000340: f647 39bd 8d97 c6bd 9d0a 113e b921 ab3d
00000350: 99bf 393d 9a3a 8e3e 25aa 123e 7c81 debd
00000360: 37eb 5d3e 3dc3 083d d121 553c 9faa 03be
00000370: c1f8 3f3e 99da 84be 1944 3cbe 3764 653d
00000380: 093f 15be ab6d 423d 0980 14bc d500 1abb
00000390: bd3c 19bd e5a1 e23d 1a6c f63d 35c2 c9bd
000003a0: 22a2 63bc 2f9a dd3c 8956 debc 7e25 d83b
000003b0: ad9e 423c 8724 d43b 7348 293d 37af c93c
000003c0: 7702 35be c782 c4be 9dab e5bd 875e be3d
000003d0: c069 14bd 2f61 41be b096 01be 16e3 863d
000003e0: ed21 9a3d d39e 873c be99 17be c568 bc3d
000003f0: 0c4c d43d 7bd9 b3be 97ca cbbc 18b3 2bbb

model.encoder.nb_encoder.0.4.bias f4 [32]
-0.21920034 0.098212756 -0.22464794 0.02286263 0.026772752 0.14124571 0.11022074 0.19807847
-0.20292336 0.04890524 -0.041032866 0.17001566 0.06243084 -0.14586456 -0.11037995 -0.0199087
0.13130745 0.13124809 0.26523086 -0.038648993 -0.0737791 -0.033867322 -0.0942838 0.091953784
0.08025224 -0.10578173 0.07933029 0.074545816 -0.22237769 -0.046193022 -0.05297697 -0.07854972
00000000: 0e76 60be c523 c93d 1c0a 66be 694a bb3c
00000010: 8852 db3c b7a2 103e 69bb e13d 15d5 4a3e
00000020: 24cb 4fbe dc50 483d 1412 28bd 9618 2e3e
00000030: 7bb7 7f3d 855d 15be e20e e2bd 9217 a3bc
00000040: 7675 063e e665 063e 57cc 873e 684e 1ebd
00000050: 7f19 97bd 76b8 0abd dd17 c1bd 4452 bc3d
00000060: 495b a43d 17a4 d8bd eb77 a23d 7aab 983d
00000070: fab6 63be e534 3dbd 61fe 58bd adde a0bd
