pinn3/checkpoint/simulator.pth (torch, 708549 bytes, 267 tensors)

model.encoder.eb_encoder.0.0.weight f4 [32, 10]
0	0x3e222113	0.1583293
1	0x3e854dd2	0.26035935
2	0xbbde5dce	-0.0067860847
3	0xbe08e545	-0.1336871
4	0xbc9e36c5	-0.019313226
5	0xbe916188	-0.28394723
6	0xbe5f581a	-0.21810952
7	0xbe78675c	-0.24258178
8	0xbe3a3b60	-0.18186712
9	0x3de31d84	0.11089614
10	0x3e422c27	0.18962155
11	0x3e1f369f	0.1554818
12	0xbe0e6942	-0.1390734
13	0xbe3bad11	-0.18327738
14	0xbe5827fc	-0.21109003
15	0xbe3429a5	-0.17594011
16	0xbdc6c8ee	-0.09706293
17	0x3d01f75a	0.031730033
18	0xbe08ba8b	-0.1335241
19	0x3e2d4305	0.16920097
20	0x3ea04d0b	0.3130878
21	0x3e09e922	0.1346784
22	0xbe4b396b	-0.19846122
23	0xbe1fb2af	-0.15595506
24	0x3dddcdd8	0.10830277
25	0x3db7634a	0.08954485
26	0xbe9ee455	-0.3103358
27	0x3e106e4e	0.14104578
28	0xbe4f5a8e	-0.20249388
29	0xbe7c11e2	-0.24616197
30	0xbdee2198	-0.11627501
31	0xbe2bf573	-0.1679285
32	0x3e3184e5	0.17335851
33	0x3e51e37e	0.20496938
34	0xbd9c5534	-0.07633439
35	0x3e4d85c7	0.20070563
36	0xbc62a7b2	-0.013833927
37	0x3d803660	0.06260371
38	0xbe750145	-0.23926266
39	0xbc53f782	-0.012937428
40	0xbe7a8c35	-0.24467547
41	0xbe148841	-0.14505102
42	0xbcd01bf6	-0.025403958
43	0x3d702dd2	0.058637448
44	0xbe6bf8d4	-0.23044139
45	0x3e6b63dd	0.22987314
46	0x3e4e9c66	0.20176849
47	0x3df6ca91	0.12050355
48	0xbe9ed4c3	-0.310217
49	0x3e1b6f08	0.15179074
50	0x3dec2b4d	0.115316965
51	0x3cf84016	0.030303996
52	0x3dee65e8	0.11640531
53	0x3da0c6f7	0.078504495
54	0xbbeffa86	-0.007323566
55	0xbc8aeea1	-0.01695949
56	0x3d943986	0.07237534
57	0x3dd7db24	0.10539845
58	0x3eeedaee	0.46651405
59	0x3e9d32e9	0.30702904
60	0xbdf1ca9d	-0.118062235
61	0x3dac6bed	0.08419023
62	0x3da52e96	0.08065526
63	0xbd0f3997	-0.03496703
64	0x3db4c1a9	0.08826
65	0x3e0f330d	0.13984318
66	0xbe14967b	-0.14510529
67	0x3c280df8	0.010257237
68	0xbc21afff	-0.009868621
69	0x3e254d16	0.16142687
70	0xbe0578bb	-0.13034336
71	0xbe8a8971	-0.27057984
72	0x3e8387bc	0.25689495
73	0xbe8630c7	-0.2620909
74	0xbde5b32f	-0.11215817
75	0x3d4930a1	0.04911864
76	0xbd9aac97	-0.0755245
77	0x3df6dade	0.12053464
78	0x3ed64bcf	0.41854712
79	0xbe24d829	-0.16098084
80	0x3e6cf989	0.23142065
81	0x3da81e8b	0.082089506
82	0x3e4e179f	0.20126198
83	0xbe09f3c0	-0.1347189
84	0x3e012517	0.12611805
85	0x3e52be23	0.20580344
86	0xbe875a94	-0.26436293
87	0x3d6c06a1	0.05762351
88	0x3edc5149	0.43030766
89	0x3dc44f4f	0.095854394
90	0x3c6f7dcd	0.014617396
91	0x3c1733c9	0.009228655
92	0x3e16c265	0.14722593
93	0x3e282916	0.16421923
94	0xbecc4e45	-0.39903465
95	0x3e584908	0.21121609
96	0xbebbc111	-0.36670735
97	0xbe5dfd3b	-0.21678631
98	0xb8e336a0	-0.00010834378
99	0x3944cd78	0.0001876856
100	0x3e59f69c	0.2128548
101	0x3e25ca12	0.16190365
102	0x3d84d6a8	0.06486255
103	0x3e978cf9	0.2959974
104	0xbe747e7f	-0.2387638
105	0x3ea9e109	0.331795
106	0x3e35a6b7	0.17739378
107	0x3e5dc890	0.2165854
108	0xbdc392f3	-0.09549513
109	0xbe098eb1	-0.13433339
110	0x3e19a481	0.1500416
111	0x3dc5faac	0.096669525
112	0x3da93bed	0.08263383
113	0xbe8627e1	-0.262023
114	0xbc573b05	-0.01313663
115	0xbe94c68f	-0.29057738
116	0xbd8880f8	-0.06665224
117	0xbded3f20	-0.11584306
118	0xbd8679c8	-0.06566197
119	0x3dbe91bb	0.0930514
120	0x3eb81b21	0.35958198
121	0x3ea3034b	0.3183845
122	0x3ddcd18f	0.10782158
123	0xbd1440e8	-0.036194712
124	0x3d16bcd3	0.03680117
125	0x3e23ed44	0.16008478
126	0x3e4c8f71	0.19976594
127	0xbdba9621	-0.09110666
128	0xbce4fcbf	-0.02795255
129	0x3e3991a9	0.18121971
130	0x3ec33cf6	0.38132447
131	0x3e365d72	0.17809084
132	0xbd199594	-0.037496164
133	0x3e31b08e	0.17352507
134	0x3e8fd999	0.280957
135	0x3e695f38	0.2279023
136	0x3d9742eb	0.073858105
137	0xbe300bf9	-0.17192067
138	0x3d2fbb44	0.0429032
139	0x3dd4aa00	0.103839874
140	0x3eb60386	0.35549563
141	0xbe52e65e	-0.2059569
142	0x3e72c857	0.23709236
143	0x3e10ffe9	0.14160122
144	0x3e9cd480	0.30630875
145	0x3e431705	0.1905175
146	0x3dc77609	0.0973931
147	0xbe4b8771	-0.19875886
148	0xbeb34c90	-0.3501935
149	0x3e5cc5a7	0.21559773
150	0x3e7cad5b	0.24675505
151	0x3e857b27	0.2607052
152	0x3ddd5d71	0.10808838
153	0x3da86271	0.08221901
154	0x3e4a783b	0.19772427
155	0xbe946fc0	-0.28991508
156	0x3e6cc786	0.23122987
157	0x3dcb91dc	0.0993993
158	0xbe2d5e78	-0.16930568
159	0xbb06fe0d	-0.0020598203
160	0xbd9c6b70	-0.076376796
161	0x3e13cf35	0.14434512
162	0x3e6a3fbd	0.22875877
163	0x3e828317	0.2549064
164	0xbdd3a859	-0.10334844
165	0x3e073236	0.13202748
166	0x3e333364	0.17500073
167	0x3e666e0b	0.22502916
168	0x3ebcc53d	0.3686923
169	0xbd09b528	-0.03362003
170	0x3e60c585	0.21950348
171	0x3e036369	0.1283089
172	0x3e54f583	0.2079678
173	0x3e678caf	0.2261226
174	0xbe89df7d	-0.2692832
175	0x3d1d0989	0.03833917
176	0x3e4f4c33	0.20243911
177	0x3e66862a	0.22512117
178	0xbe088504	-0.13331991
179	0xbc80fe92	-0.015746389
180	0xbdf4cc40	-0.1195302
181	0x3d9e8efb	0.07742115
182	0x3e820f86	0.25402468
183	0x3e408205	0.18799599
184	0x3e00f24e	0.12592432
185	0xbded55e6	-0.115886495
186	0xbe1e53dc	-0.15461677
187	0x3c4c0e57	0.012454591
188	0x3eab32f3	0.3343731
189	0xbe81f686	-0.25383395
190	0x3e77b198	0.2418884
191	0xbdf333ae	-0.118750915
192	0xbdab413a	-0.0836205
193	0xbe932fd1	-0.2874742
194	0xbe9cabbc	-0.30599773
195	0xbe529319	-0.20563926
196	0xbe50961c	-0.20369762
197	0x3dfdb8b5	0.12388746
198	0x3e0e7b8c	0.13914317
199	0x3e715060	0.23565817
200	0xbe950f0f	-0.2911305
201	0x3eb60517	0.35550758
202	0x3e316824	0.17324883
203	0x3ebffdb8	0.3749826
204	0x3e39e970	0.18155456
205	0xbe41b6a9	-0.18917336
206	0xbe0580dd	-0.13037439
207	0xbe20d03d	-0.15704437
208	0xbda522c4	-0.08063272
209	0xbcd441c1	-0.02591026
210	0x3e86125c	0.26185882
211	0xbe26f061	-0.16302635
212	0x3e1588d5	0.14602979
213	0xbd02408d	-0.03179984
214	0x3b89e16d	0.004207781
215	0xbdc073d7	-0.09397095
216	0x3caffd33	0.02148304
217	0xbde3dbf5	-0.11125938
218	0x3e80762b	0.25090155
219	0x3eb45f57	0.3522899
220	0xbd264e61	-0.04060209
221	0x3e47c886	0.19510087
222	0xbd2d7f83	-0.042357933
223	0x3e38b33a	0.1803712
224	0xbe830921	-0.25592902
225	0x3e6bebfa	0.23039237
226	0xbe46784a	-0.19381824
227	0x3d256276	0.040377103
228	0x3dc279ec	0.09495911
229	0xbdac6177	-0.084170274
230	0x3ed28699	0.41118315
231	0xbd8d93bb	-0.06912943
232	0x3d703d0a	0.05865196
233	0x3eaedc03	0.3415223
234	0xbea6726a	-0.32509166
235	0x3e0933d7	0.13398682
236	0xbe8808f5	-0.26569334
237	0xbdf991f4	-0.121860415
238	0xbe49e7e0	-0.1971736
239	0xbe178775	-0.14797767
240	0xbd409667	-0.047018435
241	0x3d976690	0.07392609
242	0x3e53f8bd	0.20700355
243	0x3e9708ca	0.29498893
244	0xbc301a7a	-0.0107485
245	0x3e5c670e	0.21523687
246	0x3e55821f	0.20850419
247	0xbd682b05	-0.05668165
248	0xbe409a8d	-0.18808956
249	0xbcdf4d82	-0.027258638
250	0x3e360bee	0.17777988
251	0xbe822b00	-0.2542343
252	0xbd4388a4	-0.047737733
253	0x3e462cb7	0.19352995
254	0x3d8a9ba2	0.06767966
255	0x3ea676d1	0.32512525

model.encoder.eb_encoder.0.0.bias f4 [32]
0	0x3ec2b1e7	0.38026354
1	0xbdef9b0d	-0.116994955
2	0x3e24d62d	0.16097327
3	0xbce62931	-0.028095813
4	0xbe21359d	-0.15743108
5	0xbd9c67c8	-0.07636982
6	0x3d8d9969	0.06914026
7	0x3da0e839	0.07856793
8	0x3e3f358e	0.18672773
9	0x3e4c1012	0.19928005
10	0x3de5aa38	0.11214107
11	0x3e8eb6c8	0.27873826
12	0x3e596fc9	0.21234049
13	0xbd3638fa	-0.04448793
14	0x3ecad49b	0.3961533
15	0xb990ae2a	-0.00027595583
16	0xbe00ec4b	-0.12590139
17	0xbcb85201	-0.02250004
18	0x3e9a3795	0.3012053
19	0x3e964e99	0.2935684
20	0x3e7cc24a	0.2468349
21	0x3eb070f0	0.34461164
22	0x3e50f559	0.20406093
23	0x3e8722f8	0.26393867
24	0xbb42b1e3	-0.002970808
25	0xbe3bc595	-0.1833709
26	0xbdbe64ff	-0.09296607
27	0x3eaacca2	0.33359247
28	0xbe17b67f	-0.1481571
29	0xbe9d9680	-0.30778885
30	0xbda4ad63	-0.080408834
31	0x3e40d925	0.18832834

model.encoder.eb_encoder.0.2.weight f4 [32, 32]
0	0x3e842447	0.25808927
1	0x3e5ce305	0.21570976
2	0xbd892b1e	-0.06697677
3	0xbd4904c1	-0.0490768
4	0x3e084c2b	0.13310306
5	0x3dee5b58	0.11638516
6	0x3dc8d50d	0.09806261
7	0xbd61fc31	-0.05517215
8	0x3daa5820	0.0831759
9	0x3e12111b	0.14264338
10	0xbdfb5bf2	-0.122733966
11	0x3e4f2472	0.20228747
12	0x3ddc08a1	0.10743833
13	0x3d1464c6	0.036228918
14	0xbcbd08a6	-0.023075413
15	0x3d16d9f5	0.036828954
16	0xbe2b7014	-0.16741973
17	0x3d6fa3ec	0.058505937
18	0x3d2e68d7	0.04258045
19	0x3ddde623	0.10834911
20	0xbd4a16d9	-0.049338195
21	0x3e24fcc0	0.16112041
22	0x3d4f29ef	0.0505771
23	0x3d8d97b5	0.069137014
24	0x3c9b1930	0.018932909
25	0xbe1c3c41	-0.1525736
26	0x3b3a6752	0.0028442931
27	0xbd965155	-0.073397316
28	0xbdeff152	-0.1171595
29	0xbb87bb9a	-0.004142237
30	0x3e07ceed	0.1326253
31	0xbd7a7b46	-0.06115272
32	0xbded4d61	-0.115870245
33	0x3daada43	0.08342411
34	0xbc853400	-0.016260147
35	0xbba9d6a8	-0.0051830597
36	0x3e154381	0.14576532
37	0xbe29e186	-0.16589937
38	0xbd39117e	-0.045182697
39	0xbe162573	-0.14662723
40	0xbd2f4193	-0.042787146
41	0x3d32929a	0.04359684
42	0x3c9381e7	0.018006278
43	0x3d0fb5b4	0.035085395
44	0xbe1552b2	-0.14582327
45	0x3d7e8b7c	0.06214474
46	0xbd6b1aae	-0.05739849
47	0x3dce561f	0.1007502
48	0xbe06db00	-0.1316948
49	0x3e007868	0.12545931
50	0x3d173184	0.036912456
51	0x3d432ea9	0.04765192
52	0x3e19cdf5	0.15019973
53	0x3e338de5	0.17534597
54	0x3dea0c84	0.114281684
55	0xbe192ca0	-0.1495843
56	0xbe0d041a	-0.13771096
57	0xbc28596b	-0.010275225
58	0x3e276ac6	0.16349325
59	0x3db6479e	0.08900379
60	0xbd8089ce	-0.06276284
61	0x3e4609ac	0.19339627
62	0xbd8e4acc	-0.0694786
63	0x3e048c06	0.1294404
64	0x3d0e504d	0.03474455
65	0x3dc0dcf0	0.094171405
66	0xbd68a5ff	-0.05679893
67	0x3b9ebb1e	0.0048440835
68	0xbd80cc5b	-0.06288978
69	0xbd2c1f9b	-0.04202233
70	0xbcde3649	-0.027125495
71	0x3e0d6ee5	0.13811834
72	0xbd1530d0	-0.036423504
73	0xbe4e7433	-0.20161514
74	0xbd7a84ef	-0.06116193
75	0xbe4ff138	-0.20306861
76	0xbdc55a50	-0.09636366
77	0x3d0ff7bd	0.03514837
78	0x3c18285e	0.009286968
79	0x3d9b9e6a	0.075985745
80	0x3dff6b5e	0.124716505
81	0xbc777fdc	-0.015106168
82	0x3ce2152c	0.027597986
83	0xbe2bca2c	-0.16776341
84	0xbe03901b	-0.1284794
85	0xbe03d49a	-0.1287407
86	0xbdd4c67b	-0.1038942
87	0x3d929260	0.07156825
88	0x3be5a741	0.0070084636
89	0xbc9f07d2	-0.019412909
90	0xbdd1c731	-0.10243071
91	0x3e4730dc	0.19452232
92	0x3ccc72c5	0.02495707
93	0xbc12b004	-0.008953098
94	0xbd1aaaf4	-0.03776069
95	0x3c7feea3	0.01562086
96	0xbd709085	-0.058731575
97	0x3e04d4c9	0.12971796
98	0xbc79ece8	-0.015254237
99	0x3dece22a	0.11566575
100	0x3d6fc3bd	0.05853628
101	0xbdb023d5	-0.086005844
102	0x3e498123	0.19678168
103	0xbe024cf6	-0.12724671
104	0xbda55c2b	-0.0807422
105	0xbe3f88f4	-0.18704587
106	0xbbc15033	-0.005899453
107	0x3d8159c9	0.06315953
108	0x3c29aa9c	0.010355618
109	0x3e0c6289	0.13709463
110	0xbde04ed3	-0.109525345
111	0x3e026e2e	0.12737343
112	0xbcbb2de4	-0.02284903
113	0x3c6e616a	0.0145495925
114	0x3c131586	0.0089773
115	0xbd728229	-0.05920616
116	0x3df67976	0.120348856
117	0x3e925b53	0.285853
118	0xbd98d0a6	-0.074616715
119	0xbd01a14b	-0.03164796
120	0x3e13d568	0.14436877
121	0xbcee5f85	-0.029098282
122	0xbd46c7e1	-0.048530463
123	0x3da5e1e6	0.08099727
124	0xbe125833	-0.14291458
125	0xbccbbc89	-0.024870174
126	0xbc8d5e91	-0.017257007
127	0xbe157da4	-0.1459871
128	0x3dfcd097	0.12344473
129	0xbddd2149	-0.10797364
130	0x3d0bb090	0.03410393
131	0xbdb5702b	-0.08859285
132	0xba1f7e69	-0.0006084205
133	0x3e31fe45	0.17382152
134	0x3e241122	0.1602216
135	0xbd88cc72	-0.0667962
136	0xbbd74cf7	-0.006570454
137	0xbecb83b6	-0.39748925
138	0xba28723d	-0.0006425714
139	0x3d2392fb	0.039935093
140	0xbd5896ca	-0.05287818
141	0xbe2a08d7	-0.16604935
142	0xbdbb1781	-0.091353424
143	0x3dcdc5f1	0.1004752
144	0x3e358853	0.17727785
145	0xbdeb9756	-0.115034744
146	0xbd37a7cd	-0.04483776
147	0x3d0b052a	0.03394047
148	0x3d5c24f2	0.05374617
149	0xbe11954b	-0.14217107
150	0xbdd42da0	-0.10360265
151	0xbd35d0f1	-0.044388715
152	0xbda8b879	-0.0823831
153	0xbdf42337	-0.11920779
154	0x3e24c3f5	0.16090377
155	0xbe389f32	-0.18029478
156	0xbe09dc63	-0.13462977
157	0x3d707c7b	0.058712464
158	0x3b0bcd12	0.0021331948
159	0xbd885123	-0.066561006
160	0xbe9df618	-0.30851817
161	0xbe36f414	-0.17866546
162	0x3df68d4d	0.1203867
163	0x3e20ab8a	0.15690437
164	0xbd763604	-0.060110107
165	0xbd0d2d1b	-0.034466844
166	0x3e27c8ad	0.16385145
167	0xbe2c8b8e	-0.16850111
168	0x3c1087bc	0.008821424
169	0x3d2cd81c	0.042198285
170	0xbd3de564	-0.046361342
171	0xbe1b65f9	-0.15175618
172	0x3cdcf29f	0.02697116
173	0xbd8c4e20	-0.06850839
174	0xbdccab5e	-0.09993623
175	0xbcea901c	-0.02863317
176	0x3d04515d	0.032304157
177	0xbd99a7f9	-0.07502741
178	0x3e0329b8	0.12808883
179	0xbdf8ee35	-0.121548094
180	0xbcdd7d29	-0.02703722
181	0x3e2f3b92	0.17112568
182	0xbdd828a1	-0.10554624
183	0x3d757717	0.059928026
184	0x3d96dc9e	0.07366298
185	0x3ddc741c	0.107643336
186	0x3e49e662	0.1971679
187	0x3dcb35ab	0.09922346
188	0xbda43fdf	-0.08019995
189	0xbcccccc9	-0.024999993
190	0x3e4d1bc5	0.20030124
191	0xbdb043ac	-0.086066574
192	0xbe152520	-0.14564943
193	0x3d0cb47b	0.034351807
194	0xbd912215	-0.07086579
195	0x3d8508d2	0.06495823
196	0xbe1f2458	-0.15541208
197	0x3dd2e604	0.10297778
198	0x3dc51b9f	0.09624409
199	0xbe060217	-0.13086735
200	0xbdf6cdd4	-0.12050977
201	0x3cda93d3	0.026681816
202	0xbc1b609a	-0.009483481
203	0x3bcf5d13	0.006328234
204	0x3df5625a	0.1198165
205	0xbc30d36e	-0.010792596
206	0x3d04c693	0.032415938
207	0xbd9e20e3	-0.077211164
208	0x3b0cb7a7	0.002147177
209	0x3dec22cd	0.11530075
210	0x3ddcdb9a	0.10784073
211	0xbe3b0933	-0.18265228
212	0x3d1815c3	0.03713013
213	0xbe059748	-0.1304599
214	0x3d1c44c7	0.03815153
215	0xbd3fe715	-0.046851236
216	0x3dcddfaa	0.10052426
217	0x3e152933	0.14566498
218	0x3de7f08a	0.11325176
219	0x3dd13516	0.102152035
220	0x3df4adb9	0.119471975
221	0xbd9f261d	-0.077709414
222	0x3d8151c3	0.06314423
223	0x3e0e8e11	0.13921382
224	0xbc985e80	-0.018599749
225	0x3da6b0fd	0.081392266
226	0x3d91c655	0.07117907
227	0xbd1f5a0c	-0.038904235
228	0xbe280fbf	-0.16412257
229	0x3d99b8f8	0.07505983
230	0x3e09c13c	0.1345262
231	0xbd27d761	-0.040976886
232	0x3b259d8e	0.0025270912
233	0xbddc3801	-0.107528694
234	0xbd8edeae	-0.069760665
235	0x3d4c5b35	0.04989167
236	0xbdd1e825	-0.10249356
237	0xbe21e2e5	-0.1580921
238	0x3e365abd	0.17808051
239	0x3dd8cdd9	0.10586137
240	0x3e0a2949	0.13492312
241	0x3d6fc956	0.05854162
242	0x3de0f374	0.10983935
243	0xbc310a04	-0.010805611
244	0xbe3e2ec1	-0.18572523
245	0xbe0f84ac	-0.14015454
246	0x3e79a184	0.2437802
247	0xbb2811d8	-0.0025645401
248	0x3db54db1	0.08852709
249	0xbdd4e17f	-0.103945725
250	0x3d166e23	0.03672613
251	0xbe0e4987	-0.13895236
252	0x3e1a4adf	0.15067624
253	0xbdacbdd9	-0.08434648
254	0xbe04e2b1	-0.12977101
255	0xbdd68385	-0.10474304

model.encoder.eb_encoder.0.2.bias f4 [32]
0	0xbbd1ff30	-0.0064085945
1	0x3d801712	0.062544
2	0x3d89bc54	0.06725374
3	0x3c34b36f	0.011029108
4	0xbdd560a6	-0.10418825
5	0x3e0a8a65	0.13529356
6	0x3df68b52	0.12038292
7	0xbdcd1319	-0.10013408
8	0xbe038aae	-0.12845871
9	0x3e8582e2	0.26076418
10	0x3e0da7f9	0.13833608
11	0xbe23b86b	-0.15988319
12	0xbe03b39d	-0.12861486
13	0xbdd1405b	-0.10217353
14	0xbdbf2d21	-0.093347795
15	0x3c21cf5e	0.0098761
16	0x3d1ebc42	0.038753755
17	0x3e1e595b	0.15463774
18	0x3c46b8ae	0.012128992
19	0x3e6077dc	0.21920723
20	0xbdd50ab0	-0.10402429
21	0xbe2511fa	-0.16120139
22	0xbdd47290	-0.103734136
23	0xbbb3121d	-0.0054648058
24	0xbe02f56e	-0.12788936
25	0xbd89570f	-0.06706058
26	0xbd169cf1	-0.036770765
27	0x3d93b36b	0.07211956
28	0x3dd6168f	0.104535215
29	0xbe0adb77	-0.13560282
30	0x3dc58b1b	0.09645673
31	0x3e112c38	0.14177024

model.encoder.eb_encoder.0.4.weight f4 [32, 32]
0	0xbe09250e	-0.13393041
1	0x3ca818c2	0.020519618
2	0xbe40621c	-0.18787426
3	0x3decc7b3	0.11561527
4	0xbe58b66b	-0.21163337
5	0xbdffc1fd	-0.12488172
6	0xbc5d37b1	-0.013502047
7	0x3ca8cc84	0.020605333
8	0xbdf9b746	-0.1219316
9	0xbdf308fe	-0.118669495
10	0x3d5afb36	0.05346223
11	0x3e1ca02b	0.15295474
12	0x3d68fd37	0.05688211
13	0xbce383e9	-0.02777286
14	0xbe200af3	-0.15629177
15	0xbe8a5a14	-0.2702185
16	0x3db31f91	0.08746255
17	0xbe391c67	-0.18077241
18	0xbda631df	-0.08114981
19	0xbc8cd0fb	-0.017189493
20	0x3e36c2e1	0.17847778
21	0x3e1b44ef	0.15163015
22	0xbcdcb27b	-0.026940575
23	0x3d4dc544	0.050236955
24	0xbe20e177	-0.15711008
25	0xbde7eeff	-0.11324882
26	0xbe2bc9fc	-0.1677627
27	0xbc8b7262	-0.017022315
28	0xbdb89d4a	-0.090143755
29	0x3d022b25	0.031779427
30	0xbcf10238	-0.029420003
31	0x3e003db9	0.12523545
32	0x3e5ccd57	0.21562706
33	0xbdab38c1	-0.08360434
34	0x3d9d00de	0.07666181
35	0x3df5adb8	0.11996025
36	0xbe2d44ca	-0.16920772
37	0x3e2271dc	0.15863746
38	0x3e007dbc	0.12547964
39	0xbe20e2e7	-0.15711556
40	0xbe424a48	-0.18973649
41	0x3d811148	0.06302124
42	0x3e39c370	0.1814096
43	0x3c18e7f1	0.009332643
44	0x395bb98f	0.00020954593
45	0xbda0d765	-0.07853583
46	0x3e0077fc	0.1254577
47	0xbcfe393e	-0.031033155
48	0xbdbeb296	-0.09311406
49	0xbc63ae56	-0.013896545
50	0x3e0895fc	0.13338464
51	0xbc6bf02d	-0.014400524
52	0x3e0cc4e6	0.13746986
53	0xbdc1a7eb	-0.09455856
54	0x3d893660	0.06699824
55	0xbd1dc21f	-0.038515206
56	0x3dd28a06	0.10280232
57	0xbe49de52	-0.19713715
58	0x3e0593eb	0.13044707
59	0x3dae9e2a	0.08526261
60	0x3e0a2e8e	0.13494322
61	0xbde8139f	-0.113318674
62	0xbb2888ba	-0.002571626
63	0xbc531406	-0.012883192
64	0x3dbe2aec	0.092855304
65	0xbc85d401	-0.016336443
66	0xbe9aa01e	-0.30200285
67	0x3e05af91	0.13055255
68	0xbea97ef5	-0.33104673
69	0xbcd7450e	-0.026278045
70	0xbd9345ce	-0.071910486
71	0xbdc22202	-0.09479143
72	0xbce7d56e	-0.028300013
73	0xbdb50790	-0.08839333
74	0xbd94dd49	-0.07268769
75	0x3e1ce9a4	0.15323502
76	0xbdaa8ea2	-0.08327986
77	0xbda6bfa5	-0.08142022
78	0xbd87892a	-0.06617959
79	0xbd8f24b8	-0.069894254
80	0x3e188d12	0.14897564
81	0xbe7271ef	-0.23676275
82	0xbdb62135	-0.088930525
83	0xbd2d6915	-0.042336542
84	0x3e1b33c2	0.15156463
85	0xbde9c6b7	-0.11414855
86	0xbb9e47c2	-0.0048303315
87	0xbda6c386	-0.08142762
88	0x3dbfa28e	0.09357177
89	0x3d8dcc9e	0.06923793
90	0xbe687308	-0.22700131
91	0xbdb8c5ea	-0.09022124
92	0x3e27241e	0.16322371
93	0xbe263f3b	-0.16235058
94	0x3dfd95f4	0.12382117
95	0x3d94fdc1	0.07274962
96	0xbd17fd45	-0.03710677
97	0x3dff11b1	0.12454546
98	0x3da52c7c	0.08065125
99	0xbe6db5c0	-0.23213863
100	0xbdce07ba	-0.100600675
101	0x3df3e048	0.11908013
102	0xbd82a404	-0.0637894
103	0x3e12f5c2	0.14351562
104	0xbdb59194	-0.088656574
105	0x3df5f555	0.12009684
106	0x3db9af80	0.09066677
107	0xbd62e609	-0.05539516
108	0x3c2eacfa	0.010661358
109	0x3e18cec4	0.14922625
110	0xbe2820a1	-0.16418697
111	0x3cbac1a3	0.022797411
112	0x3ddb1137	0.10696643
113	0x3c8e1f72	0.017348979
114	0xbd58d9e2	-0.052942164
115	0x3d716453	0.058933567
116	0xbdcfd6f5	-0.10148422
117	0xbceb462b	-0.028719982
118	0xbdf45ab4	-0.11931363
119	0x3e19b5cf	0.1501076
120	0xbe342286	-0.17591295
121	0x3d8aedc6	0.06783633
122	0xbe0e368c	-0.13887995
123	0xbb48c396	-0.0030634156
124	0xbde0911c	-0.109651774
125	0x3dfadd9e	0.122493014
126	0xbd6623f3	-0.056186628
127	0x3e1a765b	0.15084212
128	0xbe44ff4d	-0.19238015
129	0xbde4645f	-0.11151957
130	0x3da2eda7	0.07955485
131	0xbd34e7a3	-0.04416622
132	0x3de66278	0.1124925
133	0x3d3b4270	0.045717657
134	0xbd39e1c6	-0.04538133
135	0xbe188ccd	-0.14897461
136	0xbd3b2ce2	-0.0456971
137	0x3dca5c48	0.098808825
138	0xbdd8ba9d	-0.10582469
139	0xbe070689	-0.13186087
140	0x3d8b7523	0.068094514
141	0xbdae86b6	-0.08521788
142	0xbe1a933c	-0.15095228
143	0xbcce52f4	-0.02518604
144	0xbd97108c	-0.07376203
145	0xbd6723e7	-0.056430724
146	0x3de5f345	0.112280406
147	0xbc424ccd	-0.011859131
148	0xbca68bea	-0.020330388
149	0x3b21345c	0.002459786
150	0xbde94098	-0.113892734
151	0xbdbfff2c	-0.09374842
152	0x3ee6e5f7	0.45097324
153	0x3da20e30	0.07912862
154	0xbdcce77e	-0.10005091
155	0xbe507597	-0.20357357
156	0x3dfc3255	0.123142876
157	0xbddcae59	-0.10775442
158	0xbb658827	-0.003502378
159	0x3e379697	0.17928539
160	0xbd988de6	-0.0744894
161	0x3e2736ff	0.16329573
162	0xbd95a658	-0.07307118
163	0xbd0293ae	-0.03187912
164	0xbdb44d1f	-0.08803772
165	0xbc8bedc5	-0.01708115
166	0xbcf216bc	-0.029551856
167	0xbd6a3785	-0.057181854
168	0x3df6d30f	0.12051975
169	0x3d0a97f0	0.033836305
170	0xbde96f0c	-0.11398134
171	0xbdd4da13	-0.10393157
172	0x3e12d2cf	0.1433823
173	0x3e2fcff8	0.17169178
174	0xbe2821eb	-0.16419189
175	0xbdaa27d4	-0.08308378
176	0xbdca76dc	-0.09885952
177	0x3e300d3b	0.17192547
178	0xbdf64c80	-0.1202631
179	0x3d12a73d	0.035804022
180	0x3d8b11b6	0.067904875
181	0x3cd95a1e	0.026532229
182	0xbd81b46f	-0.06333243
183	0x3d586ef5	0.052840192
184	0xbd4f60e4	-0.05062951
185	0x3d76feac	0.060301468
186	0xbe0786bd	-0.13234992
187	0xbdeedee9	-0.116636105
188	0x3db612d2	0.088903084
189	0xbe06234c	-0.13099402
190	0x3dc521b8	0.09625572
191	0xbda4b7a8	-0.08042842
192	0xbd9dafe4	-0.07699564
193	0x3de2505d	0.11050484
194	0x3e35f000	0.17767334
195	0x3e42e1fc	0.19031519
196	0xbe1d9254	-0.15387851
197	0xbdaee5e4	-0.08539942
198	0x3df7ccd7	0.12099617
199	0xbe0fa33a	-0.1402711
200	0x3d854472	0.065071955
201	0x3d2543b2	0.040347762
202	0x3e139c38	0.14415061
203	0xbe27a42b	-0.16371219
204	0x3d4e6643	0.050390493
205	0x3e1b7e4d	0.15184899
206	0xbe20f511	-0.15718485
207	0x3e415717	0.18880878
208	0x3ccf1dfb	0.02528285
209	0x3dd14859	0.10218877
210	0x3c04f2c5	0.008114521
211	0xbdaef541	-0.08542872
212	0xbde05b0e	-0.10954867
213	0x3d696403	0.056980144
214	0x3d4e24fd	0.050328244
215	0xbe07f781	-0.13278009
216	0xbf071950	-0.52773
217	0xbdd41907	-0.10356336
218	0x3e271f60	0.16320562
219	0x3cf5f3f8	0.03002356
220	0x3e11052f	0.14162134
221	0xbd649414	-0.05580528
222	0xbd61663f	-0.05502915
223	0xbe1a1c77	-0.15049921
224	0xbd9b5d83	-0.07586195
225	0x3de3c408	0.11121374
226	0xbe02d738	-0.12777412
227	0x3e3fc06f	0.18725751
228	0x3dce2689	0.10065944
229	0xbe0d5eb0	-0.13805652
230	0x3e098491	0.13429476
231	0x3dd245c0	0.1026721
232	0x3daceee4	0.08444002
233	0x3de39227	0.11111861
234	0xbcf4c32f	-0.029878227
235	0x3e0253de	0.12727305
236	0x3e17368e	0.14766905
237	0x3cad46d7	0.021151943
238	0x3d4f2131	0.050568763
239	0xbd60cd07	-0.05488303
240	0x3cdf04b3	0.02722392
241	0xbd1f69a9	-0.038919125
242	0x3d82cd0d	0.063867666
243	0xbe2e2ca5	-0.17009218
244	0xbdc26fd6	-0.09493987
245	0x3d725541	0.059163336
246	0xbdd6d272	-0.10489358
247	0x3da54dcc	0.08071479
248	0xbea641bf	-0.32472035
249	0xbe11dc91	-0.14244296
250	0x3cd8b4f1	0.026453467
251	0x3dd7d3cd	0.10538445
252	0x3d09847e	0.03357362
253	0x3dc3b32d	0.095556594
254	0xbdad68f9	-0.084672876
255	0xbdebccc1	-0.11513663

model.encoder.eb_encoder.0.4.bias f4 [32]
0	0x3d8fab63	0.07015111
1	0x3d7d6825	0.061866898
2	0xbae0e015	-0.0017156625
3	0x3e11a262	0.142221
4	0x3e2dcabe	0.16971871
5	0x3dd0548d	0.10172377
6	0xbe3a9f04	-0.18224722
7	0xbe0db0bf	-0.13836955
8	0x3e4c0162	0.19922403
9	0x3e01e3a4	0.12684494
10	0xbde919e4	-0.11381891
11	0x3dd9345b	0.10605689
12	0xbd93ed59	-0.07223005
13	0x3e145255	0.14484532
14	0x3daefd75	0.08544437
15	0x3e0e978b	0.13924997
16	0x3dde574e	0.10856496
17	0xbdb336a2	-0.08750655
18	0xbddff7f9	-0.10935969
19	0xbdb6b71f	-0.08921646
20	0x3d304b06	0.043040298
21	0xbd7b4207	-0.061342265
22	0x3dc46943	0.095903896
23	0xbdd11fa1	-0.10211111
24	0x3e430f4d	0.19048806
25	0x3dedfbbd	0.11620281
26	0x3d5d8a7a	0.05408714
27	0xbd89f74a	-0.0673662
28	0x3dfc1bc6	0.12309985
29	0x3e6f73e7	0.23384057
30	0x3d412856	0.047157608
31	0xbe45725b	-0.19281904

model.encoder.eb_encoder.0.6.weight f4 [32, 32]
0	0xbac5a59d	-0.0015079264
1	0x3da3b00f	0.07992565
2	0x3d85f636	0.06541102
3	0xbe3fe60e	-0.18740103
4	0xbe2a4d59	-0.16631068
5	0x3dc412f8	0.095739305
6	0x3e031d29	0.12804092
7	0xbd18ed43	-0.037335645
8	0x3e5523f4	0.20814496
9	0xbde80fda	-0.113311484
10	0x3d49827e	0.049196713
11	0xbdae5151	-0.085116036
12	0x3cf01612	0.029307399
13	0x3d07fd0f	0.03320032
14	0x3da41f78	0.08013815
15	0x3e3aa23b	0.18225949
16	0x3e1f855f	0.15578221
17	0xbc6a8680	-0.014314294
18	0x3d5d1627	0.053976204
19	0xbe1c4554	-0.15260822
20	0x3d8c85a8	0.068614304
21	0x3d842e5b	0.06454154
22	0xbb899db2	-0.004199707
23	0xbd24cc08	-0.040233642
24	0xbe2b0066	-0.1669937
25	0xbd641ce5	-0.05569162
26	0xbd73f646	-0.059561037
27	0xbe0e6a59	-0.13907756
28	0x3d94076e	0.072279796
29	0xbdb5250f	-0.08844959
30	0x38aae7ef	8.149433e-05
31	0x3d939133	0.07205429
32	0xbe1dae98	-0.15398633
33	0x3d885c0c	0.066581815
34	0x3de3c457	0.11121433
35	0xbe0fcac2	-0.1404219
36	0x3d96cea5	0.07363633
37	0x3e3709e3	0.17874865
38	0x3df41a35	0.11919061
39	0xbdfbaa39	-0.12288327
40	0xbc91b7a7	-0.017787768
41	0x3d98b778	0.07456869
42	0xbe3957f4	-0.18099958
43	0x3dc887be	0.09791516
44	0xbd264fe2	-0.040603526
45	0xbda2fdd2	-0.07958569
46	0xbda7f83b	-0.08201643
47	0xbd99873f	-0.07496499
48	0x3dea83ac	0.11450896
49	0x3e031992	0.12802723
50	0xbe6b30ca	-0.2296783
51	0xbd688dc0	-0.05677581
52	0x3d728d23	0.05921663
53	0x3e1ab302	0.15107349
54	0x3de9c7f7	0.114150934
55	0x3de082e1	0.10962463
56	0xbdee6acd	-0.116414644
57	0xbdc875bc	-0.09788081
58	0xbbbb5fef	-0.0057182233
59	0x3d5a5cb8	0.05331108
60	0x3ccb6b90	0.024831563
61	0xbdc192a8	-0.094518006
62	0xbe0a175a	-0.1348547
63	0x3d1bfa83	0.038080703
64	0x3e12af22	0.1432462
65	0xbcad3315	-0.021142522
66	0xbd0faeda	-0.03507886
67	0xbe5b289c	-0.2140221
68	0xbde1b1bf	-0.110202305
69	0xbd75248f	-0.059849318
70	0xbd040943	-0.032235395
71	0x3c320e04	0.010867599
72	0x3daa36e0	0.08311248
73	0x3e235484	0.15950209
74	0x3dc6bda1	0.097041376
75	0xbdd425e1	-0.10358787
76	0x3d1ef37a	0.038806416
77	0xbd887995	-0.06663815
78	0x3c80847a	0.01568817
79	0xbdbbfb29	-0.091787644
80	0x3dce6bfd	0.10079191
81	0xbe4f3737	-0.20235907
82	0xbca2ad5b	-0.019858053
83	0xbdb72b6f	-0.08943831
84	0x3d02e7f6	0.031959496
85	0x3e2e817a	0.17041579
86	0xbd1d53d5	-0.038410027
87	0xbe2bfb51	-0.16795088
88	0xbda48d16	-0.080347225
89	0x3df061f0	0.1173743
90	0xbd2594c1	-0.040425066
91	0x3ca665c1	0.020312192
92	0xbcc82b63	-0.02443475
93	0xbd19d2e1	-0.037554625
94	0x3de337b0	0.11094606
95	0x3d9cd081	0.076569565
96	0x3d0db377	0.03459498
97	0x3dbf2115	0.09332482
98	0x3d8dafb2	0.06918277
99	0xbe12285d	-0.1427321
100	0x3d129a22	0.035791524
101	0x3d574b4b	0.05256204
102	0xbbad9dd3	-0.005298355
103	0x3bc2ccce	0.005944825
104	0x3d836003	0.06414797
105	0xbd17a2b9	-0.03702042
106	0x3df4bb2d	0.119497634
107	0xbe354f65	-0.17706068
108	0xbc1c43a9	-0.009537616
109	0xbd2eec28	-0.042705685
110	0xbd3f893a	-0.04676173
111	0xbe321d2f	-0.17393945
112	0xbde93e7e	-0.113888726
113	0xbe1f75a1	-0.15572216
114	0x3e849bde	0.25900167
115	0xbe267219	-0.16254462
116	0x3dc93106	0.098238036
117	0x3e2eb7f7	0.17062365
118	0x3d7ae16e	0.061250143
119	0xbd20a872	-0.039223142
120	0xbe82e91f	-0.25568482
121	0xbe14e791	-0.1454146
122	0x3d84256e	0.06452452
123	0xbe0d83f7	-0.13819872
124	0x3e2458f2	0.16049555
125	0x3dfd9d9c	0.12383577
126	0xbdc471e8	-0.095920384
127	0xbe22087f	-0.15823554
128	0xbe6d7c58	-0.23191965
129	0xbd7e25bc	-0.062047705
130	0x3d48c400	0.049015045
131	0xbdc26db2	-0.09493579
132	0xbd823a54	-0.063587815
133	0xbdab53c4	-0.083655864
134	0x3e2a1286	0.16608629
135	0x3c88d8bf	0.016704915
136	0xbc9e902f	-0.019355861
137	0xbd0dcf0a	-0.034621276
138	0xbcb23603	-0.02175427
139	0xbe5e01ff	-0.21680449
140	0xbe0a9b12	-0.13535717
141	0x3e43ebfc	0.1913299
142	0xbdb69c24	-0.089165
143	0xbdbb5796	-0.09147565
144	0xbd6232ef	-0.055224355
145	0x3d868b08	0.06569487
146	0x3e345a9b	0.17612688
147	0x3dacb0e9	0.084321804
148	0x3e01c2dc	0.12671989
149	0x3dc6db5a	0.09709807
150	0xbcddbde1	-0.02706808
151	0x3e108fbd	0.14117332
152	0xbda3812f	-0.07983624
153	0x3ddd4dc1	0.10805846
154	0x3d6382ff	0.05554485
155	0xbce8b010	-0.028404266
156	0xbdd987c4	-0.10621598
157	0xbd9bb3cc	-0.07602653
158	0xbe16b73d	-0.14718337
159	0xbd81d5af	-0.06339585
160	0x3e05ff7f	0.13085745
161	0xbe26bec7	-0.16283713
162	0x3d63e23f	0.055635687
163	0x3db21cc8	0.08696896
164	0xbe59c9b7	-0.21268354
165	0x3d4b3703	0.04961301
166	0xbe4a1129	-0.19733109
167	0xbc4ab607	-0.0123725
168	0xbe33e9e7	-0.17569695
169	0x3e387a01	0.18015291
170	0xbde2c350	-0.11072409
171	0xbde9d51a	-0.11417599
172	0x3d7a5dd6	0.061124645
173	0xbc8b77ee	-0.01702496
174	0xbd7a3910	-0.061089575
175	0xbda335de	-0.07969259
176	0x3d426707	0.047461536
177	0xbd375817	-0.044761743
178	0xbccbd0d9	-0.02487986
179	0xbe5f7b8a	-0.2182447
180	0xbe05eb37	-0.13078009
181	0xbc1e43c9	-0.009659716
182	0x3d0abe51	0.033872906
183	0x3d788390	0.060672343
184	0x3e111621	0.14168598
185	0xbda9949a	-0.082802966
186	0x3d2ae746	0.041724466
187	0x3d66092f	0.056161102
188	0x3d8bbecc	0.06823501
189	0xbe011662	-0.12606195
190	0x3d80d4c1	0.062905796
191	0xbd944efb	-0.07241627
192	0x3d4da1cb	0.050203126
193	0x3df13652	0.11777939
194	0x3de87f37	0.11352389
195	0xbdee4314	-0.11633888
196	0xbe3ca45f	-0.18422078
197	0x3dc0ad0f	0.09408008
198	0x3e1c8aaa	0.15287271
199	0x3c7b55e6	0.015340304
200	0x3dbce58c	0.0922347
201	0x3e0182b5	0.12647517
202	0x3ca1c231	0.019745918
203	0xbe112fc9	-0.14178385
204	0x3d3b73c2	0.045764692
205	0x3dcfbf1c	0.10143873
206	0xbac9cf52	-0.0015396869
207	0x3db8c052	0.09021057
208	0x3e20a686	0.15688524
209	0x3d82c495	0.06385151
210	0x3e06b322	0.13154271
211	0x3c9973b9	0.018731939
212	0xbe4cf4a5	-0.200152
213	0xbd744614	-0.059637144
214	0x3e002f8e	0.1251814
215	0xbdee50be	-0.11636494
216	0x3d941a06	0.07231526
217	0xbd70ba5e	-0.058771484
218	0x3d9681ae	0.07348953
219	0x3cd0be90	0.025481492
220	0x3d5ca01f	0.05386364
221	0xbd049a55	-0.032373745
222	0xbe1f7b22	-0.15574315
223	0x3daedc0f	0.085380666
224	0xbd619fd7	-0.055084076
225	0xbdcb4ceb	-0.0992678
226	0xbe3ac4b3	-0.18239097
227	0xbdc3d2bd	-0.095616795
228	0xbd070091	-0.032959525
229	0x3d3ad0ef	0.04560941
230	0xbd248811	-0.040168826
231	0xbded38be	-0.11583088
232	0xbd43efca	-0.047836103
233	0xbe156d26	-0.14592418
234	0x3c8cdd8a	0.017195482
235	0xbd65ccaa	-0.056103386
236	0x3c888561	0.016665163
237	0xbc6169b6	-0.013758114
238	0xbce9c3a2	-0.028535668
239	0x3967b0a3	0.00022095679
240	0x3e22ecd6	0.15910658
241	0x3dfb0673	0.122570895
242	0x3c1555ca	0.009114692
243	0xbd8d8992	-0.06911005
244	0xbc5cc92a	-0.013475696
245	0xbe47cd45	-0.19511898
246	0xbd3b662f	-0.045751747
247	0x3dc85eef	0.09783732
248	0xbd6c172a	-0.05763928
249	0xbdcbff02	-0.09960748
250	0xbd458984	-0.04822685
251	0xbd870741	-0.065931804
252	0x3e3ae11f	0.1824994
253	0xbd087e66	-0.033323668
254	0x3dddadcd	0.108241655
255	0x3e41dd64	0.1893211

model.encoder.eb_encoder.0.6.bias f4 [32]
0	0xbe243865	-0.16037138
1	0xbdfbabd6	-0.122886345
2	0x3e12b78c	0.1432783
3	0x3e16dd05	0.1473275
4	0xbc58fdf5	-0.013244142
5	0x3e0f2ae4	0.13981205
6	0xbd7c51d0	-0.06160146
7	0xbe15e95b	-0.146398
8	0x3cad5899	0.02116041
9	0x3a9fb2c7	0.0012184017
10	0xbe34ea46	-0.17667493
11	0x3e3fc33b	0.18726818
12	0x3da227e6	0.07917766
13	0x3de575be	0.11204098
14	0xbe0eabad	-0.13932677
15	0x3dd16d3b	0.10225912
16	0xbdd8525a	-0.10562582
17	0xbe18dc47	-0.14927779
18	0xbe17e00c	-0.14831561
19	0x3dbdb7fc	0.09263608
20	0x3e084b08	0.13309872
21	0x3e0e7e76	0.13915429
22	0x3e42cf9f	0.19024514
23	0x3d3ce63d	0.04611801
24	0xbd1a087a	-0.03760574
25	0xbd89f816	-0.06736772
26	0xbc9f0b5b	-0.019414594
27	0xbd234151	-0.039857212
28	0xbd97471f	-0.07386612
29	0xbcd820a8	-0.02638276
30	0xbe49b724	-0.19698769
31	0x3e34d5f8	0.17659748

model.encoder.eb_encoder.1.weight f4 [32]
0	0x3f8d3c4c	1.1034026
1	0x3f86bb4b	1.0525907
2	0x3f80b789	1.005601
3	0x3f83c7e3	1.0295376
4	0x3f82f88d	1.0232102
5	0x3f86514b	1.0493559
6	0x3f884769	1.0646793
7	0x3f86e086	1.0537269
8	0x3f878801	1.058838
9	0x3f8510b4	1.0395722
10	0x3f89d1a5	1.0767103
11	0x3f841e13	1.0321678
12	0x3f89826f	1.074293
13	0x3f82e37e	1.0225675
14	0x3f8ed2c0	1.1158066
15	0x3f8577b9	1.0427161
16	0x3f9312b8	1.1490088
17	0x3f88b0fb	1.067901
18	0x3f86cef6	1.053191
19	0x3f86f37d	1.0543057
20	0x3f895f45	1.0732199
21	0x3f8756d5	1.0573374
22	0x3f854bd1	1.0413762
23	0x3f842ca5	1.0326124
24	0x3f86f2dc	1.0542865
25	0x3f851ab9	1.039878
26	0x3f79ea27	0.97622913
27	0x3f82c47f	1.0216216
28	0x3f84527d	1.0337673
29	0x3f830c8c	1.0238204
30	0x3f85d7c7	1.0456475
31	0x3f8af8a3	1.0857128

model.encoder.eb_encoder.1.bias f4 [32]
0	0x3ba0a1bc	0.0049020927
1	0xba6eeaf5	-0.0009113991
2	0xbb4b6ce4	-0.0031040246
3	0xbba857d7	-0.0051374245
4	0x3b8de1f3	0.0043299138
5	0x3bf5bdba	0.007499424
6	0x3be8c1f9	0.0071032015
7	0x39ee7c7d	0.00045487648
8	0x3ab2af89	0.0013632636
9	0xbb0959b4	-0.0020958008
10	0xba39c3da	-0.0007086374
11	0x383882b7	4.3990756e-05
12	0x3c137907	0.009001023
13	0x3abbe470	0.0014335047
14	0xbac112ad	-0.0014730297
15	0xbb34e8b9	-0.0027604534
16	0xbb4b79fe	-0.0031048055
17	0xbc2bf1b9	-0.010494643
18	0x3a1398d9	0.0005630381
19	0x3b157cd2	0.0022809994
20	0xba93594c	-0.0011241823
21	0x3aab9a9e	0.0013092344
22	0x3be5cccc	0.007012939
23	0x3aa28eca	0.0012402174
24	0xbb495880	-0.0030722916
25	0x3c1fb698	0.009748124
26	0xbc8b0973	-0.01697228
27	0xba833cca	-0.0010012623
28	0x3c4db6dc	0.012555804
29	0xbbb8216f	-0.00561922
30	0x3a8b0929	0.0010607588
31	0x3b4407fb	0.0029911983

model.encoder.nb_encoder.0.0.weight f4 [32, 10]
0	0x3d37bc4f	0.04485732
1	0x3e93c2b7	0.28859493
2	0xbd69e52d	-0.057103325
3	0xbb9e84a3	-0.004837589
4	0xbca62719	-0.020282315
5	0xbe6a72b0	-0.22895312
6	0xbe5898d6	-0.21152052
7	0x3e3654a0	0.1780572
8	0xbe0910b7	-0.13385282
9	0x3e71201d	0.23547406
10	0xbeb9921c	-0.36244285
11	0xbc8dd075	-0.017311314
12	0xbe43faf0	-0.19138694
13	0x3e2d2bd4	0.1691125
14	0xbe08531e	-0.13312957
15	0x3e147f41	0.14501669
16	0xbdea95df	-0.11454367
17	0x3e8a5a47	0.27022
18	0xbec6eae1	-0.38851073
19	0xbe9ac141	-0.30225566
20	0xbd84c4cd	-0.06482849
21	0x3e451d97	0.19249569
22	0xbe45c2cc	-0.1931259
23	0xbea6784a	-0.32513648
24	0x3e6d63eb	0.23182647
25	0x3d56857a	0.052373387
26	0xbea34a08	-0.3189242
27	0xbcafdfd5	-0.021469036
28	0xbe86e93b	-0.26349816
29	0x3ea12599	0.31473997
30	0xbd5224c8	-0.05130461
31	0xbe28c567	-0.16481553
32	0x3e4c912f	0.19977258
33	0x3e50a458	0.20375192
34	0x3e485119	0.19562186
35	0x3eaa404d	0.33252183
36	0x3ecb9e84	0.39769375
37	0xbd08c88a	-0.033394374
38	0x3e4ba1ce	0.19885942
39	0x3e3de13d	0.18542953
40	0xbd6c1851	-0.057640377
41	0x3e85a665	0.2610351
42	0xbdfdcd57	-0.12392681
43	0x3eb12ebd	0.3460597
44	0x3dff4ae8	0.12465459
45	0x3ea0b7de	0.3139028
46	0x3e853577	0.26017353
47	0xbe79f4c9	-0.24409784
48	0xbeb148e4	-0.34625924
49	0xbdd9f8c4	-0.106431514
50	0x3e928a52	0.28621155
51	0xbea0212d	-0.3127531
52	0x3d89c0d2	0.06726231
53	0x3e9c9209	0.30580166
54	0xbd9426a7	-0.07233935
55	0x3e931723	0.2872859
56	0x3e2a5ff6	0.16638169
57	0x3d3e551f	0.046467897
58	0xbdb67ed3	-0.089109086
59	0xbeb30cca	-0.34970695
60	0xbe0e816a	-0.13916555
61	0xbd9848c6	-0.074357554
62	0x3d7a50ee	0.061112337
63	0xbe94f1c5	-0.29090706
64	0xbe798b99	-0.24369659
65	0xbe6bd7b3	-0.23031501
66	0xbe0a7aa8	-0.13523352
67	0x3e4e3247	0.20136367
68	0x3e839be4	0.25704873
69	0x3eb58d91	0.3545957
70	0x3edbfe14	0.42967284
71	0xbe447c6a	-0.19188085
72	0xbd982c6c	-0.07430348
73	0x3c93a75e	0.018024143
74	0x3e443755	0.19161732
75	0x3bbe3996	0.0058052046
76	0xbdf0568a	-0.11735256
77	0x3c26dd2a	0.010184566
78	0x3e851f31	0.2600036
79	0x3d4f6051	0.050628964
80	0xbcf900f3	-0.03039596
81	0x3ce78d18	0.02826552
82	0x3cd8c532	0.026461218
83	0xbd2f7ee0	-0.042845607
84	0xbea17279	-0.31532648
85	0x3e10c70a	0.14138427
86	0xbe779bea	-0.2418057
87	0xbdac2039	-0.084045835
88	0xbe89f2f7	-0.2694318
89	0xbdb5115a	-0.088412
90	0xbe3c6aa5	-0.18400057
91	0x3e983e40	0.29734993
92	0x3e31e3a7	0.17371999
93	0x3e954f90	0.29162264
94	0x3daa05d2	0.083018914
95	0x3b8e7ab6	0.0043481244
96	0x3e13127f	0.14362524
97	0x3d67ecc1	0.05662227
98	0xbedf30de	-0.4359197
99	0xbd65104e	-0.055923752
100	0x3dff29e0	0.12459159
101	0xbe1e68a4	-0.15469605
102	0xbd824c06	-0.063621566
103	0xbe184f9b	-0.14874117
104	0x3e2f07e0	0.17092848
105	0x3c34e6a3	0.011041316
106	0x3e8f8b61	0.28036025
107	0x3e20e2b2	0.15711477
108	0xbed79655	-0.42106882
109	0xbe33c649	-0.17556109
110	0xbeba7c96	-0.36423177
111	0x3e5af06e	0.21380779
112	0xbe23eb13	-0.16007642
113	0x3d38d330	0.04512328
114	0x3e10b543	0.14131646
115	0xbd988c5f	-0.07448649
116	0x3e120ba7	0.14262258
117	0x3e6af364	0.22944409
118	0xbd7c89ca	-0.061654843
119	0xbe5c217e	-0.21497151
120	0x3cd3d03f	0.025856135
121	0x3dc2c49c	0.095101565
122	0xbe0b82f3	-0.13624172
123	0x3d6570d5	0.056015808
124	0xbdc4aefa	-0.09603687
125	0x3ee187b3	0.44048843
126	0xbdd154c0	-0.10221243
127	0xbc09a6e7	-0.008401609
128	0x3dd51577	0.10404485
129	0x3eafa1c1	0.34303096
130	0xbe15b4e1	-0.14619781
131	0x3de0e8d6	0.1098191
132	0xbdee67de	-0.11640905
133	0x3db6edcc	0.08932075
134	0xbe90f613	-0.2831274
135	0xbebe97ed	-0.37225285
136	0x3e896b21	0.26839545
137	0xbd4f2a00	-0.050577164
138	0xbe95a809	-0.29229763
139	0x3da11091	0.07864488
140	0xbe11becb	-0.14232938
141	0xbe8551a1	-0.2603884
142	0x3e20c239	0.1569909
143	0xbe9529f1	-0.2913356
144	0xbd904ec8	-0.07046276
145	0xbd202e5f	-0.039106723
146	0x3e7eeb13	0.24894361
147	0x3d7dafb3	0.061935138
148	0x3e33e0b6	0.17566189
149	0x3e8ccb02	0.27498633
150	0xbe2f6240	-0.17127323
151	0xbe29a83b	-0.16568081
152	0xbdbf7d35	-0.09350053
153	0x3d9f98d7	0.07792824
154	0xbe33da2d	-0.17563696
155	0xbe31114d	-0.17291756
156	0x3d0faeb8	0.035078734
157	0xbe962097	-0.2932174
158	0x3c8a4b95	0.016881743
159	0xbe1e4540	-0.15456104
160	0x3e568483	0.20948987
161	0x3e2bf93b	0.16794293
162	0x3db4c9b5	0.08827535
163	0xbe079299	-0.13239516
164	0x3e378768	0.17922747
165	0x3e27b551	0.1637776
166	0xbe839d18	-0.2570579
167	0x3cbe53e7	0.023233367
168	0xbe2781ec	-0.16358155
169	0xbde15593	-0.1100265
170	0xbdb186a8	-0.08668262
171	0x3e966799	0.29375914
172	0xbe23c636	-0.1599358
173	0x3e193e6a	0.14965215
174	0xbea4ca94	-0.32185805
175	0x3e788e2f	0.24272989
176	0xbeb4b1c9	-0.3529189
177	0xbdb5e952	-0.08882393
178	0xbe7fbf74	-0.24975377
179	0x3e21dcf3	0.15806942
180	0x3e63b954	0.22238666
181	0x3e7883e5	0.24269064
182	0x3e9643db	0.29348645
183	0x3e808091	0.25098088
184	0xbdf5ea25	-0.1200755
185	0xbdcc83c4	-0.0998607
186	0xbc9f7e4b	-0.0194694
187	0x3d6c3d19	0.057675455
188	0x3e36f260	0.17865896
189	0xbeb10f1e	-0.34581846
190	0x3e73fd55	0.23827107
191	0x3d15d12a	0.036576428
192	0x3e20a59f	0.1568818
193	0xbd41a8d3	-0.047280144
194	0xbe3d5986	-0.18491182
195	0xbdea0770	-0.114272
196	0x3c76f6aa	0.015073458
197	0x3e3ca27a	0.18421355
198	0xbe0e4913	-0.13895063
199	0xbce0f209	-0.027459161
200	0x3da64402	0.0811844
201	0xbd6ec6f9	-0.058295224
202	0x3e29e81e	0.16592452
203	0x3e9adfb3	0.30248794
204	0xbe29e4c3	-0.16591172
205	0x3e9aa123	0.30201063
206	0x3e949301	0.29018405
207	0xbe72b170	-0.237005
208	0x3e693a49	0.2277614
209	0x3ea0f988	0.31440377
210	0x3d571b3e	0.052516215
211	0x3decaa01	0.11555863
212	0xbd49d1fd	-0.049272526
213	0xbdf02339	-0.11725468
214	0xbe195a29	-0.149758
215	0xbe59f41e	-0.2128453
216	0x3e9638cc	0.29340208
217	0xbe4f261c	-0.20229381
218	0x3eafa2e8	0.34303975
219	0xbd1a3085	-0.037643928
220	0x3e4a0ce3	0.19731478
221	0xbd9681a2	-0.07348944
222	0x3db51413	0.088417195
223	0x3dd864d2	0.10566105
224	0xbe9bd11e	-0.3043298
225	0xbe479e00	-0.19493866
226	0xbec6b503	-0.38809976
227	0xbe38cfde	-0.18048045
228	0x3e125560	0.1429038
229	0x3ebc74e1	0.36807922
230	0xbea7ad05	-0.3274919
231	0x3e00d87a	0.1258258
232	0xba350ba2	-0.00069063355
233	0xbe584385	-0.21119507
234	0x3eba8123	0.36426648
235	0xbd936a0e	-0.07197963
236	0x3e9c6305	0.30544296
237	0x3dee1bd9	0.11626405
238	0xbdd0b16e	-0.10190092
239	0xbe3b819b	-0.1831116
240	0xbd3e5838	-0.04647085
241	0x3e4064c9	0.18788446
242	0x3b62c9fd	0.0034605258
243	0x3ea311a7	0.31849405
244	0xbdf46c84	-0.1193476
245	0xbe400962	-0.1875358
246	0xbe6a51ec	-0.22882813
247	0xbb58395e	-0.0032993178
248	0xbe10ff77	-0.14159952
249	0x3da43b9f	0.08019184
250	0x3e81afa7	0.25329325
251	0x3e13b12c	0.14423054
252	0xbe2d97d5	-0.1695245
253	0x3e6046d7	0.21902023
254	0x3d82c906	0.063859984
255	0xbe13663c	-0.14394468

model.encoder.nb_encoder.0.0.bias f4 [32]
0	0x3e21b8f6	0.15793213
1	0xbdcbfe92	-0.09960665
2	0x3dfaf5d0	0.12253916
3	0x3e0b5ad7	0.13608871
4	0x3e94fce1	0.2909918
5	0xbda56e11	-0.08077634
6	0xbe9c4198	-0.30518794
7	0x3ecabe17	0.39598152
8	0x3e5a61c7	0.21326362
9	0xbe5bfa9e	-0.21482322
10	0xbd889fa2	-0.066710725
11	0x3ddb2cae	0.10701881
12	0xbe313344	-0.17304713
13	0x3e356cdb	0.17717306
14	0xbe3f7605	-0.18697365
15	0x3e990c8d	0.29892388
16	0xbdc58084	-0.09643653
17	0x3eb44e10	0.35215807
18	0xbe00129e	-0.12507102
19	0x3e82cf5a	0.25548822
20	0x3ec51c85	0.3849832
21	0x3ec5dd3f	0.3864536
22	0x3ee92c3b	0.45541558
23	0x3e98528e	0.29750484
24	0xbe7ed724	-0.24886757
25	0x3b9318c2	0.0044890353
26	0xbe2d1e66	-0.16906127
27	0xbcb98b0c	-0.02264931
28	0x3dafcc09	0.085838385
29	0xbd00c1f2	-0.03143496
30	0x3e50f72d	0.2040679
31	0xbe2e39c2	-0.1701422

model.encoder.nb_encoder.0.2.weight f4 [32, 32]
0	0xbdb3a88f	-0.087723844
1	0xbd2e16c7	-0.04250219
2	0x3de686b5	0.11256162
3	0x3e06da16	0.1316913
4	0x3dc112c0	0.094274044
5	0xbe12db42	-0.14341453
6	0x3e26a40a	0.16273513
7	0x3e648a3d	0.22318359
8	0x3e00c789	0.12576117
9	0xbda3fb87	-0.080069594
10	0x3dfcbf2a	0.12341149
11	0xbd9159a4	-0.07097176
12	0xbd143966	-0.036187552
13	0x3d5fadcb	0.0546091
14	0x3e130b2b	0.14359729
15	0xbdec73b5	-0.11545507
16	0xbd7897a1	-0.06069148
17	0x3e8f581e	0.27996916
18	0xbd8315ba	-0.064006284
19	0x3e2696c1	0.16268446
20	0x3d2eef21	0.04270852
21	0xbd51811c	-0.05114852
22	0x3c23c4a0	0.0099956095
23	0x3d153190	0.03642422
24	0xbc8ab420	-0.016931593
25	0xbc7fdc67	-0.015616513
26	0x3e261ea0	0.1622262
27	0x3e0e89a1	0.13919689
28	0xbdcea94c	-0.100908846
29	0x3e44550f	0.19173072
30	0x3e9fcd00	0.3121109
31	0xbe1fe216	-0.15613589
32	0x3c42a139	0.011879259
33	0xbd5b33c2	-0.053516157
34	0xbdf80f34	-0.12112275
35	0x3e3b6645	0.18300731
36	0x3d8948e8	0.06703359
37	0x3db1e443	0.086861156
38	0xbd71cc20	-0.05903256
39	0xbd5615d6	-0.052266918
40	0x3e5008d9	0.20315875
41	0xbde64584	-0.11243728
42	0x3dbb4024	0.09143093
43	0x3d609aa5	0.05483498
44	0xbe3886ee	-0.18020222
45	0xbe011e6d	-0.12609263
46	0xbccc72cc	-0.024957083
47	0x3dfc4fe9	0.12319929
48	0x3dea06a5	0.114270486
49	0x3dd44242	0.103642
50	0x3e3088e2	0.17239717
51	0x3d9cd3cf	0.07657587
52	0xbd95a01c	-0.07305929
53	0x3d04f65f	0.03246152
54	0xbc72bfc7	-0.014816231
55	0xbe323496	-0.17402872
56	0x3e2926ce	0.16518709
57	0xbd0fd4d7	-0.03511509
58	0xbd7707e9	-0.060310278
59	0xbd69a0cf	-0.057038125
60	0x3e067360	0.1312995
61	0xbe2270dc	-0.15863365
62	0xbcc57872	-0.024105284
63	0x3cc2fa74	0.023801066
64	0xbd833945	-0.06407408
65	0xbdbb7d23	-0.09154727
66	0x3df3344e	0.11875211
67	0xbd0af6c3	-0.033926737
68	0x3e2006b6	0.1562756
69	0x3db6ee62	0.08932187
70	0xbde6f103	-0.11276438
71	0xbd45f9bd	-0.048333872
72	0xbdd24bc2	-0.10268356
73	0x3e26b0bb	0.16278355
74	0x3e4d54b6	0.20051846
75	0x3dcf01fb	0.101077996
76	0xbdb79a9a	-0.08965035
77	0xbd8c4041	-0.06848193
78	0xbc7cc930	-0.015428826
79	0x3d2f4046	0.042785905
80	0xbdc1a34e	-0.09454976
81	0x3e205645	0.15657909
82	0x3c3fc64e	0.011704994
83	0xbde0c6c7	-0.10975414
84	0x3e2a3c4d	0.16624565
85	0xbc3328e6	-0.010935044
86	0x3c9831c0	0.01857841
87	0xbc8487fe	-0.016178127
88	0xbcfb1cc4	-0.030653365
89	0xbd5a74c8	-0.053334028
90	0x3e6a381e	0.2287297
91	0xbc2843e9	-0.010270097
92	0x3d068265	0.032839198
93	0x3e21a39d	0.1578507
94	0x3d066511	0.03281123
95	0xbc35ae8b	-0.011088978
96	0xbd463b7a	-0.048396565
97	0x3d0131d1	0.03154165
98	0x3e68a68b	0.22719781
99	0xbcdf868f	-0.027285842
100	0xbc004284	-0.007828359
101	0xbe3af826	-0.18258724
102	0xbda3908a	-0.07986553
103	0x3db582cc	0.08862838
104	0x3d8ca424	0.06867245
105	0x3a8c3281	0.0010696204
106	0x3cb47e60	0.022032917
107	0xbf0af353	-0.54277533
108	0xbe099170	-0.13434386
109	0x3e40efc3	0.18841462
110	0x3deda1b9	0.11603112
111	0xbd834466	-0.0640953
112	0xbdbfa6fd	-0.09358022
113	0x3d88e72d	0.06684718
114	0x3c76a7b3	0.015054631
115	0xbd53ff0e	-0.05175691
116	0x3d9273a5	0.07150964
117	0x3e7959e6	0.243507
118	0x3e9183a3	0.28420743
119	0xbdcafe35	-0.099117674
120	0xbd5dfaf6	-0.054194413
121	0xbd1261d7	-0.03573784
122	0x3dd4964e	0.10380231
123	0xbcad2b0d	-0.021138692
124	0x3db60aa5	0.08888749
125	0xbdd18ad5	-0.10231558
126	0x3ee295ed	0.4425501
127	0xbda2c4ac	-0.079476684
128	0xbd27c8b1	-0.04096288
129	0xbdb4f62f	-0.08836018
130	0x3e1dbcb7	0.1540402
131	0xbd92ecf6	-0.07174103
132	0xbdd81085	-0.10550026
133	0xbdbf3f5c	-0.09338257
134	0xbbcd6d3b	-0.006269125
135	0xbde57f1b	-0.11205884
136	0x3c9c6501	0.019091131
137	0xbdddaccb	-0.10823973
138	0x3d436099	0.047699545
139	0x3cfcab9f	0.030843554
140	0xbd52561d	-0.051351655
141	0xbbfa454c	-0.0076376554
142	0xbd99c9b0	-0.07509172
143	0x3d8141c8	0.06311375
144	0x3cf1c7c3	0.0295142
145	0x3e7111f4	0.23542005
146	0xbe2a52f5	-0.16633208
147	0xbd95da81	-0.07317067
148	0x3db758df	0.08952498
149	0x3e0180e8	0.1264683
150	0x3d81fd86	0.06347184
151	0xbe35b1bf	-0.17743586
152	0xbe339ac7	-0.17539512
153	0xbd50f97e	-0.051019184
154	0x3c75c2b9	0.015000039
155	0xbd3137c6	-0.04326608
156	0x3df39ff6	0.118957445
157	0x3e13df7c	0.14440721
158	0xbe8789b3	-0.26472244
159	0x3e1347cf	0.14382862
160	0x3d2fab82	0.042888172
161	0xbd7c3d8a	-0.061582126
162	0x3e770d8b	0.2412626
163	0x3c462e71	0.012096033
164	0x3db4ac2b	0.08821901
165	0x3d684222	0.056703694
166	0x3e2eab72	0.17057589
167	0xbb5980b8	-0.0033188295
168	0x3e14868f	0.14504455
169	0xbd1bad9e	-0.03800737
170	0x3e0d5924	0.13803536
171	0x3dce1b2f	0.100637786
172	0xbc5cbe0f	-0.013473048
173	0x3e1758ea	0.14780012
174	0x3df0922d	0.11746631
175	0x3d52ff63	0.051513087
176	0xbe086c40	-0.13322544
177	0xbe1eac01	-0.15495302
178	0x3ce61625	0.028086731
179	0x3d8cc431	0.06873358
180	0xbb321bb6	-0.0027177162
181	0x3c9cf12d	0.01915797
182	0x3baed153	0.005335012
183	0xbe30bc26	-0.17259273
184	0xbd9569a2	-0.072955385
185	0x3cd7f732	0.02636299
186	0x3d3496ae	0.04408901
187	0xbe2c6844	-0.16836649
188	0xbe2a8a9d	-0.1665444
189	0x3cb5735b	0.022149732
190	0xbe9017dd	-0.28143206
191	0x3d97e310	0.074163556
192	0x3d7a9004	0.0611725
193	0xbe0b219c	-0.1358704
194	0x3c987dd7	0.018614693
195	0x3b6307d0	0.0034642108
196	0xbd98bfbf	-0.07458448
197	0xbe169db6	-0.147086
198	0x3d0b5d74	0.03402467
199	0xbdbe0a9a	-0.09279366
200	0x3ceb37ed	0.02871319
201	0xbd2f2e04	-0.042768493
202	0x3df2751a	0.118387416
203	0x3dbb8548	0.09156281
204	0xbe3b844d	-0.18312187
205	0xbdf85ec4	-0.1212745
206	0x3e04f0e1	0.12982513
207	0xbbc3fc5f	-0.0059810127
208	0x3e032519	0.1280712
209	0xbe0d9dc9	-0.13829722
210	0xbdc5ba77	-0.09654706
211	0x3e154804	0.14578253
212	0xbdac9719	-0.08427257
213	0xbe1c0784	-0.15237242
214	0xbe278d1f	-0.16362427
215	0xbda0e344	-0.078558475
216	0xbdfffe78	-0.12499708
217	0x3de3cadd	0.111226775
218	0xbd205cc7	-0.03915098
219	0x3d9f72bc	0.07785556
220	0x3e14ccb1	0.14531209
221	0x3e2c5db1	0.16832615
222	0x3d40f28c	0.04710631
223	0xbdcbd61c	-0.099529475
224	0xbe14ae97	-0.14519726
225	0x3a198585	0.0005856383
226	0x3e480e38	0.19536674
227	0xbd15bea3	-0.03655876
228	0xbdafc71c	-0.08582899
229	0x3e1215e1	0.14266159
230	0xbdda4542	-0.10657741
231	0x3dc82c18	0.09774035
232	0xbe4a9d54	-0.19786578
233	0x3e35e142	0.1776171
234	0x3cb54573	0.022127843
235	0xbe0cad59	-0.13738002
236	0x3e15299e	0.14566657
237	0x3dc1103b	0.09426924
238	0xbd4471c6	-0.047960065
239	0xbd917896	-0.07103078
240	0x3e0ecfe2	0.13946488
241	0xb9f3f9b9	-0.0004653463
242	0xbdfd074d	-0.12354908
243	0x3e28be42	0.16478828
244	0x3dba8778	0.0910787
245	0x3d8fd7aa	0.070235565
246	0x3d9cd60b	0.07658013
247	0xbbc2b079	-0.0059414473
248	0x3da3e8d1	0.080033906
249	0x3dcf2ca0	0.101159334
250	0x3d667037	0.05625936
251	0x3caeb13f	0.021324752
252	0xbccc4b6f	-0.024938313
253	0x3e3f71b8	0.18695724
254	0xbcef7034	-0.029228307
255	0xbdf770be	-0.12082051

model.encoder.nb_encoder.0.2.bias f4 [32]
0	0x3dd7dfcb	0.10540732
1	0x3e612704	0.2198754
2	0xbc90193d	-0.01759016
3	0xbd5db413	-0.05412681
4	0xbca92d03	-0.020651346
5	0x3e11d01a	0.1423954
6	0x3e182fa6	0.14861926
7	0x3e1d079a	0.15334931
8	0xb879720d	-5.9472444e-05
9	0x3dd179b8	0.10228294
10	0x3de813b0	0.1133188
11	0x3dfd00aa	0.12353642
12	0xbda2e3d2	-0.079536095
13	0xbe26da10	-0.16294122
14	0xbdca4ae5	-0.09877566
15	0x3e53c033	0.20678787
16	0x3e5c4549	0.21510805
17	0xbe4b0b86	-0.19828615
18	0xbdf64a89	-0.12025935
19	0x3dbf4a0b	0.093402945
20	0x38b35b40	8.552382e-05
21	0xbd0a0c34	-0.033703044
22	0x3e158ea4	0.14605194
23	0x3e0377bd	0.12838645
24	0x3e0a8afc	0.13529581
25	0xbbda880d	-0.0066690505
26	0x3d692b3b	0.056925993
27	0xbdc142e3	-0.09436586
28	0xbe2a7241	-0.16645147
29	0x3dbb26a9	0.09138233
30	0xbdb59068	-0.08865434
31	0xbd3042b2	-0.043032356
