v3/checkpoint/simulator.pth (torch, 488581 bytes, 188 tensors)

model.encoder.eb_encoder.0.0.weight f4 [32, 7]
-0.80857474 -0.1831981 0.10738407 0.23189491 0.094912626 0.2711567 -0.103539966 0.4259178
0.08810222 -0.20023823 0.11896842 0.20317757 0.0895124 -0.19418624 0.0981261 0.10985411
0.33816183 -0.1376977 0.12811017 0.16215026 0.33308664 -0.69343287 0.55085975 0.21310589
-0.028722746 0.021094887 0.10005505 -0.24885911 0.6258865 -0.39600214 -0.18352357 -0.0023778677
-0.022094268 -0.05553253 0.18796279 -0.13279514 0.2835259 0.2497376 0.18106042 -0.09611831
0.034936864 -0.0006759239 -0.42429662 0.08487396 -0.44174045 -0.003798034 0.020396445 -0.04546371
-0.009570096 -0.8171387 0.26111406 0.023922052 0.022049425 -0.04800787 0.1446281 0.25649714
0.07367833 -0.048362195 0.31589577 0.25740394 0.24290797 -0.24925786 0.008501281 0.53749764
0.18890972 -0.045750596 -0.19995573 -0.053959172 -0.2031527 0.10617356 -0.1026155 0.32756335
-0.31867325 0.024551153 0.13494799 0.15547769 0.31883463 -0.31491706 -0.18950391 0.2636244
-0.068480924 0.05931029 0.2124943 0.2481512 -0.29323703 0.21279757 -0.2789256 0.050594542
0.04835103 0.21068521 -0.039062604 0.024712129 -0.012622182 0.20246738 -0.84897774 -0.009044321
0.07127592 -0.022457963 0.11192395 -0.6551668 0.05419472 -0.016938206 0.3310467 -0.19477567
0.34268463 -0.3561098 0.3987366 -0.053221565 -0.08409831 0.11918392 -0.122114204 -0.12018667
0.25213292 0.2646678 -0.08340856 -0.05354438 -0.3049737 0.013759837 0.23522049 0.23868082
-0.27524588 0.25230357 0.20794219 -0.19236642 0.22143939 0.0053672506 0.11946377 0.109962314
-0.30059716 -0.16284198 0.14846507 0.021610104 0.047922835 0.7307211 -0.45638528 0.22667688
0.027336948 0.105215184 0.014464152 -0.33636796 0.20954034 0.5035024 0.079278745 -0.003482105
0.027734375 0.00724414 0.069596924 -0.7202898 0.08839506 0.2524803 -0.10603893 0.0057335836
-0.051816583 0.07085682 0.2994736 -0.44586122 0.20530762 -0.038525887 0.28717723 0.25046733
0.310114 -0.6158442 0.007626355 -0.1617998 0.20298944 -0.23276691 -0.21569079 0.19129401
0.3823589 0.36082783 -0.33576518 0.020454818 -0.043851517 -0.06483383 -0.06085829 -0.0023227578
-0.2644847 0.3215825 -0.19398908 -0.20843427 0.0870772 0.11630007 -0.2612843 0.6339873
-0.04504992 0.0024989038 0.24498689 -0.023518631 0.09591536 -0.047579 0.34176117 0.12239622
-0.13407911 0.0021399271 -0.1600102 0.162397 -0.012597401 -0.10791556 0.31775326 -0.2039597
0.2847336 0.19932483 0.15576299 -0.64895546 -0.4395245 0.09560388 0.008293756 0.05203661
0.0075607803 -0.09288846 0.55049336 0.2905143 0.20075616 0.20197661 -0.15542899 -0.062191807
-0.034127727 -0.1973166 -0.40469453 0.27484024 -0.02331369 -0.12694895 -0.08022169 -0.31315517
00000000: c1fe 4ebf 4898 3bbe 2eec db3d dc75 6d3e
00000010: 8d61 c23d 0dd5 8a3e c30c d4bd e611 da3e
00000020: f06e b43d 400b 4dbe b7a5 f33d c80d 503e
00000030: 4752 b73d c2d8 46be 56f6 c83d 31fb e03d
00000040: 8c23 ad3e a000 0dbe 502f 033e b80a 263e
00000050: 558a aa3e d184 31bf 2505 0d3f 6e38 5a3e
00000060: f74b ebbc 2fcf ac3c a9e9 cc3d ecd4 7ebe
00000070: 193a 203f cbc0 cabe 9aed 3bbe 00d6 1bbb
00000080: 0aff b4bc 1476 63bd 5179 403e 73fb 07be
00000090: 4f2a 913e 37bb 7f3e e767 393e add9 c4bd
000000a0: f519 0f3d 7c30 31ba 683d d9be 66d2 ad3d
000000b0: ce2b e2be 70e8 78bb 7216 a73c 2838 3abd
000000c0: e4cb 1cbc 0030 51bf beb0 853e 2ef8 c33c
000000d0: ffa0 b43c e6a3 44bd 6319 143e 9853 833e
000000e0: aae4 963d 7017 46bd 17bd a13e 73ca 833e
000000f0: debc 783e 743d 7fbe f548 0b3c 7299 093f
00000100: 8d71 413e fa64 3bbd 32c1 4cbe 4b04 5dbd
00000110: 4307 50be 8671 d93d 1328 d2bd 62b6 a73e
00000120: 2429 a3be 801f c93c ce2f 0a3e 8b35 1f3e
00000130: 4b3e a33e cf3c a1be 500d 42be c7f9 863e
00000140: ba3f 8cbd 59ef 723d 1b98 593e 591b 7e3e
00000150: 2a23 96be 9be7 593e 56cf 8ebe 393c 4f3d
00000160: bb0b 463d ddbd 573e 1c00 20bd 1771 ca3c
00000170: 45cd 4ebc 9c53 4f3e 9b56 59bf a22e 14bc
00000180: 1cf9 913d c3f9 b7bc 6238 e53d 03b9 27bf
00000190: 48fb 5d3d fec1 8abc f47e a93e 4673 47be
000001a0: 5c74 af3e 0654 b6be 3427 cc3e dbfe 59bd
000001b0: bc3b acbd b316 f43d 0317 fabd 6e24 f6bd
000001c0: 9117 813e 8a82 873e 1bd2 aabd 5a51 5bbd
000001d0: 8325 9cbe f070 613c a4dd 703e bf68 743e
000001e0: 07ed 8cbe ef2d 813e ccee 543e b4fb 44be
000001f0: 02c1 623e c3df af3b 6ca9 f43d ec33 e13d
00000200: dfe7 99be 0cc0 26be 3a07 183e ac07 b13c
00000210: bc4a 443d 8a10 3b3f 55ab e9be fc1d 683e
00000220: bcf1 df3c 0f7b d73d 0dfb 6c3c 6c38 acbe
00000230: be91 563e 89e5 003f e55c a23d 0734 64bb
00000240: 3333 e33c 4060 ed3b d588 8e3d ea64 38bf
00000250: 7808 b53d 1945 813e f02a d9bd c9e0 bb3b
00000260: a03d 54bd 611d 913d 9b54 993e ec47 e4be
00000270: 293c 523e 52cd 1dbd e508 933e 413d 803e
00000280: 43c7 9e3e f7a7 1dbf 81e6 f93b d9ae 25be
00000290: 77dc 4f3e 735a 6ebe 0cde 5cbe 94e2 433e
000002a0: 8cc4 c33e 6dbe b83e 6ae9 abbe dd90 a73c
000002b0: a69d 33bd 99c7 84bd 8b46 79bd 6939 18bb
000002c0: 8a6a 87be 76a6 a43e 13a5 46be cb6f 55be
000002d0: 8855 b23d bb2e ee3d 0ec7 85be fe4c 223f
000002e0: 4486 38bd a6c4 233b d8dd 7a3e 25aa c0bc
000002f0: 466f c43d 33e2 42bd 52fb ae3e dfaa fa3d
00000300: 094c 09be 053e 0c3b b7d9 23be 664b 263e
00000310: 5465 4ebc d502 ddbd 8eb0 a23e d0da 50be
00000320: 9ac8 913e cf1b 4c3e 5580 1f3e f221 26bf
00000330: 5b09 e1be f8cb c33d 89e2 073c 5724 553d
00000340: 6cc0 f73b 4e3c bebd 22ed 0c3f 4abe 943e
00000350: 0693 4d3e f5d2 4e3e c728 1fbe d6bc 7ebd
00000360: 84c9 0bbd 5d0d 4abe 1f34 cfbe dcb7 8c3e
00000370: 5afc bebc e8fe 01be 454b a4bd e055 a0be

model.encoder.eb_encoder.0.0.bias f4 [32]
-0.12658444 0.2781988 -0.2612537 -0.18127014 0.18337995 -0.055702705 0.25154355 0.06826636
0.19129749 -0.10824142 0.0011642999 0.18036993 0.2546265 0.06447693 -0.22930162 -0.00083258864
0.013979262 0.12708777 0.02608013 -0.117456555 -0.20102814 -0.017146146 -0.12610178 0.22513889
-0.17074242 0.005995347 0.29575658 0.1681552 -0.09562941 0.12028685 0.18906373 0.23535818
00000000: 5a9f 01be 1370 8e3e 0cc3 85be e19e 39be
00000010: f4c7 3b3e 8528 64bd 51ca 803e 3ccf 8b3d
00000020: 7de3 433e adad ddbd 6c9b 983a e5b2 383e
00000030: 685e 823e 7b0c 843d 0bce 6abe 1442 5aba
00000040: 4609 653c 4c23 023e ffa5 d53c 108d f0bd
00000050: 52da 4dbe 1376 8cbc d320 01be cf8a 663e
00000060: 1ad7 2ebe 9e74 c43b 686d 973e e030 2c3e
00000070: 5ad9 c3bd f458 f63d ec99 413e bc01 713e

model.encoder.eb_encoder.0.2.weight f4 [32, 32]
0.046826296 -0.15862192 0.12317616 0.11267615 -0.082039826 0.08067528 -0.16110554 -0.026628062
0.12908956 0.12960503 -0.0039174315 0.0313182 0.036425985 -0.18681598 0.14137588 0.15337686
-0.06884301 -0.0014186845 0.066280514 0.032264892 -0.01281415 0.16713566 -0.11413591 -0.04068512
-0.0039122654 -0.029833289 0.20498626 -0.012231219 -0.03977274 0.0062277634 0.07467408 0.10780603
-0.12945375 -0.043012332 -0.05965852 -0.03169697 0.14394553 -0.10001832 0.00838288 -0.15910451
0.18200918 0.061840855 -0.0619006 0.03941894 0.017111316 -0.0026512013 0.12011107 -0.09083477
0.11533196 0.010376359 -0.18621872 -0.17517947 0.1573301 -0.0994135 -0.061777826 -0.09783282
-0.117643274 0.16967505 -0.19849221 0.0878575 -0.04434431 0.049594026 0.1810187 0.09613771
0.06954797 0.025408676 -0.111790486 -0.11578642 -0.111350715 0.15321466 0.20769773 0.24433984
-0.049032956 0.111029565 0.13473041 -0.12530088 0.107045494 -0.0012459422 -0.0638573 -0.31847277
0.029627278 -0.10860371 0.060256124 0.15755017 -0.05089812 0.17397775 -0.06693033 -0.0021173467
0.19861937 -0.0031975722 0.1490084 0.15436275 -0.02511006 0.09282895 -0.0099765705 0.007893059
0.08812169 -0.015163251 0.15881889 0.043644186 -0.17354424 0.12563297 -0.30154943 0.13441086
-0.027635317 0.04990433 -0.09080921 -0.073821075 0.023712799 0.23870178 -0.13001885 -0.009109506
0.09547407 0.0045480975 -0.16664113 0.0045885234 0.038063064 0.031112053 0.15424858 -0.07054777
0.021471981 0.048334397 -0.19657749 0.08223715 0.042028263 0.09978637 -0.07426414 0.12903374
0.11118611 0.163796 0.18359637 -0.01814288 -0.11657239 0.032698862 -0.057994153 -0.11000595
-0.05164519 0.020746086 0.13451944 0.1587469 -0.14677897 0.044533134 -0.05524061 0.21439289
-0.08004547 0.1950376 0.05401874 -0.02320534 -0.09555714 0.12664403 0.10301108 -0.14886297
-0.022975352 -0.018448094 0.06324226 -0.15079497 -0.113312334 0.16754551 -0.035905067 0.17611349
-0.04329528 -0.093392335 0.083953135 -0.22018921 -0.13174799 0.07859343 -0.048066545 -0.0584034
-0.10606695 0.16840324 -0.0077530886 0.04719401 0.17464536 0.01298004 -0.092548534 -0.42603704
0.0089206705 0.037694544 -0.017405964 0.08832954 0.3587783 -0.25049528 -0.08300317 0.008627178
-0.0037424387 -0.11029627 0.24203417 0.2539155 0.0103029255 -0.1420752 0.085018605 0.1434694
0.1321331 0.15522626 0.14237727 0.07118216 -0.040526588 -0.13467647 -0.0020248333 -0.030481087
0.077446066 -0.13766676 0.06360988 0.16015042 0.1220315 -0.2831081 0.0031079482 0.10507991
-0.11674762 0.027561 -0.15285559 0.15835454 -0.22109348 -0.027462713 0.07847198 -0.1223939
0.13067293 -0.07729203 -0.17850211 -0.14934234 0.098063044 0.05864672 0.043611076 -0.014139395
-0.01328671 -0.0054097776 0.031186696 0.061014883 0.06513736 0.012170905 -0.23861057 0.23384887
0.007625147 -0.11350022 -0.076790705 0.13832983 0.07519989 0.07857285 -0.083323695 0.15907714
0.1209676 -0.12626591 -0.13734552 0.1380347 0.091949575 0.19877797 0.01745155 -0.00718858
0.14181273 0.049467415 0.17267437 -0.010807103 -0.1594371 -0.012864352 0.101845235 0.051928006
00000000: eecc 3f3d c96d 22be c843 fc3d c1c2 e63d
00000010: 7f04 a8bd 1539 a53d daf8 24be 1823 dabc
00000020: 0e30 043e 2eb7 043e cc5d 80bb 8347 003d
00000030: 6a33 153d b04c 3fbe d7c4 103e d30e 1d3e
00000040: 90fd 8cbd 27f3 b9ba 14be 873d 3128 043d
00000050: 71f2 51bc 9c25 2b3e 17c0 e9bd 71a5 26bd
00000060: 7632 80bb f164 f4bc ebe7 513e 7365 48bc
00000070: bee8 22bd 4412 cc3b b9ee 983d 68c9 dc3d
00000080: 868f 04be b32d 30bd 7e5c 74bd afd4 01bd
00000090: 7566 133e 68d6 ccbd 5958 093c 4bec 22be
000000a0: 9d60 3a3e d64c 7d3d 7c8b 7dbd c175 213d
000000b0: 082d 8c3c c7bf 2dbb cbfc f53d 9407 babd
000000c0: 2a33 ec3d 9b01 2a3c 1fb0 3ebe 3f62 33be
000000d0: 241b 213e 4e99 cbbd bf0a 7dbd 935c c8bd
000000e0: f5ee f0bd 4cbf 2d3e 8b41 4bbe a2ee b33d
000000f0: 61a2 35bd 1b23 4b3d f75c 393e d9e3 c43d
00000100: 2b6f 8e3d db25 d03c 69f2 e4bd 6e21 edbd
00000110: d80b e4bd 4ee4 1c3e b7ae 543e 3934 7a3e
00000120: c8d6 48bd 7863 e33d c5f6 093e e04e 00be
00000130: ab3a db3d e24e a3ba 9ec7 82bd dd0e a3be
00000140: e8b4 f23c 9f6b debd 20cf 763d d554 213e
00000150: 8c7a 50bd 3927 323e c512 89bd 2fc3 0abb
00000160: e062 4b3e 5c8e 51bb a895 183e 4511 1e3e
00000170: 9db3 cdbc 1b1d be3d c574 23bc e451 013c
00000180: 2579 b43d 496f 78bc 6ba1 223e 3fc4 323d
00000190: 95b5 31be eea5 003e b064 9abe 00a3 093e
000001a0: 7663 e2bc 7c68 4c3d 2efa b9bd 812f 97bd
000001b0: 5841 c23c 3d6e 743e a923 05be 0a40 15bc
000001c0: e987 c33d 3508 953b f9a3 2abe 535b 963b
000001d0: 04e8 1b3d b4de fe3c 57f3 1d3e 597b 90bd
000001e0: 02e6 af3c 4afa 453d 9c4b 49be f36b a83d
000001f0: d425 2c3d cc5c cc3d cc17 98bd 6c21 043e
00000200: 8bb5 e33d 23ba 273e b000 3c3e 61a0 94bc
00000210: 81bd eebd 3eef 053d 478b 6dbd cd4a e1bd
00000220: e889 53bd b2f3 a93c 77bf 093e 8c8e 223e
00000230: 3a4d 16be 6068 363d fa43 62bd cf89 5b3e
00000240: e1ee a3bd f0b7 473e c142 5d3d 2019 bebc
00000250: 76b3 c3bd f9ae 013e 79f7 d23d 896f 18be
00000260: ce36 bcbc 7520 97bc 2885 813d ff69 1abe
00000270: 4c10 e8bd 0d91 2b3e 3111 13bd 1857 343e
00000280: 6456 31bd 7b44 bfbd 9fef ab3d 4879 61be
00000290: f2e8 06be 98f5 a03d 6de1 44bd 6738 6fbd
000002a0: a139 d9bd e671 2c3e 9f0d febb 824e 413d
000002b0: 3cd6 323e 3caa 543c 168a bdbd 8721 dabe
000002c0: 0128 123c 9865 1a3d f496 8ebc 1ee6 b43d
000002d0: cab1 b73e eb40 80be 91fd a9bd 0259 0d3c
000002e0: b443 75bb 03e3 e1bd ced7 773e 3601 823e
000002f0: 9acd 283c 297c 11be 3c1e ae3d a4e9 123e
00000300: e64d 073e a2f3 1e3e 59cb 113e f4c7 913d
00000310: 35ff 25bd a1e8 09be 11b3 04bb 79b3 f9bc
00000320: 0b9c 9e3d 84f8 0cbe e645 823d 79fe 233e
00000330: a7eb f93d 8bf3 90be b8ae 4b3b 2334 d73d
00000340: 6019 efbd 9bc7 e13c 2d86 1cbe b127 223e
00000350: 5466 62be 7cf9 e0bc ebb5 a03d a7a9 fabd
00000360: 20cf 053e 494b 9ebd 42c9 36be 33ed 18be
00000370: 47d5 c83d 8b37 703d 87a1 323d eca8 67bc
00000380: 80b0 59bc 8144 b1bb 3e7b ff3c beea 793d
00000390: bc66 853d 7a68 473c 5456 74be 1476 6f3e
000003a0: 5edc f93b ce72 e8bd 7244 9dbd 56a6 0d3e
000003b0: 6602 9a3d cdea a03d 9da5 aabd 1ee5 223e
000003c0: dcbd f73d da4b 01be 4ea4 0cbe f858 0d3e
000003d0: 0f50 bc3d 748c 4b3e 8ef6 8e3c 2e8e ebbb
000003e0: 5b37 113e 589e 4a3d 8dd1 303e 4610 31bc
000003f0: 7b43 23be 01c5 52bc 3c94 d03d 76b2 543d

model.encoder.eb_encoder.0.2.bias f4 [32]
-0.09041012 0.18963002 0.17477162 0.14848994 0.12973964 -0.03482771 0.055910792 -0.20917577
0.11349501 -0.044265997 -0.046788096 -0.104189396 -0.17783116 -0.0035714682 -0.054400697 -0.13544634
-0.07195452 0.018626515 -0.043028224 0.017396417 0.2015944 0.08848467 0.16634935 0.06716667
0.067370236 -0.21743487 -0.10430691 0.06760931 -0.041178513 0.040538576 -0.021525271 0.1409391
00000000: f128 b9bd 5f2e 423e 55f7 323e bf0d 183e
00000010: 78da 043e 80a7 0ebd b702 653d 2c32 56be
00000020: 1270 e83d 4350 35bd e0a4 3fbd 4061 d5bd
00000030: 5f19 36be 4b0f 6abb 44d3 5ebd 72b2 0abe
00000040: e45c 93bd a296 983c 5d3e 30bd ee82 8e3c
00000050: c36e 4e3e 7337 b53d 7c57 2a3e ae8e 893d
00000060: 68f9 893d 3fa7 5ebe dc9e d5bd c076 8a3d
00000070: cdaa 28bd c70b 263d c455 b0bc 5752 103e

model.encoder.eb_encoder.0.4.weight f4 [32, 32]
-0.023789443 -0.023062155 0.23735988 -0.20277102 -0.114827394 0.031588197 -0.04202683 -0.15780376
0.1513254 -0.17892991 -0.24879439 -0.07406407 -0.2722139 -0.09004964 -0.14098641 0.08454111
0.12049023 0.010314792 0.033142548 0.13065921 0.13862869 0.05677265 0.17697555 0.21963727
-0.083844244 -0.060585056 -0.10575986 0.11873647 0.028211458 0.031953286 -0.028873459 -0.016812582
-0.10103236 -0.063950785 -0.046766274 0.19131018 -0.055121843 0.20436774 -0.03059786 0.04631552
0.1804854 0.12504518 -0.0051962924 0.035058834 0.06314104 -0.10133405 0.005404843 -0.24820764
0.14545755 -0.099527515 -0.053680997 -0.2989733 0.1523565 0.083559506 0.24796742 0.047348022
-0.12821971 -0.12074995 -0.15896235 0.13275626 -0.14364333 -0.406418 0.1826785 -0.34400856
0.122014 0.15688777 -0.03686619 -0.06864623 -0.07290383 -0.12588191 0.04633536 -0.010597783
-0.039452974 -0.09797608 0.037878666 -0.02144213 -0.07356589 -0.1340582 0.012565233 -0.015131396
-0.1617958 -0.095101334 -0.093655124 0.13681139 -0.13874769 0.16556968 -0.050451852 -0.029662868
-0.09048094 0.00797825 -0.06423953 0.025889713 -0.05275595 -0.03994147 0.09354394 0.0066337874
0.115488365 -0.21525311 0.27345893 0.09874803 -0.023330044 -0.16494545 -0.05611116 0.18672849
-0.14080562 0.08596178 0.08700363 -0.07453417 -0.06267621 0.07333959 0.122298226 -0.049708243
-0.2165784 -0.026394632 0.028975524 0.054191474 -0.17127919 -0.26228973 -0.20393264 -0.016175201
0.050916474 0.11523874 -0.39734754 -0.031499065 -0.06406903 -0.14490278 0.026517676 -0.08534108
0.10704384 -0.14845441 0.11851403 0.102973275 0.018551527 0.27595562 -0.038789347 0.07764426
-0.021600716 0.22167133 -0.10499979 0.04024823 -0.13519631 0.03582238 -0.16990511 -0.022741964
-0.20599231 -0.17803282 0.055159215 -0.001362362 -0.022401767 0.0771865 -0.06702494 -0.23586766
-0.040377025 0.22511825 -0.011606242 0.077583216 -0.20191947 -0.036417108 0.07968679 0.017701581
-0.10726138 0.0417283 0.10799651 -0.008116233 0.18486843 -0.12349124 0.005879572 0.07358855
-0.10276075 0.13901927 0.03335321 -0.13153149 0.12518626 0.073162206 0.16490544 0.011010593
-0.048976153 -0.052286115 -0.040186815 -0.021350874 0.22485363 -0.018098759 0.073723756 -0.016833648
0.09441951 -0.128497 0.06962847 0.00914376 -0.0062615033 -0.014139026 -0.1105065 0.07555687
0.11468813 0.23587143 0.14071666 -0.12754007 -0.010505895 0.032937113 -0.026593879 -0.018222112
-0.100179724 -0.059723116 -0.15480459 0.006894826 0.1215367 0.059917923 0.13417533 0.023934057
0.058848653 -0.21070711 -0.29161003 0.050921395 -0.040048014 -0.20849705 -0.04766259 0.16942665
-0.057269137 -0.07299764 0.12221231 0.015491128 0.035925303 0.051373348 -0.012217575 0.056781217
0.1429822 0.03147882 -0.047210407 -0.035475533 0.055074662 0.042919155 0.08646165 0.018995522
0.12199679 0.003458604 0.044671964 0.16499247 0.06836928 -0.044570774 0.12829016 0.111270994
0.12853105 -0.04382711 -0.084932946 -0.034441 -0.038648475 -0.10325928 -0.10980524 0.2135119
0.10399011 0.072451025 -0.19967988 0.09704645 0.12123953 -0.09857268 -0.06320463 0.079318985
00000000: 14e2 c2bc d8ec bcbc 780e 733e 35a3 4fbe
00000010: a02a ebbd a062 013d 5324 2cbd 4f97 21be
00000020: 0cf5 1a3e 6739 37be f5c3 7ebe e7ae 97bd
00000030: 9f5f 8bbe f26b b8bd be5e 10be e423 ad3d
00000040: 95c3 f63d 60ff 283c 7bc0 073d 87cb 053e
00000050: aef4 0d3e 708a 683d 1439 353e 98e8 603e
00000060: 88b6 abbd 0928 78bd a098 d8bd 1b2c f33d
00000070: b71b e73c 73e1 023d 0888 ecbc 8aba 89bc
00000080: 0eea cebd a1f8 82bd fe8d 3fbd d1e6 433e
00000090: 71c7 61bd c745 513e 5da8 fabc 58b5 3d3d
000000a0: 2ad1 383e d80b 003e a945 aabb da99 0f3d
000000b0: 1750 813d 3a88 cfbd 1c1b b13b 252a 7ebe
000000c0: d3f2 143e 15d5 cbbd 9be0 5bbd 0713 99be
000000d0: 5803 1c3e 3f21 ab3d 2ceb 7d3e 00f0 413d
000000e0: 074c 03be c04b f7bd 07c7 22be 42f1 073e
000000f0: 3d17 13be 0516 d0be 1310 3b3e e421 b0be
00000100: 7ae2 f93d 30a7 203e 0101 17bd 6596 8cbd
00000110: 9a4e 95bd 30e7 00be 25ca 3d3d 53a2 2dbc
00000120: 7199 21bd afa7 c8bd a926 1b3d 68a7 afbc
00000130: b7a9 96bd 8e46 09be 68de 4d3c ade9 77bc
00000140: ccad 25be 7dc4 c2bd 42ce bfbd 4918 0c3e
00000150: e013 0ebe 198b 293e 9aa6 4ebd 8bff f2bc
00000160: 124e b9bd 35b7 023c 0490 83bd aa16 d43c
00000170: 9f16 58bd ab99 23bd f793 bf3d 3e60 d93b
00000180: 2a85 ec3d 506b 5cbe cf02 8c3e 683c ca3d
00000190: a61e bfbc 76e7 28be d1d4 65bd c135 3f3e
000001a0: 592f 10be bb0c b03d f62e b23d 5fa5 98bd
000001b0: 635c 80bd 1133 963d 7e77 fa3d df9a 4bbd
000001c0: bac6 5dbe 8e39 d8bc 145e ed3c e1f7 5d3d
000001d0: d063 2fbe d74a 86be b8d3 50be db81 84bc
000001e0: cb8d 503d 4a02 ec3d 2371 cbbe 2a05 01bd
000001f0: a036 83bd 6561 14be 993b d93c 4ec7 aebd
00000200: cd39 db3d 6f04 18be 7cb7 f23d a7e3 d23d
00000210: 5ff9 973c 0e4a 8d3e 94e1 1ebd f403 9f3d
00000220: fcf3 b0bc cffd 623e 210a d7bd 54db 243d
00000230: e770 0abe 7dba 123d 9bfb 2dbe 5b4d babc
00000240: a6ef 52be 3c4e 36be a1ee 613d 4891 b2ba
00000250: e983 b7bc f513 9e3d 5f44 89bd 4b87 71be
00000260: 6162 25bd 6685 663e 1b28 3ebc f3e3 9e3d
00000270: fac3 4ebe 1b2a 15bd d432 a33d e802 913c
00000280: dbab dbbd 4beb 2a3d 462d dd3d f3f9 04bc
00000290: 264e 3d3e fae8 fcbd 6da9 c03b 98b5 963d
000002a0: 3a74 d2bd 115b 0e3e 609d 083d 31b0 06be
000002b0: d430 003e 11d6 953d f9dc 283e c665 343c
000002c0: 389b 48bd f729 56bd ee9a 24bd 07e8 aebc
000002d0: 0840 663e d943 94bc 7bfc 963d b8e6 89bc
000002e0: 045f c13d b894 03be 5f99 8e3d b6cf 153c
000002f0: 4c2d cdbb 60a7 67bc 3b51 e2bd 8fbd 9a3d
00000300: 9ce1 ea3d 4888 713e 0718 103e dd99 02be
00000310: eb20 2cbc 11e9 063d 68db d9bc 8a46 95bc
00000320: 072b cdbd 3aa0 74bd 1885 1ebe feed e13b
00000330: 3ce8 f83d 7f6c 753d 4265 093e 5b11 c43c
00000340: 490b 713d 9bc3 57be e94d 95be f492 503d
00000350: 6309 24bd 4080 55be d939 43bd 2e7e 2d3e
00000360: 0b93 6abd c97f 95bd 734a fa3d 80ce 7d3c
00000370: 6926 133d dc6c 523d 392c 48bc 6c93 683d
00000380: ed69 123e efef 003d b35f 41bd cb4e 11bd
00000390: f895 613d ffcb 2f3d ce12 b13d 7f9c 9b3c
000003a0: 74d9 f93d bfa9 623b f3f9 363d c9f3 283e
000003b0: 3105 8c3d d88f 36bd 7f5e 033e 0ce2 e33d
000003c0: a59d 033e 0e84 33bd 53f1 adbd 0212 0dbd
000003d0: dd4d 1ebd 9a79 d3bd 92e1 e0bd dda2 5a3e
000003e0: c4f8 d43d 3461 943d e278 4cbe 4ac0 c63d
000003f0: 6e4c f83d 79e0 c9bd 6e71 81bd fe71 a23d

model.encoder.eb_encoder.0.4.bias f4 [32]
0.010474214 -0.09864263 -0.17210585 -0.010866161 -0.0970607 0.16174507 0.19504821 -0.085594684
0.030869417 -0.15254009 -0.13498564 -0.07953263 -0.09886802 0.087812945 -0.18685135 -0.105368756
0.0616935 0.1675814 0.0672565 0.1629347 0.13023478 -0.10488035 0.02931956 0.21309678
-0.07523342 -0.061402317 -0.072598204 0.07758331 -0.1476058 0.1641059 0.12855822 -0.17538282
00000000: 0a9c 2b3c 2605 cabd 843c 30be fc07 32bc
00000010: c3c7 c6bd 80a0 253e b8ba 473e 444c afbd
00000020: dce1 fc3c 7833 1cbe ad39 0abe 01e2 a2bd
00000030: 517b cabd 46d7 b33d f655 3fbe 93cb d7bd
00000040: 53b2 7c3d 759a 2b3e c7bd 893d 5bd8 263e
00000050: 445c 053e 82cb d6bd 932f f03c 0b36 5a3e
00000060: fb13 9abd ff80 7bbd 5eae 94bd 00e4 9e3d
00000070: fa25 17be 610b 283e c4a4 033e 8e97 33be

model.encoder.eb_encoder.0.6.weight f4 [32, 32]
0.044177856 0.21451588 -0.009868754 0.32452932 -0.06662389 0.21593522 0.17652026 0.04525617
-0.00768906 0.29701522 -0.014235908 -0.14671259 0.03378732 -0.09555919 -0.009867892 -0.08083746
0.15142165 0.019718902 0.13123259 -0.1647198 0.11531509 0.009874819 0.05946031 0.027911972
0.1696052 0.06063105 -0.17536359 -0.19377847 0.077396385 -0.11385465 -0.09180091 -0.03395986
-0.19460322 -0.0072355787 -0.029850472 -0.4946928 -0.1583241 -0.009783058 -0.026125195 -0.07539735
0.12963632 -0.20894384 0.110013194 -0.07536993 -0.06537096 0.19830705 0.13278525 -0.030886233
0.097290754 -0.05875987 0.11684225 -0.04818526 -0.23877491 -0.14706033 0.14711836 0.068913296
-0.04462627 -0.0122868735 -0.13138016 0.16118634 0.20641653 0.0881402 -0.15521534 -0.091962054
0.10889028 -0.066770375 0.12646861 -0.0640862 0.1420956 0.21689716 -0.0025318875 -0.09988157
-0.16911604 -0.19973712 0.043792292 0.23764008 0.053057138 0.00029527454 -0.09338822 -0.04102254
-0.00759777 -0.12834969 -0.12436175 -0.1329251 0.03584236 -0.093409196 0.11025823 -0.08868914
-0.09727415 0.017969964 -0.10356917 -0.16253796 0.054750502 0.12693699 0.09967654 0.110457726
-0.2449184 -0.06736311 -0.08018998 -0.31689712 -0.12226941 0.08799375 -0.033036087 0.12052682
-0.13282554 -0.06043527 0.13178577 -0.060622104 0.036068793 0.15893093 0.1405164 0.14828803
-0.00618505 -0.08868168 0.13223039 -0.10880653 -0.057841904 0.06480075 -0.24300028 -0.12739736
-0.1020376 -0.26202565 0.0019824735 0.109294444 0.025882384 -0.1328312 0.027259585 -0.03337163
0.04112682 -0.14755656 0.025356151 -0.25868204 0.16272818 -0.0019967055 -0.09237707 0.08789435
0.04322541 -0.2831748 0.044038013 0.23743966 -0.005602421 -0.074401766 -0.04684922 0.100404225
0.010782575 -0.029458612 -0.06755954 -0.10141661 0.11893267 0.13725595 -0.059674833 0.08774098
-0.008424163 -0.015035325 -0.19190468 -0.19685596 -0.18331935 0.040664714 -0.066775374 0.07369637
0.008181907 -0.14379686 0.11648607 0.14636426 -0.1715669 0.11018909 -0.20691583 0.09822964
0.15813339 0.17152074 -0.15194799 -0.08021498 0.16856888 -0.026770232 -0.052487772 -0.015339247
0.15511954 0.038991705 -0.0071456223 -0.19887169 -0.113773316 0.114623524 -0.048105378 0.09804693
0.16320856 -0.23464835 0.124977306 -0.13893269 -0.022189049 0.10193892 0.12171207 0.19187687
0.034560844 0.06814061 0.036464315 0.13653094 -0.03915582 -0.08503441 -0.09831433 -0.115689084
0.039890643 0.10910909 0.12520334 0.040550184 -0.19811308 -0.06163428 0.1327143 0.03532429
-0.12020502 -0.07745868 0.08517285 0.06847812 0.17305961 -0.17534593 -0.036275823 -0.16030699
-0.06515619 0.04391963 0.2492389 0.026590372 0.15667668 0.016902346 -0.15542914 0.08460271
0.12127246 0.1915985 -0.13277915 -0.07857566 -0.053470276 0.17974392 -0.15045181 0.058256455
0.18188907 -0.01565615 -0.17694096 -0.024729833 -0.08189008 -0.056341045 -0.13025467 0.046881005
0.117731445 0.285595 -0.25742832 -0.10540004 -0.06318838 0.087750345 0.12127404 -0.08603293
0.08371524 0.11261724 -0.07549907 0.20572908 -0.072453216 -0.012292462 -0.032540873 0.1022077
00000000: d7f3 343d 0daa 5b3e 8eb0 21bc b528 a63e
00000010: 1b72 88bd 1f1e 5d3e bac1 343e 895e 393d
00000020: 83f4 fbbb 6112 983e ba3d 69bc d33b 16be
00000030: 9364 0a3d 89b4 c3bd f0ac 21bc 1c8e a5bd
00000040: 470e 1b3e 8989 a13c d661 063e 4fac 28be
00000050: 512a ec3d fec9 213c a78c 733d a6a7 e43c
00000060: fcac 2d3e 4458 783d 8392 33be dd6d 46be
00000070: ff81 9e3d a02c e9bd 1e02 bcbd 7f19 0bbd
00000080: 1146 47be 6f18 edbb fa88 f4bc 6048 fdbe
00000090: b61f 22be 1f49 20bc 8104 d6bc ed69 9abd
000000a0: 62bf 043e 60f5 55be 994e e13d 8d5b 9abd
000000b0: 36e1 85bd 0111 4b3e dbf8 073e 2005 fdbc
000000c0: 6040 c73d 30ae 70bd fd4a ef3d e85d 45bd
000000d0: 6981 74be fc96 16be 32a6 163e 6a22 8d3d
000000e0: 09ca 36bd e24e 49bc 8588 06be 080e 253e
000000f0: db5e 533e d982 b43d c5f0 1ebe 9a56 bcbd
00000100: de01 df3d e8be 88bd fd80 013e a03f 83bd
00000110: 8281 113e 4a1a 5e3e 06ee 25bb b58e ccbd
00000120: c12c 2dbe e387 4cbe 8c5f 333d ec57 733e
00000130: 7152 593d 14cf 9a39 5342 bfbd 4007 28bd
00000140: b7f6 f8bb 1a6e 03be 60b1 febd 841d 08be
00000150: 70cf 123d 524d bfbd 11cf e13d a7a2 b5bd
00000160: ab37 c7bd bf35 933c 131c d4bd 5a70 26be
00000170: 1042 603d c5fb 013e 3723 cc3d a937 e23d
00000180: e4cb 7abe acf5 89bd a53a a4bd 5740 a2be
00000190: 6268 fabd 1136 b43d d950 07bd c4d6 f63d
000001a0: 6b03 08be f98a 77bd d9f2 063e e24e 78bd
000001b0: dfbc 133d cabe 223e 88e3 0f3e d1d8 173e
000001c0: f6ab cabb be9e b5bd 6767 073e f5d5 debd
000001d0: a2eb 6cbd 41b6 843d 11d5 78be 7474 02be
000001e0: 17f9 d0bd 3a28 86be 63ec 013b c4d5 df3d
000001f0: 4b07 d43c e704 08be 7e4f df3c b1b0 08bd
00000200: 9974 283d 1119 17be b4b7 cf3c f971 84be
00000210: 37a2 263e 29db 02bb 3030 bdbd f401 b43d
00000220: 210d 313d 4afc 90be 3461 343d 6223 733e
00000230: 8394 b7bb f45f 98bd f8e4 3fbd bba0 cd3d
00000240: 66a9 303c 3053 f1bc a85c 8abd 83b3 cfbd
00000250: f992 f33d d38c 0c3e 996d 74bd 8bb1 b33d
00000260: 8005 0abc b956 76bc a982 44be 9c94 49be
00000270: 11b8 3bbe 0b90 263d 87c1 88bd 1fee 963d
00000280: 680d 063c 7c3f 13be 4090 ee3d 83e0 153e
00000290: 3caf 2fbe d1aa e13d bee1 53be 9f2c c93d
000002a0: b8ed 213e 22a3 2f3e 4198 1bbe c047 a4bd
000002b0: 529d 2c3e 3f4d dbbc 6bfd 56bd 7751 7bbc
000002c0: a8d7 1e3e c4b5 1f3d d325 eabb 05a5 4bbe
000002d0: fc01 e9bd bdbf ea3d 250a 45bd d4cc c83d
000002e0: 2520 273e a847 70be 1af4 ff3d 5f44 0ebe
000002f0: cfc5 b5bc 5ac5 d03d 2e44 f93d 5f7b 443e
00000300: ac8f 0d3d 4e8d 8b3d 9b5b 153d c4ce 0b3e
00000310: da61 20bd 8526 aebd 0659 c9bd 66ee ecbd
00000320: 5f64 233d 9674 df3d 4e35 003e f317 263d
00000330: 28de 4abe 3a74 7cbd 42e6 073e 34b0 103d
00000340: 0d2e f6bd a8a2 9ebd 1a6f ae3d 423e 8c3d
00000350: 8a36 313e e28d 33be f595 14bd 8427 24be
00000360: 9c70 85bd 12e5 333d 7b38 7f3e 0dd4 d93c
00000370: da6f 203e ca76 8a3c d128 1fbe 3044 ad3d
00000380: b25d f83d 6632 443e 42f7 07be 47ec a0bd
00000390: a603 5bbd ca0e 383e 0a10 1abe 529e 6e3d
000003a0: 2141 3a3e 5441 80bc 0330 35be 3896 cabc
000003b0: fcb5 a7bd dec5 66bd 7b61 05be 4c06 403d
000003c0: 2f1d f13d 8239 923e a5cd 83be fadb d7bd
000003d0: e968 81bd 74b6 b33d 865e f83d 0832 b0bd
000003e0: e572 ab3d dea3 e63d 429f 9abd a5aa 523e
000003f0: 5a62 94bd 5366 49bc 9449 05bd 4552 d13d

model.encoder.eb_encoder.0.6.bias f4 [32]
-0.031977125 -0.09787509 0.056558907 0.07455377 0.13205795 -0.07693696 -0.20766975 0.034925066
0.19992343 0.105220474 0.088225596 -0.18457611 0.11699446 0.015534995 0.09391313 -0.03805151
-0.13032398 0.0043930984 -0.03397822 0.0059751384 -0.13366824 0.03224042 0.0200628 -0.0056635006
-0.18303426 0.07675935 -0.066538945 -0.09086788 0.17142944 0.06437232 0.07769557 0.1565813
00000000: 72fa 02bd bc72 c8bd 50aa 673d a6af 983d
00000010: 333a 073e 2091 9dbd 61a7 54be 960d 0f3d
00000020: bab8 4c3e d57d d73d 9faf b43d 8501 3dbe
00000030: cb9a ef3d 7e86 7e3c 8755 c03d e6db 1bbd
00000040: a673 05be fbf3 8f3b bf2c 0bbd 18cb c33b
00000050: 54e0 08be 880e 043d be5a a43c e394 b9bb
00000060: 556d 3bbe 0234 9d3d 9245 88bd f018 babd
00000070: 338b 2f3e a3d5 833d db1e 9f3d d956 203e

model.encoder.eb_encoder.1.weight f4 [32]
1.1568556 1.0442003 1.0796518 1.0791676 1.2229892 1.1669859 1.2215737 1.1675174
1.1009163 1.120674 1.0927898 1.0673758 1.0591342 1.165323 1.0195599 1.1256022
1.054314 1.2081249 1.0953989 0.9910999 1.0293461 1.0790545 1.1351169 0.94703865
1.1816434 1.0385907 0.99360436 1.1255022 1.0404501 1.053086 1.06822 1.0064697
00000000: d813 943f 5ba8 853f 0832 8a3f 2a22 8a3f
00000010: e98a 9c3f cb5f 953f 875c 9c3f 3671 953f
00000020: d3ea 8c3f 3f72 8f3f 89e0 8b3f c59f 883f
00000030: b691 873f 4e29 953f f080 823f bc13 903f
00000040: c3f3 863f d6a3 9a3f 0836 8c3f b9b8 7d3f
00000050: 9dc1 833f 751e 8a3f 834b 913f 2071 723f
00000060: 1740 973f 8af0 843f db5c 7e3f 7510 903f
00000070: 782d 853f 86cb 863f 6fbb 883f 00d4 803f

model.encoder.eb_encoder.1.bias f4 [32]
0.007143718 -0.020737259 0.00047659397 -0.025714543 -0.005046585 0.015115476 -0.0038228764 0.03576318
0.011461223 -0.021540495 0.019321471 0.0022672361 0.01051648 -0.0036091523 -0.018584127 0.0122241825
0.008445237 0.0030283746 0.0063553313 0.023408607 0.03359679 0.032136567 0.015141736 0.045669775
0.049646933 -0.013408004 0.012426386 0.036074538 -0.016895859 -0.015727323 -0.01724331 -0.047108248
00000000: da15 ea3b 2fe1 a9bc 5cdf f939 4ea7 d2bc
00000010: d35d a5bb e7a6 773c 3989 7abb 6a7c 123d
00000020: dac7 3b3c b175 b0bc 1048 9e3c e995 143b
00000030: 504d 2c3c 8787 6cbb bd3d 98bc f047 483c
00000040: e45d 0a3c b277 463b 6240 d03b 68c3 bf3c
00000050: ca9c 093d a2a1 033d 0b15 783c 3b10 3b3d
00000060: 955a 4b3d 3fad 5bbc 0a98 4b3c e5c2 133d
00000070: 2f69 8abc 96d6 80bc d841 8dbc 94f4 40bd

model.encoder.nb_encoder.0.0.weight f4 [32, 4]
-0.2572427 0.4611812 0.5815677 -0.08606574 -0.19207984 -0.32143444 -0.42730692 0.42362955
-0.18829378 0.7983848 0.24834743 0.40248236 -0.4469226 0.25839424 0.50263935 0.51888645
0.31302568 0.18137543 -0.45519075 0.2362371 0.014351368 -0.273403 -0.25463575 -0.055640936
-0.015844338 -0.094980165 -0.46851268 -0.45387203 -0.17438084 -0.30766022 -0.29406297 -0.47232312
0.079656176 0.44168833 -0.010653338 0.37274915 0.73882073 -0.31671983 0.17761652 -0.1322156
0.087023444 -0.23465204 0.43421796 -0.004235618 0.27828443 -0.37278596 0.5234867 0.38165146
-0.25192073 -0.013975098 -0.49948055 0.18551865 0.1284872 -0.011038599 -0.44745916 0.3864332
-0.049942434 -0.32013863 0.19707572 -0.0912382 -0.18326199 0.14825709 0.4482663 0.37479952
0.25725058 -0.14685386 -0.37526542 -0.4267904 0.18497753 0.29985228 -0.30541074 -0.15370344
0.24715832 0.1560649 0.36657268 -0.47134975 -0.013249218 -0.3789993 0.40838414 -0.008187473
0.24488111 -0.3899686 0.042439155 0.15766102 -0.39302626 -0.3134277 -0.24378887 -0.22536275
0.19831017 -0.064936034 -0.61510783 -0.16013098 -0.17875454 0.33041713 -0.20824222 -0.00675963
-0.31383726 -0.16946545 -0.18863723 0.49205276 -0.3301912 0.77835095 0.23921818 0.46863687
-0.087492235 0.19396289 -0.5040772 -0.11732759 -0.28241307 0.3065853 -0.27667224 -0.07460338
-0.2849126 0.06124312 0.32161278 0.06009743 -0.18293603 -0.64516294 0.30337504 -0.1643662
0.09384119 -0.6182106 0.011132926 0.45537177 -0.5631868 0.2986411 -0.43794358 0.43414944
00000000: 51b5 83be f11f ec3e 9fe1 143f 3c43 b0bd
00000010: 94b0 44be 0e93 a4be f9c7 dabe f9e5 d83e
00000020: 16d0 40be f262 4c3f ca4e 7e3e 2b12 ce3e
00000030: 0ad3 e4be 404c 843e f9ac 003f bed5 043f
00000040: e744 a03e 7bba 393e c30e e9be 23e8 713e
00000050: 0022 6b3c 7afb 8bbe 9e5f 82be c0e7 63bd
00000060: fccb 81bc f684 c2bd e5e0 efbe ea61 e8be
00000070: e490 32be a485 9dbe 6c8f 96be 56d4 f1be
00000080: c722 a33d f924 e23e 578b 2ebc fad8 be3e
00000090: 5b23 3d3f 1a29 a2be 1be1 353e 8763 07be
000000a0: 5939 b23d a048 70be d151 de3e f0ca 8abb
000000b0: 4c7b 8e3e cddd bebe 3903 063f d267 c33e
000000c0: c1fb 80be cff7 64bc eabb ffbe 9af8 3d3e
000000d0: 2692 033e 3ddb 34bc 5e19 e5be 93da c53e
000000e0: 7090 4cbd 36e9 a3be 38ce 493e 18db babd
000000f0: 08a9 3bbe b5d0 173e 2983 e53e b9e5 bf3e
00000100: 59b6 833e dc60 16be ca22 c0be 4584 dabe
00000110: c06a 3d3e 3d86 993e cc5e 9cbe 6f64 1dbe
00000120: 1217 7d3e 7acf 1f3e 6aaf bb3e c154 f1be
00000130: 4013 59bc 320c c2be ba17 d13e c024 06bc
00000140: 1dc2 7a3e f7a9 c7be aed4 2d3d e471 213e
00000150: bd3a c9be 9879 a0be caa3 79be 7ec5 66be
00000160: d211 4b3e 2ffd 84bd b577 1dbf 60f9 23be
00000170: 6e0b 37be 6f2c a93e 733d 55be e37f ddbb
00000180: 47af a0be 5a88 2dbe 1e2a 41be 57ee fb3e
00000190: d20e a9be 0242 473f 9cf5 743e 2cf1 ef3e
000001a0: 212f b3bd 359e 463e 340b 01bf 7349 f0bd
000001b0: 7298 90be c0f8 9c3e fca7 8dbe a8c9 98bd
000001c0: 10e0 91be 11da 7a3d 6eaa a43e b928 763d
000001d0: 9553 3bbe 6629 25bf f953 9b3e 9d4f 28be
000001e0: cf2f c03d 0d43 1ebf e066 363c 7d26 e93e
000001f0: 032d 10bf 7ce7 983e 243a e0be d648 de3e

model.encoder.nb_encoder.0.0.bias f4 [32]
0.18058982 0.40591055 -0.20311643 -0.22561221 0.23006293 -0.44083744 0.3944896 -0.2974913
-0.42436796 -0.058032446 -0.26442814 -0.17700446 0.0955126 0.2325004 -0.18799323 -0.00063221157
0.17768505 0.37558496 0.4353576 -0.4873743 0.28939188 0.4056057 0.17686543 0.12238649
-0.15695205 -0.47873345 0.44886914 -0.16545177 0.19878407 -0.13037482 -0.40178418 0.37920392
00000000: 8aec 383e 82d3 cf3e c1fd 4fbe e306 67be
00000010: 9e95 6b3e 72b5 e1be 8afa c93e c850 98be
00000020: c246 d9be 6eb3 6dbd 2063 87be a840 35be
00000030: 1c9c c33d 9614 6e3e 4c81 40be 00bb 25ba
00000040: 12f3 353e ac4c c03e 31e7 de3e 2089 f9be
00000050: 2c2b 943e 8dab cf3e 361c 353e c5a5 fa3d
00000060: 0ab8 20be 8d1c f5be 2dd2 e53e 306c 29be
00000070: 0d8e 4b3e fa80 05be a8b6 cdbe 0427 c23e

model.encoder.nb_encoder.0.2.weight f4 [32, 32]
0.16697776 0.012963869 -0.19999376 -0.113852166 -0.15667748 0.16134772 0.0063443785 0.0136193745
-0.03462905 0.06815346 -0.014390144 0.03312772 0.24072093 0.025632188 0.11482268 0.024892312
-0.21792272 -0.07728971 0.15924415 0.059178177 -0.026590308 -0.19153556 -0.74108756 0.02091977
0.101375066 -0.011621952 -0.082209475 -0.04823532 0.041173138 -0.1772768 -0.0239876 -0.16351186
0.22959392 -0.100040555 0.17761143 -0.04131589 -0.155843 -0.037173584 -0.05202498 0.12943901
-0.045347504 0.3138158 0.32695752 0.18185459 -0.13981333 0.037381988 -0.16264273 0.22871998
-0.17138378 -0.17464274 0.056566626 -0.13106456 0.1162632 0.01716079 -0.20946628 0.06598692
0.15139203 0.28663796 -0.02366792 0.027369173 0.093635626 0.10822758 0.08488915 0.09566747
0.22226174 0.027445985 0.0034224538 0.068171196 0.010431014 0.08448698 -0.12763679 -0.08469426
-0.07826666 0.15609016 0.3464594 -0.06129498 0.06493133 -0.09721345 -0.041890953 0.19760643
0.050080467 -0.012154437 0.094246 0.16128184 -0.07205574 -0.115949966 -0.20608662 0.013538647
0.06347194 0.13669388 0.074857205 0.03845605 0.21872167 0.04068735 0.03079668 -0.17120439
0.10185058 -0.14864121 -0.24136008 -0.29429537 0.057334237 -0.10201849 0.036501285 -0.06425651
0.03257785 -0.17486116 -0.0704948 -0.09809386 -0.30121234 -0.15687074 -0.01348324 -0.15088306
0.1061426 -0.11653958 0.07838752 0.13568108 0.024704365 0.13275614 -0.09944678 -0.089046046
-0.14012958 0.078807 0.04975651 0.045654584 0.08989683 -0.038106956 0.017055059 -0.08837223
0.027347552 -0.018068079 0.010372845 0.02210716 0.16896509 -0.15181154 -0.14822483 -0.015244431
0.014734412 -0.1495052 0.10383529 -0.029700251 -0.15370056 0.0078081884 0.014502435 -0.16964407
0.0635283 0.15803963 -0.14596994 -0.009693901 -0.075383455 -0.045429982 -0.070329286 0.020563805
-0.13352075 0.08185982 0.07771103 0.13124342 0.13602914 0.11698705 -0.08802976 -0.03743207
0.03426697 -0.041186005 -0.15609176 -0.0803068 -0.05453489 -0.04151039 0.17671476 0.16708095
-0.040719625 0.12994 0.28563303 0.047974207 0.26629147 0.10003565 -0.06212911 -0.21639554
0.09055312 -0.06701195 0.11185539 -0.17244644 0.12146722 -0.06309168 0.30260113 0.14188881
-0.12278225 -0.09988591 0.11644429 0.12804464 0.042893954 0.23789039 -0.19414538 0.14131884
0.05881347 -0.045183826 0.069999434 -0.11255556 -0.22693796 -0.07035457 -0.053346895 -0.055749446
-0.084336884 0.20310614 0.23699874 -0.079282396 0.09212273 -0.22933553 -0.13842209 0.12367935
0.053817224 -0.09215914 -0.033529546 -0.14044036 -0.04626939 -0.03202932 0.037552983 0.12440315
0.0023172863 0.06701947 -0.15409498 0.10595014 0.10558403 0.10168552 -0.020018425 0.13428693
0.07726388 0.056621335 0.16442841 -0.14269923 0.22642772 -0.109113656 0.13471161 -0.16717833
-0.14916252 0.043722887 0.103574015 -0.11794079 0.09721918 0.17650612 0.018605495 -0.024158292
0.048917674 0.13563365 -0.12909707 -0.17307198 0.14770053 0.11951179 0.22667752 -0.0348885
0.3939993 0.07615336 0.16274378 -0.024686737 -0.20549034 -0.31222376 0.25383085 0.06444149
00000000: 38fc 2a3e 6866 543c 2acb 4cbe 532b e9bd
00000010: 1070 20be 5638 253e 81e4 cf3b cc23 5f3c
00000020: 31d7 0dbd 0b94 8b3d a3c4 6bbc efb0 073d
00000030: 8c7f 763e 98fa d13c 2728 eb3d f6ea cb3c
00000040: 2227 5fbe 114a 9ebd e610 233e d164 723d
00000050: ebd3 d9bc e621 44be eab7 3dbf f05f ab3c
00000060: bb9d cf3d 006a 3ebc 715d a8bd 6692 45bd
00000070: 2aa5 283d 0d88 35be a581 c4bc a76f 27be
00000080: ab1a 6b3e 10e2 ccbd c5df 353e da3a 29bd
00000090: 4f95 1fbe 5443 18bd 2518 55bd a98b 043e
000000a0: 4ebe 39bd 77ac a03e fa66 a73e 1738 3a3e
000000b0: 3a2b 0fbe db1d 193d d18b 26be 9235 6a3e
000000c0: 3b7f 2fbe 8cd5 32be 68b2 673d ca35 06be
000000d0: 671b ee3d c994 8c3c 547e 56be 2624 873d
000000e0: 8306 1b3e 36c2 923e 3ae3 c1bc 5135 e03c
000000f0: 09c4 bf3d 6ca6 dd3d 5dda ad3d 4eed c33d
00000100: 9598 633e 67d6 e03c 3f4b 603b 579d 8b3d
00000110: d8e6 2a3c 8307 ad3d 38b3 02be 2f74 adbd
00000120: 454a a0bd 19d6 1f3e 2063 b13e 7210 7bbd
00000130: b8fa 843d d817 c7bd d995 2bbd 5759 4a3e
00000140: 2d21 4d3d 6723 47bc 0c04 c13d 1127 253e
00000150: f691 93bd 2d77 edbd 5f08 53be 34d1 5d3c
00000160: 94fd 813d 7bf9 0b3e bc4e 993d 1784 1d3d
00000170: 93f8 5f3e c7a7 263d 5249 fc3c 3450 2fbe
00000180: 0997 d03d 6735 18be 1927 77be e2ad 96be
00000190: 4ed7 6a3d 12ef d0bd 5f82 153d eb98 83bd
000001a0: 5a70 053d ce0e 33be 945f 90bd 6fe5 c8bd
000001b0: 8138 9abe b9a2 20be cfe8 5cbc 1781 1abe
000001c0: 4b61 d93d 4eac eebd a389 a03d fbef 0a3e
000001d0: cf60 ca3c 3af1 073e c1aa cbbd c65d b6bd
000001e0: 217e 0fbe 9065 a13d 7bcd 4b3d 4d00 3b3d
000001f0: d41b b83d 0a16 1cbd 0db7 8b3c 80fc b4bd
00000200: f907 e03c 8203 94bc def2 293c 131a b53c
00000210: 2f05 2d3e 7c74 1bbe 40c8 17be c7c3 79bc
00000220: 9a68 713c e417 19be 99a7 d43d f14d f3bc
00000230: ae63 1dbe d5db ff3b 9f9b 6d3c 2db7 2dbe
00000240: 201b 823d 24d5 213e 2579 15be 2bd3 1ebc
00000250: a462 9abd ca14 3abd cd08 90bd 6d75 a83c
00000260: aab9 08be 1fa6 a73d f626 9f3d ad64 063e
00000270: 394b 0b3e e896 ef3d f248 b4bd 5f52 19bd
00000280: 865b 0c3d a8b2 28bd 85d6 1fbe e477 a4bd
00000290: fa5f 5fbd cc06 2abd b7f4 343e 4517 2b3e
000002a0: 9fc9 26bd fe0e 053e 7e3e 923e 9a80 443d
000002b0: 5b57 883e 7edf cc3d 187b 7ebd cb96 5dbe
000002c0: ea73 b93d 903d 89bd 7014 e53d cd95 30be
000002d0: cec3 f83d 3636 81bd 89ee 9a3e 4d4b 113e
000002e0: 4375 fbbd fc90 ccbd 587a ee3d 221e 033e
000002f0: 92b1 2f3d 8a99 733e 0cce 46be e3b5 103e
00000300: 65e6 703d ad12 39bd dd5b 8f3d 8883 e6bd
00000310: 6d62 68be 0f16 90bd 4682 5abd 8859 64bd
00000320: d1b8 acbd 0efb 4f3e ccaf 723e cf5e a2bd
00000330: d8aa bc3d efd6 6abe 85be 0dbe 994b fd3d
00000340: 736f 5c3d eebd bcbd 4756 09bd 99cf 0fbe
00000350: f984 3dbd 2d31 03bd 28d1 193d 14c7 fe3d
00000360: 9ddd 173b 8141 893d 13cb 1dbe 63fc d83d
00000370: 713c d83d 7f40 d03d aefd a3bc 8382 093e
00000380: 863c 9e3d c6eb 673d ec5f 283e bf1f 12be
00000390: abdc 673e fb76 dfbd d7f1 093e cc30 2bbe
000003a0: 0fbe 18be c516 333d 9d1e d43d f18a f1bd
000003b0: d91a c73d 05be 343e 8d6a 983c 9ce7 c5bc
000003c0: e65d 483d 8ce3 0a3e 0632 04be c839 31be
000003d0: cf3e 173e 99c2 f43d 271e 683e 3ee7 0ebd
000003e0: 47ba c93e 4bf6 9b3d 4ea6 263e d73b cabc
000003f0: 0f6c 52be cbdb 9fbe 1ef6 813e e6f9 833d

model.encoder.nb_encoder.0.2.bias f4 [32]
0.04303877 0.07519468 -0.083530985 0.03170096 -0.15678571 -0.01494468 0.15340455 -0.013609268
0.02187261 -0.09856658 0.018241366 0.02381139 -0.14983344 -0.1592072 0.1553879 0.040124632
-0.00586029 -0.083055265 0.03785799 -0.03368237 0.12750778 -0.086425185 -0.037893873 -0.15773252
-0.1213802 -0.037170064 -0.13525224 0.08431621 -0.0120076155 0.12372867 0.009828706 -0.011439202
00000000: 6c49 303d abff 993d 4b12 abbd ded8 013d
00000010: 6f8c 20be 88da 74bc 1516 1d3e 68f9 5ebc
00000020: 302e b33c 46dd c9bd eb6e 953c 1b10 c33c
00000030: f06d 19be 3607 23be 011e 1f3e ba59 243d
00000040: ad07 c0bb e118 aabd fb10 1b3d 86f6 09bd
00000050: 6691 023e b0ff b0bd 9b36 1bbd a284 21be
00000060: 2f96 f8bd a33f 18bd 907f 0abe faad ac3d
00000070: 97bb 44bc 7565 fd3d 9508 213c 7e6b 3bbc

model.encoder.nb_encoder.0.4.weight f4 [32, 32]
0.16939174 -0.0068435753 0.050274067 -0.004728357 0.012786005 -0.14511222 0.039589547 0.15320143
0.16337723 -0.019485436 -0.016435543 0.2540575 0.077532336 0.024684798 0.13311282 0.18110737
0.19791186 0.0354239 -0.092576355 -0.15196684 -0.055362675 -0.09554741 -0.2138398 -0.13159113
-0.062832564 0.067151494 -0.17502075 -0.032448206 0.121649876 -0.072565235 0.011655364 -0.06356724
-0.2852179 0.14989156 -0.4318073 -0.09623544 -0.15033871 0.040412717 0.119063675 0.06191551
-0.13062924 -0.17321616 -0.10832309 -0.13493319 -0.07611243 -0.10590441 -0.021882147 0.11234147
-0.18123525 -0.10522368 -0.19214523 -0.372016 -0.06906001 -0.3518906 -0.03107766 0.02072683
0.03966486 -0.016177857 -0.08715239 -0.056262832 -0.13631639 0.13223273 -0.19902727 0.16448608
-0.03332771 0.06707906 0.21748821 0.05315292 0.14449614 -0.007781637 0.08620985 -0.14824167
-0.20230407 -0.041035205 -0.1329638 -0.003795809 -0.0498299 0.06577525 0.12539437 0.10911944
0.08545292 0.01961149 -0.3468926 0.14170717 -0.053817037 0.24437161 0.124283314 -0.06216681
-0.056514096 -0.1388086 0.098929055 -0.16793902 0.09712549 -0.06248794 0.17862439 0.14469852
-0.0040176483 -0.13333969 0.032326862 0.09175533 0.15071158 0.05298847 0.02039448 -0.00016125383
0.029781912 -0.011233315 0.12420377 -0.119941644 0.055611607 0.14173892 0.1614834 -0.045244325
0.08400278 -0.03949244 -0.015394242 -0.00283937 -0.03950026 0.06135441 0.09792772 -0.06956636
-0.06395656 0.058962807 0.15459155 -0.0407552 0.10369941 0.14180934 0.05704498 -0.16188078
0.12650906 0.12040362 -0.055371795 0.018077515 0.0034160863 -0.11200066 0.15118396 -0.020212574
-0.12607314 -0.030116769 0.13790202 0.20055458 -0.17759989 0.13695492 0.054826017 0.026261121
-0.22983205 0.028364785 -0.1883482 0.11576007 -0.374261 0.24922071 0.1474181 -0.117917165
-0.09854738 0.1615063 0.09827861 -0.27315518 -0.17358835 -0.08455277 -0.08560962 -0.09100544
0.12433988 -0.175107 -0.069371074 0.055849105 -0.15202141 0.060977302 0.10461516 -0.08536482
-0.09471524 -0.11813422 0.14942089 -0.10064764 0.072419874 0.06762839 -0.07783804 -0.13239494
0.13901131 -0.02318652 0.024315191 -0.05934173 0.018650234 0.043944284 0.05473217 -0.1627464
-0.15855792 -0.16872256 0.17272572 -0.059069272 0.09315345 0.13436858 0.16386844 0.14939786
-0.25799838 -0.23372205 -0.06670322 0.0767969 0.021691656 0.108643964 -0.14670074 0.089694746
0.044718575 -0.110663526 0.063942604 -0.14371777 0.27004763 -0.0027636741 -0.24071084 0.12364745
0.18390328 0.10168673 0.09996148 -0.13182634 0.12577643 -0.18936104 -0.22614798 -0.12612885
-0.11274132 -0.07829542 -0.103495516 0.06382706 0.09304627 0.08622418 -0.12182846 -0.13824569
-0.12634575 0.063616365 0.26554537 0.2649677 0.1239178 0.110197276 0.17361346 0.014846103
-0.2218923 -0.0011165543 -0.017232308 -0.02286573 0.06479201 0.06913735 0.033730544 0.11752725
-0.07128459 0.15103066 -0.29451868 0.19540371 -0.2150676 0.1545606 -0.07205593 0.15481317
0.032176904 -0.034485392 0.34759086 -0.021203216 -0.09853585 -0.08357337 0.047843378 0.07601024
00000000: 0775 2d3e 1240 e0bb 2eec 4d3d 55f0 9abb
00000010: 647c 513c 4c98 14be a628 223d d6e0 1c3e
00000020: 5c4c 273e ec9f 9fbc d5a3 86bc d313 823e
00000030: 46c9 9e3d c637 ca3c ba4e 083e 3674 393e
00000040: 68a9 4a3e a718 113d ac98 bdbd 329d 1bbe
00000050: f9c3 62bd 5cae c3bd d2f8 5abe d3bf 06be
00000060: 5cae 80bd b986 893d a438 33be 69e8 04bd
00000070: 9223 f93d 159d 94bd 24f6 3e3c 8b2f 82bd
00000080: 1508 92be 2c7d 193e d915 ddbe 1617 c5bd
00000090: 64f2 19be ce87 253d a8d7 f33d 1e9b 7d3d
000000a0: acc3 05be 945f 31be 7fd8 ddbd ed2b 0abe
000000b0: d5e0 9bbd 69e4 d8bd 3042 b3bc 4913 e63d
000000c0: bc95 39be 837f d7bd b8c1 44be e278 bebe
000000d0: 566f 8dbd 012b b4be 9496 febc 50cb a93c
000000e0: 9f77 223d 6d87 84bc f47c b2bd db73 66bd
000000f0: 8696 0bbe 0468 073e cecd 4bbe 0a6f 283e
00000100: a382 08bd bf60 893d 3bb5 5e3e e0b6 593d
00000110: ccf6 133e 1afd febb ca8e b03d aacc 17be
00000120: cc28 4fbe 8814 28bd aa27 08be 1cc3 78bb
00000130: 701a 4cbd 2db5 863d 6267 003e 037a df3d
00000140: f101 af3d 47a8 a03c e89b b1be af1b 113e
00000150: 416f 5cbd 8d3c 7a3e 4088 fe3d a0a2 7ebd
00000160: 537b 67bd d723 0ebe 519b ca3d 35f8 2bbe
00000170: bbe9 c63d 5bf3 7fbd 50e9 363e d92b 143e
00000180: 7aa6 83bb 338a 08be 2c69 043d 38ea bb3d
00000190: 2354 1a3e 700a 593d 5312 a73c 3f16 29b9
000001a0: 32f9 f33c f00b 38bc 8c5e fe3d f7a3 f5bd
000001b0: ffc8 633d 0224 113e e85b 253e 1d52 39bd
000001c0: a609 ac3d d3c2 21bd 2138 7cbc b914 3abb
000001d0: 06cb 21bd c34e 7b3d 548e c83d cf78 8ebd
000001e0: a8fb 82bd fc82 713d 3f4d 1e3e edee 26bd
000001f0: 5b60 d43d 7836 113e ffa7 693d 13c4 25be
00000200: 978b 013e 2c96 f63d 89cd 62bd 4c17 943c
00000210: 6be0 5f3b 9a60 e5bd f8cf 1a3e d794 a5bc
00000220: 5119 01be 71b7 f6bc 3036 0d3e 2e5e 4d3e
00000230: bfdc 35be e93d 0c3e 3f91 603d 9021 d73c
00000240: 1859 6bbe 445d e83c 5ade 40be 9e13 ed3d
00000250: 239f bfbe b733 7f3e c5f4 163e 8e7e f1bd
00000260: 35d3 c9bd e861 253e 4c46 c93d ffda 8bbe
00000270: 25c1 31be 012a adbd 1954 afbd 0f61 babd
00000280: e8a5 fe3d 404f 33be 6c12 8ebd 08c2 643d
00000290: 80ab 1bbe 56c3 793d 7940 d63d c0d3 aebd
000002a0: 10fa c1bd 5bf0 f1bd ca01 193e 5a20 cebd
000002b0: df50 943d c180 8a3d 8d69 9fbd 8a92 07be
000002c0: fb58 0e3e a8f1 bdbc a730 c73c 5010 73bd
000002d0: 60c8 983c ecfe 333d d72e 603d fea6 26be
000002e0: 025d 22be 9bc5 2cbe 03df 303e 9ff2 71bd
000002f0: 3cc7 be3d eb97 093e 21cd 273e c1fb 183e
00000300: 5d18 84be d554 6fbe b39b 88bd b147 9d3d
00000310: b3b2 b13c ba80 de3d b838 16be e1b1 b73d
00000320: d32a 373d 8fa3 e2bd 57f4 823d c02a 13be
00000330: af43 8a3e c21e 35bb e77c 76be e03a fd3d
00000340: 2451 3c3e 2241 d03d 9bb8 cc3d 7cfd 06be
00000350: 89cb 003e dce7 41be 5693 67be ec27 01be
00000360: ece4 e6bd 5959 a0bd 75f5 d3bd c3b7 823d
00000370: 0b8f be3d 4e96 b03d 3381 f9bd 4790 0dbe
00000380: c860 01be 4c49 823d 90f5 873e d9a9 873e
00000390: 9ec8 fd3d 1caf e13d bac7 313e 123d 733c
000003a0: bc37 63be 5859 92ba c52a 8dbc e950 bbbc
000003b0: acb1 843d e297 8d3d 0a29 0a3d 20b2 f03d
000003c0: a8fd 91bd c8a7 1a3e 27cb 96be e917 483e
000003d0: ae3a 5cbe 2245 1e3e 0f92 93bd 5887 1e3e
000003e0: eecb 033d 8e40 0dbd 6ef7 b13e 5eb2 adbc
000003f0: 2acd c9bd 8428 abbd 6bf7 433d 42ab 9b3d

model.encoder.nb_encoder.0.4.bias f4 [32]
0.08778547 0.09888961 -0.02060128 -0.16198748 -0.07791892 -0.13297284 0.08502163 -0.13058086
-0.16874294 -0.09282677 -0.11652317 -0.12930885 0.14632647 0.1646978 0.110065095 -0.025688667
-0.07826165 -0.022377562 0.03842242 0.040706176 -0.04370095 -0.10229514 0.006390777 -0.07498147
-0.13508838 -0.1704605 0.01288309 0.0021309238 -0.04818877 0.12772658 -0.11353415 -0.10717852
00000000: dec8 b33d a386 ca3d 04c4 a8bc 0ce0 25be
00000010: f493 9fbd 082a 08be d21f ae3d fdb6 05be
00000020: f3ca 2cbe f61b bebd b3a3 eebd 8a69 04be
00000030: 9bd6 153e 8aa6 283e cf69 e13d 0a71 d2bc
00000040: a547 a0bd 2651 b7bc d460 1d3d 85bb 263d
00000050: c4ff 32bd 1d80 d1bd b969 d13b e38f 99bd
00000060: 9c54 0abe 338d 2ebe 9913 533c f8a6 0b3b
00000070: 9661 45bd c2ca 023e 9884 e8bd 6980 dbbd
