v3/checkpoint/simulator.pth (torch, 931653 bytes, 108 tensors)

model.encoder.eb_encoder.0.0.weight f4 [64, 9]
000000 ab 5c 26 be 46 b1 63 3e 5f 37 8a be 20 21 22 3e
       -0.16246288 0.22235593 -0.2699537 0.15832949
000010 6a 2c 46 3b f3 27 1c be 75 91 55 be d3 9e 36 3e
       0.0030238875 -0.15249614 -0.20856269 0.17834024
000020 82 4e fb 3d ad 11 e8 3e 34 84 8b be 56 30 9e bd
       0.122708336 0.45325986 -0.272493 -0.07724063
000030 73 2c 9c be ea 9d 2f 3e 03 1e 87 3e 1b c2 9e be
       -0.30502662 0.17150083 0.26390085 -0.31007466
000040 91 c0 dd bc fc 3e 81 bd 30 a4 c7 3d f7 f4 66 3e
       -0.027069362 -0.063108414 0.09748113 0.22554384
000050 3a bf 07 3e 43 c7 62 3e 1e d0 94 3b ba 08 7f 3e
       0.13256541 0.22146325 0.004541411 0.24905673
000060 50 91 7d be 56 6a 7d be 90 93 7f be 75 84 dc 3d
       -0.24762464 -0.24747595 -0.24958634 0.10767452
000070 5c 26 de be 49 37 06 3e 84 bd d8 be e6 92 5a 3d
       -0.4338864 0.13107027 -0.4233209 0.05336275
000080 ff 08 9b 3e 3a bc e2 3d 98 ff 8b 3e 7d 72 12 be
       0.302803 0.110710576 0.2734344 -0.14301486
000090 8c 41 ae 3e 81 b0 89 3e 9c 15 d8 bd 26 b0 26 3e
       0.34034383 0.26892474 -0.10550997 0.16278133
0000a0 52 1a 15 3e 1a 8e 36 be a5 a1 f2 bd c8 c5 ef 3c
       0.14560822 -0.17827645 -0.118472375 0.029269114
0000b0 99 9d 73 be 71 45 0c bc 46 95 17 3e ff 0f c0 3d
       -0.23790587 -0.008561478 0.14803037 0.09378051
0000c0 69 b3 a6 3e 6b 8c 20 be fc e4 57 bd 2b 45 46 be
       0.32558754 -0.15678565 -0.05270861 -0.19362323
0000d0 19 b3 8c be 2f 59 4e bd 5d f2 c6 3e 46 8a 53 be
       -0.2748039 -0.05037802 0.38856784 -0.20658216
0000e0 29 b1 96 3d 86 41 9e 3d 5c cf 5e bd b8 62 a3 be
       0.07358009 0.07727341 -0.054396972 -0.31911254
0000f0 46 c7 6d be f4 a1 56 be d8 40 c8 3d e8 4c 82 3e
       -0.23220548 -0.20960218 0.09777993 0.254493
000100 1b 2e 2d 3e 8d 60 5d be 2e 43 03 be ef a7 21 be
       0.16912119 -0.21618862 -0.12818596 -0.15786718
000110 72 59 07 be af a3 88 be be e8 b7 bc 4a 26 6e bd
       -0.13217714 -0.2668738 -0.022449847 -0.058141984
000120 d5 c9 9a 3d 32 17 c0 3e 48 4a 08 be c7 a1 1d be
       0.07558028 0.37517697 -0.13309586 -0.15393744
000130 6a 65 7f 3e 87 3a 56 be f0 4f 86 3e 58 ae 46 be
       0.2494103 -0.20920764 0.26232862 -0.19402444
000140 b2 8b 63 be 81 67 60 3e 01 6c 6b be 29 cc 21 be
       -0.22221258 0.21914484 -0.22990419 -0.15800537
000150 72 ff 77 bd ed ea 02 be 95 80 87 3e 77 ab 40 3e
       -0.060546346 -0.1278493 0.26465288 0.18815409
000160 12 c4 8f 3e 22 ea 68 be 07 a6 51 3d 5e 85 0e 3e
       0.28079277 -0.22745565 0.051183727 0.13918063
000170 23 e8 8c be 9b 57 47 bc ed 4a 15 3e 66 c6 6c be
       -0.27520856 -0.012166883 0.14579363 -0.23122558
000180 2f d3 32 bd e8 19 d7 3e 0e 4b e7 bd 2e 72 61 3e
       -0.04365843 0.42011952 -0.112936124 0.22016212
000190 00 43 46 bd 4f 8e 16 bd d0 d4 14 be 98 c2 e3 3c
       -0.04840374 -0.03675681 -0.14534307 0.02780275
0001a0 99 0e a8 3e ec aa 8b bd 93 ca 4f be 29 14 1b be
       0.32823637 -0.0681971 -0.2029212 -0.15144409
0001b0 a1 36 ac be e8 f5 85 3d 15 e5 ec 3d c6 08 ce 3e
       -0.3363543 0.065410435 0.115671314 0.4024107
0001c0 3f 84 80 be a0 2c 59 be 8b 93 cb 3d 9a b7 bc bd
       -0.25100896 -0.2120843 0.09940251 -0.09214707
0001d0 86 28 25 3e f5 fa ad be 82 0c 86 3e 51 f7 49 be
       0.1612874 -0.33980528 0.26181418 -0.1972325
0001e0 12 00 73 be 43 d8 10 be 9d 64 97 be 27 16 46 bd
       -0.23730496 -0.14144997 -0.2956895 -0.04836097
0001f0 3d 73 85 3e ed b3 ab bd 36 fb db be 7f 08 2e 3e
       0.26064482 -0.083839275 -0.42965096 0.16995429
000200 2f 82 e3 bd ca b0 3d be 85 60 2e bc f6 00 cf 3d
       -0.11108815 -0.18524471 -0.010643129 0.10107605
000210 11 06 94 be 15 5b 2c be 26 b1 9e 39 97 6b d2 be
       -0.28910878 -0.1683162 0.00030268094 -0.4109771
000220 80 fa 0f be 94 70 9a be 8b af 96 3e 60 f6 75 3e
       -0.14060402 -0.30164015 0.29430804 0.24019766
000230 39 d8 f8 3d 6d 72 94 3e d7 0d 93 be 23 b0 a9 3d
       0.12150616 0.2899355 -0.28721496 0.082855485
000240 3f a9 21 be 90 c4 6f be d4 79 48 3c fe 0a ad be
       -0.15787219 -0.23414826 0.012236077 -0.3379745
000250 50 f9 06 3e 4b 27 4e be 17 c6 f1 3d fd 1c 4e 3e
       0.13181043 -0.20132177 0.11805361 0.20128246
000260 d7 a6 94 be 9a 61 51 3d 9d fd 34 3c 28 f0 18 3e
       -0.2903354 0.05111847 0.011046794 0.14935362
000270 92 3a 43 be 5e 67 18 3e 21 9d 21 3e 78 38 46 3e
       -0.19065312 0.14883181 0.15782596 0.19357479
000280 94 a4 97 3e 3d 83 c6 3c 65 f5 dc be 98 39 68 bd
       0.2961775 0.024232501 -0.4315597 -0.05669555
000290 65 2a a3 bd 84 58 a4 3d 0e 3d df 3d b2 c1 b3 3e
       -0.079670705 0.080246955 0.10900317 0.35108715
0002a0 98 65 13 3d 63 14 54 be 4c 0b b8 3d 8e 6c 93 be
       0.03598556 -0.20710902 0.0898653 -0.28793758
0002b0 f2 91 cd 3d f6 7c 5a 3e bf e5 da bc f1 c2 8d 3d
       0.100376025 0.21336731 -0.02672088 0.06921948
0002c0 3c 8a 91 be b8 c1 1f be 85 f2 85 be 4f 0a a0 be
       -0.28425777 -0.15601242 -0.2616159 -0.31257865
0002d0 38 04 b2 3e 32 9c 94 be 9d 5a 30 3d c4 4f 1a 3c
       0.34768844 -0.29025418 0.043055166 0.009418432
0002e0 82 e7 03 bd a6 08 f2 bc 16 8a 8e be 22 54 69 be
       -0.032203205 -0.02954514 -0.27839726 -0.22786
0002f0 8d 72 b7 bd 1d f3 6f 3e e5 b7 8e be 03 87 28 be
       -0.08957396 0.23432584 -0.27874675 -0.16457753
000300 ba 78 a7 be db ab cf bd 1c 2e 50 be 4d df 89 be
       -0.32709295 -0.10140201 -0.2033009 -0.26928177
000310 46 a5 9a be f7 4c 38 be b3 07 f5 be bd 57 1e be
       -0.3020422 -0.1799811 -0.47857437 -0.15463157
000320 ee 86 99 3e 97 1d 80 3e a9 35 a7 3d bc f0 b1 bd
       0.29985756 0.25022575 0.08164532 -0.086884946
000330 9d 10 1d be dd bf c4 3d b1 39 ac 3c 17 ca a7 be
       -0.15338369 0.096069075 0.021023603 -0.3277137
000340 40 9c c0 3e bd cd 9c 3e 8c 74 b7 3d eb ef f1 3d
       0.3761921 0.30625716 0.089577764 0.11813339
000350 fe 33 31 3e 88 fc be 3d e6 5e 90 3e f1 19 20 3d
       0.1730499 0.0932551 0.28197402 0.03908724
000360 59 f0 8e 3c 9a 0d 45 3e c5 3f a6 be b5 e8 9e bd
       0.017448591 0.1924347 -0.32470527 -0.07759229
000370 8a f7 74 bd 75 e5 68 3d fc 3e a7 3e 72 0a ed 3d
       -0.059806384 0.056859452 0.3266524 0.11574258
000380 77 ab c4 3c 8c 82 01 bf 7e fb cb be be 0f d5 bd
       0.024007542 -0.50589824 -0.3984031 -0.10403393
000390 3f a5 47 be 51 27 ba 3d a6 72 8c 3e d6 35 76 3d
       -0.1949663 0.0908953 0.2743122 0.060109936
0003a0 d1 fd 23 3e 8b a2 dd 3d b4 35 c1 be 94 2f 5a bc
       0.16014792 0.10822018 -0.37736285 -0.013317008
0003b0 0b 10 80 bd 06 8d c2 3d f4 55 10 3d 5f 2d 98 be
       -0.0625306 0.09499554 0.03523822 -0.29722115
0003c0 b9 50 8f bd f4 9b 24 be 45 01 9b 3d 58 78 84 be
       -0.069978185 -0.16075116 0.075686015 -0.25873065
0003d0 ad e2 97 3d cb 9b 9c be a5 cc b9 be 91 8f f6 bd
       0.07416282 -0.3058761 -0.36288944 -0.12039102
0003e0 59 c0 d0 3e da ec 45 be 0b e0 b4 3e 0b fb e7 3c
       0.4077175 -0.19328633 0.3532718 0.028317949
0003f0 a9 32 4f 3c 0b 77 ad be 09 e2 1e 3e 6b 41 8e be
       0.012646356 -0.33879885 0.15515913 -0.27784285

model.encoder.eb_encoder.0.0.bias f4 [64]
000000 da cf 68 3e f5 f7 fa 3d cc f2 74 3e 9c c7 19 be
       0.22735539 0.12254325 0.23920745 -0.15017551
000010 ba ce 80 be 0b 4a fd bd 19 0a 80 3e 71 9b 9a be
       -0.2515772 -0.12367638 0.25007704 -0.30196717
000020 be f8 99 3e 2e 0f 53 3e 5c 1d 39 be fc dc 79 be
       0.30072588 0.2061126 -0.18077606 -0.24400705
000030 49 3d 0e 3e 7c 53 97 bc b4 39 0d 3e 28 5d 85 3d
       0.13890566 -0.018472426 0.13791543 0.06511909
000040 d1 99 79 bd 0b f2 bc bc fc 4e 00 be 4a d1 23 3e
       -0.060937706 -0.023064634 -0.1253013 0.15997806
000050 e6 7a 87 be ac d9 69 3e c9 94 aa be 98 78 82 be
       -0.26460952 0.22836941 -0.3331664 -0.2548263
000060 ed fd 0b 3e ba fe fa 3d 7a 93 4c bd e4 6a 01 3e
       0.13671084 0.122556165 -0.049945332 0.12638432
000070 16 27 fb bd 39 e8 e8 3d 68 07 81 3e c7 ed 79 3e
       -0.122633144 0.11372418 0.25200963 0.24407111
000080 bc 52 d2 bd 97 46 d0 bc c3 00 ca bd 94 3a 0a bd
       -0.102696866 -0.025424285 -0.098634265 -0.03374727
000090 47 a5 f5 bd 94 15 84 be fd 3b 70 3b b4 8a b3 3e
       -0.11994415 -0.25797713 0.003665685 0.3506676
0000a0 3e dc e1 3d 4c 40 c3 bc 40 e0 ac be 4f fd dd 3d
       0.11028336 -0.02383437 -0.3376484 0.108393304
0000b0 20 96 10 3d 8a 98 9f 3e 6b b1 b1 3d 6f da ab bd
       0.03529942 0.31171066 0.08676418 -0.08391272
0000c0 68 e9 73 be fb 38 95 be 1d c0 72 3e b3 1c 48 3e
       -0.23819506 -0.29145035 0.23706098 0.19542198
0000d0 ec 0a c2 be eb 6e 9a 3d f8 71 1a 3e 0f a1 2b be
       -0.37898958 0.07540687 0.15082538 -0.16760658
0000e0 1b f7 76 be 05 15 52 be bb 94 b6 bd 80 eb 96 3e
       -0.24117701 -0.20515831 -0.08915087 0.29476547
0000f0 55 d1 d9 3c c9 69 a2 bd cc 34 59 be 02 a3 6c be
       0.026589075 -0.07930333 -0.21211547 -0.23109058

model.encoder.eb_encoder.0.2.weight f4 [64, 64]
000000 13 3e 05 3d 37 5d ed bd 46 b6 e1 bd 29 83 88 bd
       0.0325299 -0.11590045 -0.11021094 -0.06665642
000010 0b 51 97 bd ab 66 48 3d f3 32 a8 3d de 26 00 3e
       -0.073885046 0.048926037 0.08212843 0.12514827
000020 fc 98 aa 3d 41 84 d0 bc 4c b1 fc bd b3 29 43 3d
       0.08329961 -0.025453689 -0.12338504 0.04764719
000030 df 78 4c bc f7 75 8b bd 6d ee c8 3d 18 6e 67 bb
       -0.01247999 -0.068096094 0.09811101 -0.0035313424
000040 3b 98 e8 bb 92 ee 3d 3d 5c 54 79 3d 0d c0 37 3d
       -0.0070982254 0.046370097 0.060871467 0.04486089
000050 f5 a4 41 3c 47 c8 7e bb 54 44 83 3c d4 db c3 bd
       0.011819114 -0.0038876699 0.016023792 -0.09563413
000060 53 e5 30 3c 6d fd 99 3d b0 de ca bb b5 08 9f bd
       0.010796863 0.0751904 -0.006191097 -0.077653326
000070 64 3f c0 3d d5 50 de 3c 53 0b d6 bb be 07 79 3d
       0.09387091 0.027138153 -0.0065321117 0.0607984
000080 b4 31 0e be 68 0e 41 bc ff 4d 96 3c 0f 86 2b 3d
       -0.13886148 -0.01178322 0.018347738 0.041875895
000090 bb 34 f0 bc 5f bd cf 3a 3c b9 56 bd 4e 83 18 3d
       -0.029322019 0.0015849284 -0.052422747 0.037234597
0000a0 52 de 67 3d 85 e7 83 3d b3 c5 51 bd 4f b1 9a 3d
       0.056608506 0.06440643 -0.05121393 0.0755335
0000b0 84 05 1f 3d 9a 7a 95 bd ab aa 96 3d 1b ab 2e be
       0.03882362 -0.07298775 0.07356771 -0.17057459
0000c0 e9 00 af bd ec 69 5f 3c cb f7 9e 3d cf b4 18 bd
       -0.085450955 0.013636094 0.077621065 -0.037281808
0000d0 55 6e d4 3c 34 27 a5 3d a6 b8 8c bc b2 6f ca 3c
       0.025931517 0.08064118 -0.017177891 0.024711464
0000e0 30 0e bd 3d 12 bf cd 3d eb fd ba 3d 33 59 27 3d
       0.09231222 0.100462094 0.09130462 0.04085655
0000f0 de aa 26 3d 2f 4c 73 bd 97 8f 4b bd e7 05 7f bb
       0.040690295 -0.059398826 -0.049697485 -0.003891343
000100 cf 04 06 3e b2 c8 99 3d 8c 75 e1 bd 99 38 ec 3c
       0.13087772 0.07508983 -0.110087484 0.028835582
000110 2d 4e c3 3c d4 b6 fb bd 6a ca ea bd 02 fd ba 3d
       0.023840988 -0.12290731 -0.11464389 0.09130289
000120 ec a7 0b bd a5 41 c9 3a 11 84 2e 3b f2 7e 94 3d
       -0.03409569 0.0015354647 0.002662901 0.072507754
000130 d0 bd fc 3d d3 22 ab bd 34 aa cf 3d a7 4d 9b bd
       0.12340891 -0.083562516 0.101398855 -0.075831704
000140 f8 6b ab 3d 30 8a da 3d b4 a6 37 3d 02 27 7a bc
       0.08370203 0.106708884 0.044836715 -0.015268089
000150 58 a8 e2 3d 38 bb 53 3e a4 4a 7d 3d be b7 f3 3d
       0.11067265 0.20676887 0.06183876 0.119002804
000160 0c 28 f8 bc 12 52 db bd b5 9c 20 bd 6b 13 94 bd
       -0.030292533 -0.10709013 -0.039211947 -0.07230266
000170 bb b8 f8 bc d5 fb cd bc 22 db 97 ba 9b d3 12 3d
       -0.030361524 -0.025144497 -0.0011585692 0.035846334
000180 c5 54 14 be d8 54 6d 3d cb d1 25 bd ce ee 20 bd
       -0.14485462 0.05794224 -0.040483277 -0.039290242
000190 5e ae 78 3d 8f 0e 8b bd 93 85 fb 3d 9f 02 e4 bc
       0.060713165 -0.06789886 0.12281337 -0.027833281
0001a0 95 b5 ac bd 96 17 dc bc 35 99 a1 bd 7c d6 8d bb
       -0.084330715 -0.026866715 -0.0789055 -0.004328547
0001b0 69 05 a0 bc 2e 6b f1 3d 61 31 ac 3c f2 ea c2 3b
       -0.01953383 0.11788021 0.02101964 0.005948418
0001c0 a6 ed c1 3d 79 e5 a7 bd 7a a7 31 3d 87 1f 8b 3c
       0.09469156 -0.08198065 0.04337261 0.016982807
0001d0 84 9f 77 ba 05 1f f2 3c 52 bc 04 3d df a0 8a bc
       -0.0009446072 0.029555807 0.03240616 -0.016922412
0001e0 06 e4 0f be 33 d8 1b 3c bf 6e 62 bd 4a 3f 27 3e
       -0.14051828 0.009511995 -0.055281397 0.16332737
0001f0 ad 3a 21 bd ec d1 99 bd 7c 8f 0a 3e 87 41 c4 3c
       -0.0393626 -0.075107425 0.13531297 0.023957027
000200 d2 ee cf 3d 47 e3 80 bc e4 32 0b be 25 67 1f be
       0.10152973 -0.015733374 -0.13593632 -0.1556669
000210 ae 18 19 3d d0 26 f4 3d 02 d0 4c 3d a7 43 59 3d
       0.037377052 0.119214654 0.05000306 0.053043034
000220 be 8b a6 3b 3b 09 c5 3d b3 18 dd bd 93 26 ab bd
       0.0050825765 0.09620901 -0.107957266 -0.08356967
000230 fe cf d8 3c 5e b1 f5 bd 6f c9 80 bd e9 9a 85 3d
       0.026466366 -0.11996721 -0.062884204 0.065236874
000240 46 86 a6 bd fe c7 0b 3e c0 db 11 be fd 49 de bd
       -0.081310794 0.1365051 -0.14243984 -0.10853956
000250 de 2f d5 bc 73 30 b1 bb de a9 fb 3b 32 87 1b 3d
       -0.026023801 -0.005407387 0.007680162 0.03797073
000260 b4 3e 99 3d 50 8f 1e be 5f 4c af bd a2 e7 c8 3c
       0.07482663 -0.15484357 -0.085594885 0.024524514
000270 e6 6c 85 bd 28 2d de 3d 44 16 9a 3d c6 d6 c5 bd
       -0.06514911 0.108484566 0.07523778 -0.096601054
000280 2e 18 4f 3d 3e 9b 05 be e9 c4 c1 bc c9 35 cd bd
       0.05056017 -0.13047501 -0.023653464 -0.10020024
000290 fc af 2e bd 1c 85 6f bd fb 49 30 3d b4 84 d9 3d
       -0.0426483 -0.058476552 0.043039303 0.10621014
0002a0 82 53 b5 bc 64 5c 96 bd 40 4b 6d bb 85 4d a7 3d
       -0.022134546 -0.07341841 -0.0036208183 0.081690826
0002b0 1f ff b4 3c 1a 49 ed 38 c5 c0 c3 bd b1 5b 04 3e
       0.022094307 0.00011314657 -0.09558252 0.12925602
0002c0 3f 1a 94 3d b2 b9 9a bc 21 d4 c2 bd 4b 38 36 bd
       0.072315685 -0.018887375 -0.09513117 -0.04448728
0002d0 f4 87 20 3d 24 4d f5 3d 1a c4 02 3e 12 5e eb 3c
       0.039192155 0.11977604 0.1277012 0.02873138
0002e0 a7 fa 3c bd c9 a9 52 bd 1c 67 54 3d 41 75 db 3c
       -0.04613748 -0.05143145 0.051856145 0.02678931
0002f0 c4 04 d8 bd 54 77 06 3e ef cb 0e bd a4 a2 58 3d
       -0.10547784 0.13131458 -0.034862455 0.05288948
000300 f9 cf a5 bc fe ed 60 3c 2e 3e c8 bd b1 17 93 bd
       -0.02024077 0.013728617 -0.09777485 -0.07182253
000310 d7 29 99 3c e8 55 47 3d 78 b3 d1 bb 91 ba 66 3c
       0.018696709 0.04866591 -0.006399568 0.014082567
000320 28 19 d6 bd 08 e9 32 3c f9 d6 56 3d 85 71 f4 3c
       -0.10454017 0.010919817 0.052451108 0.029839287
000330 58 dd 96 3d 82 94 d3 3d dc 0f bf bd 24 1c 91 3d
       0.07366437 0.1033106 -0.09329197 0.070854455
000340 18 52 b9 3c 18 08 52 bd ef 5e 1d bc 5a 73 e1 bd
       0.022622153 -0.05127725 -0.009605153 -0.1100833
000350 09 b9 8d 3d 6c cb ea bd 58 bf ab bd e9 bf 0c bb
       0.06920058 -0.11464581 -0.08386105 -0.0021476692
000360 cb 6e 9d bd c6 b2 c1 bd 96 32 a5 bd 25 9f cb bd
       -0.07687148 -0.094579265 -0.08066289 -0.09942464
000370 df ea eb bc f3 83 96 bd c5 cd cd 3d 82 c0 99 3b
       -0.028798519 -0.07349386 0.10049013 0.004692138
000380 38 91 4d 3d fa 40 ed 3d b9 66 1c 3d 1f 12 ac bd
       0.05018732 0.11584659 0.0381839 -0.08401894
000390 dc 3e a8 bd 7e c7 d4 3d ad 04 ed bc 73 7e a2 bd
       -0.082151145 0.103896126 -0.028932894 -0.079342745
0003a0 11 08 6a bd 40 4a ad 3d b6 16 4b 3d 1c 11 28 bd
       -0.0571366 0.08461428 0.049582206 -0.04103194
0003b0 96 c4 93 bc 14 0f f0 bd 06 41 b8 bd 78 41 e4 3c
       -0.018038075 -0.11721626 -0.08996777 0.02786325
0003c0 4a cb cb 3d f0 86 be 3d a9 6b de bd 94 97 c0 bc
       0.09950884 0.09303081 -0.10860378 -0.023509778
0003d0 09 2b 7a bd 4c 56 a9 3d db ce e9 bd 3f 59 bc bb
       -0.061076198 0.08268413 -0.11416408 -0.0057479437
0003e0 cf 57 52 3d 14 77 06 3d 91 91 af bd 67 1f d1 3c
       0.051353272 0.032828405 -0.085726865 0.02552767
0003f0 e0 6a c6 3b 62 48 09 3c fc b9 f6 bd 78 dd 89 bc
       0.006055221 0.008379074 -0.120471925 -0.016829237

model.encoder.eb_encoder.0.2.bias f4 [64]
000000 fe be a8 bd c6 b5 9a 3c 36 95 07 be 7e dd 8c bd
       -0.08239554 0.018885504 -0.13240513 -0.06878184
000010 9a a9 fa bc dd c3 8a 3d b4 c0 24 3d db 85 ac 3d
       -0.03059845 0.06775639 0.04022284 0.084239684
000020 b4 84 cf 3d ca bc 6d bd 0f 7e d3 bd 00 d9 bd 3d
       0.10132733 -0.05804137 -0.10326778 0.09269905
000030 4d 76 80 bd 05 bb e3 3c b1 2b fe bc 68 f7 47 bd
       -0.06272564 0.027799139 -0.031026693 -0.04881993
000040 5f b6 c5 3d 75 67 8a 3d 16 d5 20 3d 0c 82 21 bd
       0.09653925 0.06758014 0.039265715 -0.039430663
000050 74 f5 f4 bd 18 d6 46 3d 14 b0 7d bd 9f 8a b8 bc
       -0.11960879 0.04854402 -0.0619355 -0.022527037
000060 39 db d3 3d 15 09 24 bd be 54 76 bd 2f d7 72 bd
       0.10344548 -0.040047724 -0.06013941 -0.059287246
000070 a9 74 f9 bd 09 06 6b bd d3 06 05 be 14 73 3b bc
       -0.12180454 -0.057378802 -0.12990884 -0.011441011
000080 61 85 34 bd 8d 4c fb 3c 68 dd 5c bd 3d a4 b0 3c
       -0.044072513 0.03067615 -0.053922087 0.02156269
000090 9a 0d da bd 93 01 12 3e f8 f2 ed bc 2a f0 54 3d
       -0.106471255 0.14258413 -0.02904652 0.05198685
0000a0 a8 3a b9 bd 66 d9 41 bd 06 aa b3 bb 1d a9 bc 3d
       -0.09044391 -0.047326468 -0.005482915 0.09211943
0000b0 ef 97 fb bd 6f d9 32 bc 08 0b f8 3d 48 21 cf 3d
       -0.122848384 -0.010916098 0.12111479 0.1011377
0000c0 1a e5 7b bd 30 74 52 bc cf 12 bc 3d b7 b2 b4 bd
       -0.061497785 -0.012845084 0.09183275 -0.0882315
0000d0 f7 9d ed 3c 4a 42 77 bb e1 99 6d bd af 7b f9 bc
       0.029005988 -0.003772872 -0.05800808 -0.030454485
0000e0 e1 75 b8 3d b3 d5 7e 3c 6f 0e e9 3d 40 47 d5 bd
       0.090068586 0.01555388 0.11379706 -0.104139805
0000f0 aa 07 95 bd 2e 47 bf bd 16 b3 07 bd 8c e2 e0 bc
       -0.072768524 -0.09339748 -0.033129774 -0.027451776

model.encoder.eb_encoder.0.4.weight f4 [64, 64]
000000 0a 1b 02 3d 48 57 51 3d 72 f1 08 3e 0c 5f 8b bd
       0.031764068 0.05110863 0.13373354 -0.06805238
000010 a3 fe 9f bd 2a fc 21 3e 70 dd 28 3d 18 1a e3 bd
       -0.0781224 0.15818849 0.041226804 -0.11088961
000020 f5 3c 80 bd a4 96 1b bd bf 73 b7 3d e7 32 14 bd
       -0.06261627 -0.03798546 0.08957624 -0.036181357
000030 7a 71 8f 3c 5a dd 9e bd fb fe 47 bd 98 2c e4 3d
       0.017510165 -0.07757063 -0.048827153 0.11141318
000040 0c 34 fa bd 03 96 d0 3b d2 89 fd bc 3f 1d ce bc
       -0.122169584 0.006365539 -0.030949507 -0.02516043
000050 60 c7 9a 3c 05 2f 1b 3e 4e 4d 7b bd 5f fa 26 bc
       0.018893898 0.15154655 -0.06135302 -0.010191529
000060 eb 80 2f bd fc 85 59 3a db 08 2c 3d 32 3e 3e bd
       -0.042847555 0.00082978583 0.042000633 -0.046446033
000070 2d bc 4c bd c8 1e 93 3d 8f 2c 18 3d 94 de 1e 3c
       -0.049984146 0.071836054 0.03715187 0.009696621
000080 48 21 27 3e d8 c4 28 bd df 6a d2 3d 19 a0 d3 3b
       0.1632129 -0.04120335 0.1027429 0.006458294
000090 af 2e b2 bd 60 28 19 bb e1 db f8 3d 38 73 65 bd
       -0.087003104 -0.0023370013 0.121513136 -0.056018084
0000a0 e4 5b d3 bd ae cc 6e bb d3 60 b4 3c 43 2d 07 bb
       -0.10320261 -0.0036437917 0.022018826 -0.0020626343
0000b0 1a 8d 8d bd 68 9a fa 3d f4 95 8c 3d 00 fa 41 3c
       -0.069116786 0.12236482 0.06864539 0.01183939
0000c0 73 e1 e5 bc 75 ef d9 3d 9c ff c3 bb 8b 2a 07 be
       -0.028061604 0.10641376 -0.0059813987 -0.13199823
0000d0 11 9d 84 bd 6a 03 c8 3d 5f 2b 90 bd 0b a7 c9 bc
       -0.064752705 0.09766276 -0.070395224 -0.024615785
0000e0 91 e9 85 bd 58 93 3d 3c 5e 5a 03 bd 26 1f 7f 3c
       -0.0653869 0.011570774 -0.032068603 0.015571391
0000f0 ea 22 9e bd c3 88 30 bc 13 05 6d 3d d7 bc c6 3d
       -0.07721503 -0.010774794 0.057866167 0.09703987
000100 2a 8e 5c bd 3a 3e bf bd af 08 45 bd ad 38 d7 3d
       -0.053846516 -0.09338041 -0.048103984 0.10508857
000110 41 99 45 3d db 2e f6 3c b7 dc bd 3d df 2a 37 3b
       0.048241857 0.03005164 0.09270614 0.0027949137
000120 45 43 ba bc d9 bf 75 3d b1 09 cb 3d ca fa 40 bd
       -0.022737155 0.059997413 0.09913958 -0.04711417
000130 2e 9b ab bd a0 08 bb 3d 51 fd 03 be a2 c4 ef 3d
       -0.083792076 0.091325045 -0.12889601 0.117074266
000140 b5 fb 2e be 56 1f c5 3a 98 68 d7 3d a3 aa e8 3d
       -0.17088206 0.0015039246 0.105179965 0.11360671
000150 40 c9 0a bd a4 8d fa bc 99 91 67 bd 1f 78 89 bd
       -0.033883333 -0.030585118 -0.056535337 -0.067123644
000160 55 80 80 39 19 ba fb 3c ce a3 5a 3c 45 9c b8 bd
       0.00024509677 0.030728387 0.013344718 -0.09014181
000170 e9 f9 08 3c 74 7f 27 be 96 62 b7 3d 0c 27 3a bd
       0.0083603645 -0.16357213 0.08954351 -0.045447394
000180 2c 1a a2 3d c4 ea b4 3d 3e 1a 80 bd 35 35 0b 3d
       0.07915148 0.088338405 -0.06255005 0.03398629
000190 fc 72 16 3c f9 78 04 be 03 26 6e bd ff 11 8d 3d
       0.009182688 -0.12936772 -0.05814172 0.06888198
0001a0 e3 c6 b7 bd aa 3e a7 3d 5f 69 4a bd 13 79 f5 3d
       -0.089734815 0.08166249 -0.049416896 0.11985984
0001b0 32 f9 81 bd e3 08 af 3d 77 e6 d6 3d eb 4d 33 bd
       -0.06346358 0.08546617 0.104931764 -0.04377548
0001c0 ae 5c e7 bc 48 3d 21 3d 38 cf 16 3c a7 2e 39 3d
       -0.028242435 0.039365083 0.009204678 0.045210507
0001d0 1f 35 a0 bd 48 80 89 bd 5a 68 1c bc ff 1a a2 3d
       -0.07822632 -0.06713921 -0.009546364 0.07915305
0001e0 f2 02 3d bd 99 e6 1e 3d 77 6b 02 be 43 41 e3 3d
       -0.046145387 0.038794134 -0.12736307 0.11096432
0001f0 ef c3 df bc 4d a5 0c 3e d6 d6 45 bd 7c 93 f4 bd
       -0.027315108 0.13734932 -0.048300587 -0.11942193
000200 bb 49 b2 3d fd 9c 89 3d 24 f2 99 bd df 55 f4 3c
       0.08705469 0.06719396 -0.07516888 0.029826103
000210 28 94 f6 bd f1 55 8a 3c 89 4d c6 bd e4 dd 85 bc
       -0.12039977 0.016886683 -0.096827574 -0.016341157
000220 85 cf c0 bd 1c 3d 61 3d 89 7f ee 3c 1d 20 9e bd
       -0.09414581 0.05498992 0.029113548 -0.07720969
000230 a6 b0 96 bd f2 5c 95 3c ae 1c 7a bd 66 90 8b 3d
       -0.07357912 0.018232796 -0.061062507 0.06814651
000240 01 f0 a5 bd 02 c9 91 be d3 79 23 3d 5f 8d 0f bd
       -0.08102418 -0.2847367 0.039911103 -0.03504693
000250 08 fa 79 3d 0b 7b c3 3d 85 f9 8f bd 94 ae 8e bd
       0.061029464 0.09544953 -0.07030014 -0.06966892
000260 30 5b a3 3d eb 42 76 be c0 c1 17 be 66 0e 14 3d
       0.07976377 -0.24048965 -0.14820004 0.036146544
000270 c5 d7 d8 bb 19 a2 d6 3d f3 5b e2 3d 7c 96 fc bc
       -0.0066175186 0.104801364 0.11052694 -0.030833475
000280 b6 2f f8 be 26 7e 3b bd a3 a7 f5 bc 8c a4 80 bd
       -0.484739 -0.0457746 -0.029987162 -0.06281385
000290 7e 41 02 3d 8a 7a 8d 3d 4b e3 03 be 55 c6 3d 3d
       0.03180074 0.06908138 -0.12879674 0.046331722
0002a0 87 52 09 be 23 06 61 3d 71 a0 62 be 31 e1 d6 3d
       -0.13410388 0.054937493 -0.22131516 0.104921706
0002b0 3d 9b 4c bd 97 16 c3 3c e3 51 69 bd d6 1d 5d bd
       -0.049952734 0.023814483 -0.05696286 -0.053983532
0002c0 b9 8f 4a bd 9d d9 20 3e 16 8c c9 3d a7 4d 3a 3e
       -0.04945347 0.15708013 0.098411724 0.18193685
0002d0 0c 7d 72 3d 0c 07 d1 3d 1f e5 81 be 0d a6 5b be
       0.059201285 0.10206422 -0.25370118 -0.21450062
0002e0 8f 7e eb bd a2 14 e4 bc 6b db 8e bc 55 dc 20 be
       -0.114987485 -0.02784187 -0.017438611 -0.1570905
0002f0 ae 7d c9 bd bb 0d d9 3d 26 1e dd bd b3 be b1 3d
       -0.098384246 0.10598322 -0.10796766 0.08678951
000300 68 ad 4d ba 7b a4 cd bc 30 af f2 bd 50 e2 4d bd
       -0.0007845969 -0.025102844 -0.118498206 -0.050264657
000310 e6 17 f5 bd db 80 05 3e a4 fb 67 bd 8b 25 f8 3c
       -0.11967449 0.13037436 -0.056636468 0.03029134
000320 39 3f 5a 3c 9c fd 34 bd fb 88 e5 3d 63 7e f0 bd
       0.0133207375 -0.044187173 0.112077676 -0.11742856
000330 e7 7f 3d be c2 85 9c bd 7a 2a 40 bd 38 bb 98 bc
       -0.18505822 -0.076427 -0.04691551 -0.01864396
000340 e5 4c 6d 3d 2b da ba bc 25 b4 8d bd f2 a6 c5 bd
       0.05793466 -0.022809109 -0.069191255 -0.09650983
000350 9c 65 69 bd 61 87 5a bd 37 50 fc bc f0 d8 95 bb
       -0.056981668 -0.053351764 -0.030799968 -0.00457298
000360 aa 19 06 3d 1b 20 00 be 27 d6 98 bd a4 7c 86 bd
       0.03273932 -0.12512247 -0.07462721 -0.06566742
000370 e1 5d ad bb a9 ca 45 3c a2 88 18 be 9e 23 ac bd
       -0.0052907323 0.012072244 -0.14895871 -0.08405231
000380 c0 64 25 3d e9 df 77 bd 55 d4 ad 3d 89 73 c5 bb
       0.040379286 -0.06051627 0.08487765 -0.0060257358
000390 7a 23 c7 bd d2 b3 15 bd 60 d0 f0 3d a4 d3 95 bd
       -0.097235635 -0.036548443 0.117584944 -0.07315758
0003a0 c8 99 88 bd 05 e0 95 3c 6c 41 94 bd e7 bc 2b 3d
       -0.066699564 0.018295297 -0.07239041 0.0419282
0003b0 7b 0d 82 3d e9 f0 9e 3d 8a bc 80 3d e6 59 a6 3d
       0.063502274 0.07760794 0.06285961 0.081226155
0003c0 b0 23 61 3d 72 0b 72 bd 1a 3b 8c 3b c0 71 8b 3d
       0.054965675 -0.059092946 0.0042795064 0.068088055
0003d0 9b 29 99 bc 45 f1 f3 3d a4 7c 08 3e ef 55 5b 3e
       -0.018696597 0.11911253 0.13328797 0.214195
0003e0 6b 4b 83 bd 46 0c 0b be 03 18 c6 bc 61 64 54 bd
       -0.06410869 -0.135789 -0.024181372 -0.05185354
0003f0 ac 0f a5 bd de 16 a0 3d 25 bb ae 3d 2c 25 ad bd
       -0.0805963 0.078168616 0.08531789 -0.084543556

model.encoder.eb_encoder.0.4.bias f4 [64]
000000 a3 7c 32 bc 50 e2 2a bd bb 54 17 bd 9c e1 05 3e
       -0.0108939735 -0.041719735 -0.03694604 0.13074344
000010 e9 47 94 bd a9 4b a9 bd 19 ee 79 3c 61 7e ac bb
       -0.07240278 -0.08266384 0.015254521 -0.005264089
000020 d0 dd 86 3d 0d d2 fd 3d 2a 1e 06 be 05 c3 75 3d
       0.06585276 0.1239358 -0.13097444 0.06000044
000030 f4 69 0e 3e 19 41 e0 3d 8b 2a 18 3e 1a 97 d5 bb
       0.13907605 0.109499164 0.14859979 -0.006518257
000040 0a 1f 8b bd cf e0 9a 3d ac ec 2c ba 79 15 03 bd
       -0.067930296 0.0756241 -0.0006596546 -0.0320029
000050 de 6e 03 3b 10 c3 26 3d b3 61 9c 3d da 5f c8 bd
       0.0020055096 0.04071337 0.07635822 -0.09783907
000060 87 11 20 bd ce 37 c0 3d ce 61 69 bd 27 a3 c4 bd
       -0.039079215 0.09385644 -0.05697804 -0.09601431
000070 fc 91 af 3d d9 65 b9 3c 0c 58 f5 3c 9c 5f ee bd
       0.08572766 0.022631573 0.02994921 -0.1163933
000080 77 02 79 3d b3 b7 ed bd 50 d0 fc 3d eb b8 48 3c
       0.060793366 -0.116073035 0.1234442 0.012251119
000090 b0 cc bf bd 88 f9 c9 bd a7 b5 99 bd d0 da ac bd
       -0.09365213 -0.098620474 -0.075053506 -0.08440173
0000a0 1e 4f 4e bd 4f 8c 55 bc f6 fb fb 3d 5f fd 94 bd
       -0.05036842 -0.01303394 0.12303917 -0.07274889
0000b0 2a 57 81 bd 8c 9f 8f 3c 4d ff 03 bd 2e ac 84 3d
       -0.06315453 0.017532133 -0.032225896 0.06478153
0000c0 69 35 63 3d 9d fd f2 bc 7e 05 58 3d c8 b2 74 bc
       0.055470858 -0.029661948 0.052739613 -0.014935203
0000d0 bd 78 ed bb 3f 5b 4e bd 45 3b a4 3d 06 13 ba 3d
       -0.007247059 -0.050379988 0.08019117 0.0908566
0000e0 1e d5 52 bc b7 c4 c0 bc de 36 fb 3d d0 9b e9 bc
       -0.012868194 -0.023531301 0.122663245 -0.02851668
0000f0 95 f8 41 3d 90 29 f6 3c 6a b0 a3 3d ea ad 0c 3d
       0.047356207 0.030049115 0.07992633 0.034345545

model.encoder.eb_encoder.0.6.weight f4 [64, 64]
000000 13 65 0f bc 6d 4b 83 3d 80 9f 82 3d 63 84 24 3c
       -0.008752125 0.06410871 0.063780785 0.010041329
000010 c6 cf c2 3c c2 0d 8a bd 0b e1 b3 3c 54 39 b0 bd
       0.023780715 -0.06740905 0.021957895 -0.086046845
000020 72 fc 6e bd 67 ea f9 3c a6 72 ea bc 63 38 27 bc
       -0.05834622 0.03050728 -0.028619122 -0.010206315
000030 49 a1 9f bd bb 4f d4 bb 7f b9 e5 bd 5b 03 db 3d
       -0.077944346 -0.006479231 -0.11217021 0.106939994
000040 6a c5 d7 3d 3d 73 a0 3d d2 19 f7 3d 97 38 1a bd
       0.105357006 0.0783448 0.12065472 -0.037651625
000050 5d 16 b1 bd 10 58 ac 3c 43 b6 36 bd 42 e9 af bd
       -0.086468436 0.021038085 -0.044607412 -0.08589412
000060 84 68 4e bd 9d fd 99 bd ab 11 1d bd c9 fb 71 3c
       -0.050392643 -0.07519076 -0.038346928 0.014769503
000070 ec 9a a0 bd fe e9 0b bc be ba d8 3d 46 f6 26 3b
       -0.07842049 -0.008539675 0.10582493 0.002547638
000080 c7 eb 72 3d 65 ef 22 3d 18 ad 9c bd 74 b2 aa 3c
       0.059306886 0.039779086 -0.076502025 0.020837046
000090 f6 0a a0 bd 90 df 89 3d f0 a7 52 3c 2c cd 0a bc
       -0.07814591 0.06732094 0.012857422 -0.008471768
0000a0 5d 80 9b 3d 96 cd 15 be 09 11 04 3c 2c d9 45 3d
       0.07592843 -0.14629206 0.008060702 0.048302814
0000b0 df 10 ee bd 20 05 8d 3d b0 63 74 3d 2e 18 46 3d
       -0.11624312 0.06885743 0.059665382 0.048362903
0000c0 87 e7 a0 3c 89 84 e1 bc ea b3 9f 3d 77 1e 2c 3d
       0.01964165 -0.027529018 0.07797988 0.04202124
0000d0 28 bb 93 bc c9 cc 36 bd f8 85 3d 3d af 75 de bd
       -0.018033579 -0.044628892 0.04627034 -0.1086229
0000e0 36 54 2d bd 23 dd 8e bd b8 11 7c bd 96 4e be 3d
       -0.042316638 -0.06975772 -0.061540335 0.09292333
0000f0 27 53 33 be a8 16 ca bc 55 b6 02 be aa a6 bd 3c
       -0.17512189 -0.024669006 -0.12764867 0.02315076
000100 9d 0a 06 be e3 00 d4 3d 5a 8e cf bc 9f 32 92 bd
       -0.13089986 0.10351732 -0.025336433 -0.071385615
000110 bb 00 15 be 95 cc 2e 3c a4 98 d6 bc 75 cc fa 3d
       -0.1455106 0.010668893 -0.026195832 0.12246028
000120 a8 24 de bd b3 c3 fb bd 8c 38 55 3c eb 9b 4e 3b
       -0.108468354 -0.12293186 0.01301397 0.003152604
000130 80 7c af 3d 88 d8 9f 3d de d5 00 be 67 0f d8 3d
       0.08568668 0.07804972 -0.12581584 0.10549813
000140 ea b9 02 be 20 ec 49 3c 8c 3c aa bc e4 9d 52 3d
       -0.12766233 0.012324363 -0.020780824 0.051420107
000150 4f f5 21 bd 40 0a b1 3d 66 6c ef bd ca c9 03 be
       -0.039540585 0.08644533 -0.11690597 -0.12869945
000160 53 83 c5 3c 18 d2 97 3d 0f 72 37 bd 7d 45 27 3d
       0.024110472 0.07413119 -0.04478651 0.040837754
000170 64 34 4b bd 16 bc 89 3c 6b 5d bf bc 61 33 0a bd
       -0.04961051 0.01681332 -0.023359975 -0.033740405
000180 63 ff 10 3d 4a aa fa bc 44 8c 7e 3c fa 28 d2 bb
       0.035399806 -0.030598778 0.015536372 -0.006413576
000190 dd f0 33 3e 84 ed 11 be 74 c1 7a 3c a2 6d 16 be
       0.17572351 -0.14250761 0.015304912 -0.14690259
0001a0 81 98 cc 3b 87 f9 04 3d 27 9b c3 bd 3c ec 26 be
       0.006243766 0.03246453 -0.09551077 -0.16301054
0001b0 3e 4f 74 3d 54 43 8d bd 2d 60 06 be f7 61 52 bd
       0.059645884 -0.068976074 -0.13122626 -0.051362958
0001c0 1a 81 45 bd 95 a0 1a 3d 7b f5 a9 bc 03 03 e8 3d
       -0.048218824 0.0377508 -0.020746937 0.113286994
0001d0 d4 22 bb 3d 61 0a fb bd 6d 09 54 bd b7 e1 ac 3d
       0.09137502 -0.12257839 -0.0517668 0.08441489
0001e0 b1 de a2 3d 56 e5 9d 3d a1 71 9b 3d 95 ad b9 bb
       0.07952631 0.07709758 0.07590032 -0.0056664445
0001f0 ad 4b da bc 78 b5 c3 3d d0 15 be 3c 84 84 4d 3c
       -0.026647413 0.09556097 0.02320376 0.012543801
000200 cc 7a b9 bd c1 71 95 bd b7 0e 09 be 2a 16 08 be
       -0.09056625 -0.072970875 -0.1338452 -0.13289705
000210 77 30 2b be 29 9a 9a 3d fd a3 3f 3d 86 27 b3 bd
       -0.16717707 0.07548935 0.04678725 -0.08747773
000220 1d 27 bf 3d a7 ac 8e 3d 32 65 02 be ab 01 97 bc
       0.09333632 0.069665246 -0.12733915 -0.018433413
000230 2a a6 68 3d 74 dd ce 3d 2b 48 df bc df fa 3d 3d
       0.05679909 0.101008326 -0.027256092 0.046381827
000240 a7 8b a6 bd f5 a7 f6 bd a9 22 80 3c aa 72 93 3d
       -0.08132105 -0.12043754 0.015641527 0.07199605
000250 fe cd 1d bd 10 88 03 be 33 03 36 3d 84 8f 97 bd
       -0.038526528 -0.12844872 0.044436645 -0.0740042
000260 00 b3 3e 3d 22 64 b9 3d cc df 57 bd 5e 89 de 3d
       0.046557426 0.09052302 -0.052703664 0.108660445
000270 df 83 b6 3c e7 1d fa 3d 2f c5 92 bd 8f 85 2d 3b
       0.022279678 0.12212735 -0.07166516 0.0026477312
000280 cf a9 5a bb d1 a4 72 bd dc 3f e2 bd aa 9d 0d bd
       -0.0033365374 -0.059239212 -0.110473365 -0.03457419
000290 e6 34 82 3c a2 ad e6 bc 2f d8 ac bd 5c 5e bf bd
       0.015894365 -0.028158966 -0.08439671 -0.093441695
0002a0 af 4d 89 3d 62 59 1c 3b bf 73 8f bd 20 8b b3 3d
       0.0670427 0.0023856987 -0.07004499 0.0876677
0002b0 4d ac e8 bb 50 07 fe bc 06 18 b0 3b 21 37 57 3d
       -0.007100618 -0.031009346 0.0053739576 0.05254281
0002c0 38 a5 db 3d 53 1b 8c 3d cc 71 27 bd ee 33 af 3c
       0.10724872 0.06841149 -0.04088001 0.021387067
0002d0 9e ae d2 3d 56 14 aa bb 44 2c 4a bd cc 58 37 bd
       0.10287212 -0.0051904125 -0.04935862 -0.044762418
0002e0 fe d4 e7 3d 00 d9 72 3b c2 9f 19 3d 4d ce fb 3c
       0.11319922 0.0037055612 0.037505873 0.03073802
0002f0 25 ef c4 3c fd 27 c7 bd 4f c7 91 bd ee 6d d5 bd
       0.024039814 -0.09724424 -0.07118093 -0.10421358
000300 b4 65 12 3e 59 38 15 3d 30 ef a4 bd ec bb c3 3d
       0.14296609 0.03643069 -0.08053434 0.09557328
000310 23 08 7a 3d 87 e9 37 3c e0 2c 67 bd 50 69 b6 3d
       0.061042916 0.011225111 -0.05643928 0.089068055
000320 37 18 60 bb 60 35 f7 3d b9 cf 77 bc 9d b5 ff 3d
       -0.003419412 0.12070727 -0.0151252085 0.12485812
000330 17 19 ac bc 20 2e 09 3e 6b a5 e3 bc a1 ec 68 3d
       -0.021008058 0.13396502 -0.027788838 0.056866292
000340 82 38 d7 3d 5a 8b 5b bd 5b 52 00 be 58 3d 3c 3d
       0.10508825 -0.053599693 -0.12531416 0.04595694
000350 d1 27 d6 3c c7 a1 a6 3d 3a 54 19 3d 2c e1 03 bc
       0.026142033 0.08136325 0.03743384 -0.008049291
000360 c8 eb 60 bc 6e 41 56 bd d8 0b 28 3d ff fc 01 bd
       -0.01372809 -0.052308492 0.04102692 -0.031735417
000370 a7 ef c7 3d dd 80 ca 3c 40 cd d8 3c a2 b0 8c bd
       0.09762507 0.02471965 0.026465058 -0.068696275
000380 4a a0 c8 3d 35 33 4f bd 98 be 28 3e d8 bb 8e bd
       0.09796198 -0.050585944 0.16478956 -0.06969422
000390 24 14 33 be 87 1f f2 bc 70 84 67 3d 7c 0e a4 bd
       -0.17488152 -0.029556049 0.056522787 -0.08010575
0003a0 92 86 99 bd 96 42 8a bd 4c a3 c7 bd 62 c2 ba bc
       -0.074963704 -0.067509815 -0.09747943 -0.022797767
0003b0 c4 b6 20 bd a8 e5 de 3d ce 1a 90 3d 0f 57 9e bc
       -0.0392368 0.10883647 0.070363626 -0.019328622
0003c0 05 d9 c7 3b 96 1a 83 bd e0 38 4c 3d 2e 43 84 3c
       0.006098869 -0.06401555 0.049858928 0.016145315
0003d0 f8 cb 84 bc ba ec e0 bb a1 f1 60 bd e9 12 be bd
       -0.016210541 -0.0068641575 -0.054917935 -0.092809506
0003e0 41 04 7a 3d 96 2f 56 3d d6 88 bc bd 45 c1 46 bd
       0.061039213 0.052291475 -0.09205787 -0.04852416
0003f0 a1 50 91 3d d8 7f c9 bd 7b 5b b7 bd 08 d6 64 bd
       0.07095457 -0.098388374 -0.089529954 -0.05586818

model.encoder.eb_encoder.0.6.bias f4 [64]
000000 7e c2 35 3d 81 61 d1 3c 80 f0 8e 3d 2b ca a2 bd
       0.044374935 0.025559189 0.069794655 -0.07948717
000010 9e a3 82 bd d7 6b 01 be 68 40 90 3d ba 4b b8 3c
       -0.06378864 -0.12638794 0.070435345 0.022497047
000020 d1 a3 16 3c ac 29 15 bd 48 c9 0a 3e 46 29 be bb
       0.00919433 -0.036416695 0.13553345 -0.00580326
000030 29 bc d6 3d 1b a3 ce bc 97 a5 da bd 13 4d 64 bd
       0.104851075 -0.02522426 -0.10676115 -0.055737566
000040 ee 05 f2 bc bf ce 9f 3c b1 39 e2 3d 26 9a a5 3d
       -0.029543843 0.019507764 0.1104616 0.08086042
000050 ee a4 c2 bd 14 eb b0 3c b1 83 d5 3d 3d 74 04 be
       -0.09504114 0.021596469 0.10425509 -0.12934966
000060 4f a1 f4 3b 7d e3 62 bd 5c 35 7c 3b 34 18 b3 3c
       0.0074655185 -0.05539273 0.0038483953 0.021862127
000070 5d 97 a2 bc c6 22 0a 3e 4b e8 04 3e 1e ca 5f 3d
       -0.019847566 0.13489828 0.12979238 0.054636113
000080 f0 b3 8f bd 41 16 f2 bd a4 8a 68 3c 18 26 c5 3d
       -0.07016742 -0.11820651 0.014193211 0.096264064
000090 af ff 8f 3d 8d cc 4d 3d 29 39 73 bd b9 83 e9 bd
       0.0703119 0.050243903 -0.059380684 -0.11402077
0000a0 4b fb 6c 3d c8 e1 27 3d fb 36 4b 3d 9d 73 2f 3d
       0.05785684 0.040986806 0.04961298 0.042834867
0000b0 28 0c 9b bd e6 51 45 3c e4 e4 45 3c 4e a4 82 bd
       -0.07570678 0.012043452 0.012078498 -0.06378995
0000c0 49 a0 cb bc e1 2f 8a bd 80 53 e7 3d 92 a1 cd 3d
       -0.024856703 -0.067474134 0.11295223 0.10040583
0000d0 e0 77 ae 3c 58 a7 45 bd 45 a4 d6 bd 6d 4a 13 bd
       0.021297395 -0.048255295 -0.10480551 -0.03595965
0000e0 9c 89 99 bd 77 67 93 bd c6 6d 80 bc 35 07 e5 3d
       -0.0749695 -0.07197469 -0.015677344 0.11183015
0000f0 a6 d0 cc bd d5 3c ac bd d2 db 6e bd bf d0 a1 bd
       -0.10000734 -0.0841004 -0.058315106 -0.07901143

model.encoder.eb_encoder.1.weight f4 [64]
000000 7b e3 81 3f dc ec 8a 3f 3a 87 87 3f 88 73 85 3f
       1.0147547 1.0853534 1.0588143 1.0425882
000010 1b e2 88 3f 12 25 87 3f fc 35 95 3f 52 d5 78 3f
       1.0694002 1.0558188 1.16571 0.972005
000020 7b ec 84 3f 6d 2b 88 3f 4d 65 89 3f b0 d0 91 3f
       1.0384668 1.0638252 1.073404 1.1391811
000030 4c a3 8d 3f 9c 5a 7b 3f 43 3e 85 3f 64 f9 82 3f
       1.1065459 0.98185134 1.0409626 1.0232358
000040 d5 49 88 3f c8 3b 82 3f e8 55 89 3f 4d 84 8a 3f
       1.0647532 1.0174494 1.0729342 1.0821625
000050 1e cb 88 3f d4 a7 82 3f 1d 8a 8b 3f 46 09 8f 3f
       1.0686986 1.0207467 1.0901524 1.1174705
000060 d9 18 87 3f 6f 96 85 3f fb da 87 3f 8b 6a 8a 3f
       1.0554458 1.0436534 1.0613703 1.0813764
000070 b2 56 83 3f 23 2e 88 3f 3a 75 8b 3f f9 46 8a 3f
       1.0260832 1.063908 1.089515 1.0802909
000080 e4 ba 87 3f d4 11 8a 3f 9f 98 8a 3f 1c 9a 8a 3f
       1.060391 1.0786691 1.0827826 1.082828
000090 d0 84 8b 3f 4b 45 86 3f ab f0 88 3f e6 ea 84 3f
       1.0899906 1.0489897 1.0698446 1.0384185
0000a0 12 e7 84 3f 49 74 85 3f 3b 86 84 3f 06 d4 82 3f
       1.0383017 1.0426112 1.0353464 1.0220954
0000b0 ce 0e 84 3f e8 7d 91 3f 9a 24 85 3f b2 6f 84 3f
       1.0317018 1.1366549 1.0401795 1.0346587
0000c0 89 5d 85 3f fc 11 86 3f dc 8f 86 3f 6a 76 89 3f
       1.041917 1.0474238 1.0512652 1.0739262
0000d0 08 ff 8b 3f 61 20 81 3f be 2c 86 3f ed ca 88 3f
       1.0937204 1.0088006 1.0482404 1.0686928
0000e0 e3 75 87 3f 77 83 87 3f 9f 85 84 3f 8f 19 86 3f
       1.0582851 1.0586995 1.0353278 1.047655
0000f0 b6 9a 82 3f 99 e1 86 3f c1 96 82 3f 1e 7c 8a 3f
       1.0203464 1.0537597 1.0202256 1.0819128

model.encoder.eb_encoder.1.bias f4 [64]
000000 6b 35 58 bb 9f c9 9b 3a 03 6d da ba 23 f7 62 bb
       -0.0032990824 0.0011885649 -0.0016664568 -0.0034632168
000010 88 ae 47 ba 61 f9 a1 bb 3d e8 bd ba 01 60 26 bc
       -0.0007617255 -0.0049430584 -0.0014488768 -0.010154725
000020 73 59 dc bb 32 ae 5e 3c 34 95 49 bb e4 3f 35 3b
       -0.0067245304 0.013591336 -0.0030759098 0.002765649
000030 98 f5 f8 ba aa d7 a2 bb a0 82 f9 3b 2f 24 9a 3b
       -0.0018994091 -0.004969557 0.0076144487 0.0047040205
000040 5b bc 10 3c 5b c4 43 3c ec 27 8f bb 02 f6 02 bc
       0.00883397 0.01194867 -0.0043687727 -0.007993223
000050 70 ab 33 bb f5 c2 1c 3c 48 c5 a1 ba 16 49 10 b9
       -0.0027415417 0.009567966 -0.001234212 -0.00013760137
000060 05 1e 67 bc 89 e4 5f 3c 4f 36 13 3b 32 ae da bb
       -0.014106278 0.013665327 0.002246279 -0.0066735977
000070 43 0d 63 3c d2 7e 35 ba 1c 9a 21 3b 6f 4d 21 3a
       0.013858142 -0.00069235 0.0024658507 0.0006153201
000080 f4 19 05 3c c7 7c 97 bb 5a 37 0c bc 9a 14 66 3b
       0.0081238635 -0.004623029 -0.008558119 0.0035107494
000090 64 8c 70 3b 20 b8 b1 3b 0e 5c af 3c f6 33 4d b9
       0.0036704773 0.0054235607 0.0214062 -0.0001956968
0000a0 21 c2 8a 3b 85 06 c6 3a 75 dc a5 bc 7b 9d 52 bc
       0.0042345678 0.0015108144 -0.020246724 -0.012854929
0000b0 41 03 0d 3c 82 5c 7e bb f6 f6 44 bc bd 9e fd bb
       0.008606733 -0.0038812463 -0.012021771 -0.0077398703
0000c0 11 b9 02 bc 38 22 b7 3b 97 27 1b bc 73 b3 e4 3a
       -0.007978694 0.005588796 -0.009469888 0.00174485
0000d0 3b bd e1 bb 0e 4d 20 3c fa cf d3 bb a8 54 3e bb
       -0.006889013 0.009783996 -0.0064640017 -0.0029042158
0000e0 18 a2 12 3b e5 6e 30 bc df 83 5d bb 4f 7d 34 bc
       0.0022374447 -0.010768627 -0.0033800525 -0.011016204
0000f0 36 b6 24 bc a8 71 e2 b9 4c e1 0c 3c 7a 0e f9 ba
       -0.010053208 -0.0004319076 0.008598637 -0.0019001507

model.encoder.nb_encoder.0.0.weight f4 [64, 6]
000000 cd ff f1 be 3d 74 81 3d 6b d0 8d 3e a4 86 03 bf
       -0.47265473 0.06320999 0.27698073 -0.5137732
000010 7e 56 7b 3d 40 70 ab bc e6 d1 2a be fa 95 b6 be
       0.061361782 -0.020927548 -0.16681632 -0.35661298
000020 17 9b 8f 3d 51 57 71 3e 5e af cd be 34 f3 3b be
       0.07012003 0.23568465 -0.40172857 -0.18354493
000030 78 14 bd 3e 96 7e 8e 3e a0 33 34 3e 0b 1d 9f be
       0.3692968 0.27830952 0.17597818 -0.31076846
000040 d8 d0 1c 3d 6b 6a 82 be c7 2b 14 3e 0d 10 8f 3e
       0.038285106 -0.25471815 0.14469825 0.27941933
000050 12 f5 1a bd 70 08 cd be 68 20 b0 be e4 99 38 3d
       -0.037831374 -0.400455 -0.34399724 0.045068637
000060 40 a1 85 3e 5a 19 a2 3d 56 80 8d be 15 fa e3 be
       0.26099586 0.07914992 -0.27636975 -0.44526735
000070 0d 97 5b be c4 32 1b 3c 7d ab 8a bd 2e 23 f0 3d
       -0.2144434 0.009472553 -0.0677099 0.1172546
000080 35 cb c8 3e fd 75 75 bc a4 66 90 be 92 0e c2 3e
       0.39217535 -0.014981744 -0.2820331 0.3790174
000090 c6 f3 50 be 94 b1 96 3e 90 38 29 3e f5 39 ca 3d
       -0.20405492 0.29432356 0.16525483 0.09874336
0000a0 d3 f9 23 3e e5 59 a6 bd 07 29 0c 3e af 9a 95 3e
       0.16013269 -0.08122615 0.13687526 0.29219577
0000b0 d5 a6 8e 3e ee ea a5 3e 2e 8d be bd f5 b8 38 bb
       0.27861658 0.324058 -0.09304272 -0.0028186415
0000c0 13 dd 5b 3e 4a f7 c6 be 8f 1f fe 3d 30 f2 c8 be
       0.21471052 -0.38860542 0.12408363 -0.39247274
0000d0 de ed c1 3e ea aa 30 bf 85 17 15 3e b4 1b 4b be
       0.3787679 -0.69010794 0.14559753 -0.19834787
0000e0 a8 8c 81 be 5b 51 e8 3d 2c 1a 95 3e 95 28 be be
       -0.25302625 0.11343642 0.2912153 -0.37140337
0000f0 2c e1 9f 3c e7 52 8c be 6a 91 97 be 50 46 6d be
       0.01951655 -0.27407 -0.2960313 -0.23171353
000100 86 cb 99 3d 5d d8 99 bd f5 ae 0e 3e f4 76 25 3e
       0.07509522 -0.07511971 0.13933928 0.16158658
000110 2d 3d de bd 53 af 2b 3e b0 66 1a 3e 08 c7 fb be
       -0.10851512 0.167661 0.15078235 -0.49175286
000120 07 69 99 be d8 f6 84 3d 59 83 93 be f3 16 84 be
       -0.29962942 0.06492394 -0.28811148 -0.2579876
000130 a7 20 69 be 2c 37 06 3e ed e2 e1 3e 2a 48 a0 3e
       -0.22766362 0.13106984 0.44118443 0.31305057
000140 71 38 01 bf 64 1c c0 3e 28 fd 95 3b a7 98 b0 3e
       -0.5047675 0.3752166 0.0045772977 0.34491464
000150 c8 5c 00 3f d6 be 53 be 1a 5c f9 bd ac 52 c6 bd
       0.5014157 -0.20678267 -0.1217577 -0.09683737
000160 d5 14 c3 3e 82 a7 be be 86 5a 89 3e 5d 96 87 be
       0.3810183 -0.37237173 0.26826876 -0.26481906
000170 1f e6 3c 3e 8d 0a 1f bf 97 3e c7 bc 09 5f 3a be
       0.18447159 -0.62125474 -0.024321837 -0.18200316
000180 4d f2 a8 be e0 dc ca be 93 c5 72 be af 39 1e bf
       -0.3299736 -0.3962164 -0.23708181 -0.6180677
000190 19 da bf be eb 68 17 3e d8 2e 27 3d 78 ac 0e 3e
       -0.37471083 0.14786117 0.040816158 0.13932979
0001a0 ef 29 c2 bd 73 9f 61 bd b2 4e 90 3e 7d b0 e8 be
       -0.094806544 -0.055083703 0.2818504 -0.4544715
0001b0 eb 82 0f bf ff 40 bb 3e 00 dc d9 bc ee 01 7a be
       -0.5605914 0.36573026 -0.026594162 -0.24414799
0001c0 57 44 37 3e cf 04 dc bd b9 fa c9 3e 8f 7b 03 3d
       0.17897163 -0.10743105 0.394491 0.032100257
0001d0 c6 77 ad bd 6f 34 15 3f c1 ad 97 3d 49 5d 6c be
       -0.084701106 0.5828313 0.07406188 -0.2308246
0001e0 6a 5b 9f 3e 67 01 8f 3e 9e 01 b5 be c3 3d a9 be
       0.3112443 0.27930757 -0.35352796 -0.33054933
0001f0 96 bf 47 be 49 54 2a bd e2 76 39 3e f5 aa 7e 3d
       -0.19506678 -0.041584287 0.18111756 0.062174756
000200 49 84 8d be f9 a1 9e be ff 5d 05 be 97 7e 61 be
       -0.27639988 -0.3098295 -0.13024138 -0.22020946
000210 43 5b 52 be 59 f6 d4 bd 4d 8c a2 3e ea 94 6f 3e
       -0.20542626 -0.103985496 0.31747666 0.2339665
000220 8b 13 ae bd cf 84 ac be 61 3a b9 3e cf 80 1f 3e
       -0.08499821 -0.33695075 0.36177352 0.1557648
000230 88 10 55 be e8 09 d3 bb 04 e3 4e be 3a f8 61 3d
       -0.20807087 -0.00644039 -0.20203787 0.055168368
000240 80 9d 30 bc b3 74 27 3e e3 f0 21 be 07 1b 99 bd
       -0.010779738 0.16353111 -0.15814547 -0.07475858
000250 5b e7 46 be 35 3c 28 be 62 28 4b be c6 18 7b 3e
       -0.19424193 -0.16429217 -0.19839624 0.24521169
000260 98 56 87 be db 93 ef bd 0d 44 c6 be a1 e9 c1 3e
       -0.26433253 -0.11698123 -0.38723794 0.37873557
000270 a2 e0 92 bd 1e 7c 3b bc ef 69 0a 3d 5f 02 d9 3d
       -0.071717516 -0.011443166 0.033792432 0.105961554
000280 ae db bb 3e de 28 83 3e 03 5b 2d 3e d5 71 c2 be
       0.3669104 0.25617117 0.1692925 -0.37977472
000290 00 32 98 3e 91 87 85 3e 30 6d a2 3e e7 05 f4 bd
       0.29725647 0.2607999 0.31723928 -0.11915188
0002a0 13 45 c7 3e 90 8d d4 bc e1 76 eb 3e 9f fa 18 be
       0.38919887 -0.025946409 0.45989135 -0.14939354
0002b0 a3 5d 82 be 1e 2d 25 3e a2 01 48 3d a7 fd 51 be
       -0.25462064 0.16130492 0.048829682 -0.20506917
0002c0 d8 93 a3 be e4 2e 34 3e dd f7 44 3e 09 25 49 3e
       -0.31948733 0.17596012 0.19235177 0.19643034
0002d0 c5 3c bc 3d bb 2d a2 3d c9 bb ea bd a8 45 fb 3c
       0.09191278 0.07918879 -0.114615984 0.030672863
0002e0 7a a7 ca 3e f7 83 9d be a3 f2 09 3d 7e 74 da be
       0.395809 -0.30764744 0.033678662 -0.42667
0002f0 d4 16 84 3e c0 9e 4b 3e a6 32 ac 3e 1f b2 3d 3d
       0.25798666 0.19884777 0.33632392 0.046312448
000300 90 f1 bc 3e 53 06 e5 be b6 f0 d8 3e a5 8d d3 be
       0.36903048 -0.44731387 0.42371148 -0.41319004
000310 42 0c 10 be 8e 14 ce bd d1 7d 5b be d9 4b c4 3d
       -0.14067176 -0.10062514 -0.21434714 0.09584779
000320 59 e6 a8 bb da c8 ad 3e c2 0b ca 3c f4 bf 33 be
       -0.0051544127 0.339423 0.02466381 -0.17553693
000330 21 ca 17 bf 5f 1a d3 3c 19 91 74 be e7 4d 01 3f
       -0.592928 0.02576941 -0.23883475 0.50509495
000340 36 24 a7 3b 75 fa 8e 3d 20 ce 6b be 72 d5 bf 3e
       0.005100752 0.06981365 -0.23027849 0.37467533
000350 fa 45 3f be 79 a1 8d 3e 58 de 32 3e 99 d7 3f bf
       -0.18679038 0.27662256 0.1746763 -0.7493835
000360 f0 d4 98 bd ca bb 32 3e 6c 04 b3 3e 65 9f 50 3e
       -0.074624896 0.17454448 0.3496431 0.20373304
000370 92 32 27 3e 90 47 02 bd f7 fc 8a be a5 5f 92 be
       0.16327885 -0.03180653 -0.27146122 -0.28588596
000380 5a fb fe 3e 10 12 38 3e e8 44 4e 3e 91 ae f1 be
       0.4980114 0.1797564 0.20143473 -0.47203496
000390 c1 b8 c1 3e ac 4f df bd 30 48 30 be 5c b1 94 3e
       0.3783627 -0.10903868 -0.17215037 0.29041564
0003a0 6c 19 c6 3b 2c bf 8c be 22 e9 36 3e d8 c4 96 3e
       0.006045511 -0.27489603 0.1786237 0.29447055
0003b0 05 b6 92 3d b3 2d 99 be 8b e3 a3 be e2 49 80 3d
       0.07163624 -0.29917678 -0.3200954 0.06264092
0003c0 9f 20 a4 be 6f 97 25 be ec 26 b3 3d 5b 95 b9 be
       -0.32056138 -0.16171049 0.08747658 -0.36246762
0003d0 a2 56 aa bc 39 da 6d be c7 d3 82 3e 4f 3c 84 bd
       -0.020793263 -0.23227777 0.25552198 -0.064568155
0003e0 70 b4 82 3b 93 fc cf be 67 83 87 be 3a ec a3 be
       0.003988795 -0.40622386 -0.2646744 -0.32016164
0003f0 1c e9 b9 be f1 d1 97 3e 1a f7 7c be 56 2e 09 3e
       -0.3631066 0.2965236 -0.24703637 0.13396582

model.encoder.nb_encoder.0.0.bias f4 [64]
000000 4a 3b 9d 3e d9 3f b4 be a0 5e b0 be 52 aa 2e 3e
       0.30709296 -0.35204962 -0.34447193 0.1705716
000010 2c e9 24 3d fd 75 82 be 51 96 b6 3c 67 2c 71 3c
       0.040261433 -0.25480643 0.022288473 0.014720059
000020 7f 4c 20 bd d1 84 89 be f1 2e 00 3e ae cb 20 be
       -0.039135452 -0.26859143 0.12517907 -0.15702698
000030 1a d6 59 3e d6 90 2b bd e3 d7 ad 3e ad 43 26 3b
       0.2127308 -0.041886173 0.3395377 0.0025369928
000040 a7 d5 16 3e f9 37 26 be 36 56 07 be fa cd c7 3e
       0.1472994 -0.1623229 -0.1321648 0.39024335
000050 0b 4c 1f be 31 33 62 be b1 90 7a 3d 3e a0 3d 3e
       -0.15556352 -0.2208984 0.061173145 0.18518159
000060 68 e0 40 be ef 9e 3c be cb d0 a5 be 15 95 98 be
       -0.18835604 -0.18420003 -0.3238586 -0.2980124
000070 7c 74 5c 3c f5 f5 79 be 1a e1 74 be c0 e5 6d be
       0.013455506 -0.24410231 -0.23913994 -0.23232174
000080 cb 52 88 3e cb 8e cd bd 36 b4 a8 bb 42 f6 b4 3e
       0.26625666 -0.10037001 -0.005148436 0.3534413
000090 58 15 e3 bd 81 65 5d 3e 28 8b ad be 4e a2 94 3e
       -0.11088055 0.21620752 -0.3389523 0.2903008
0000a0 55 27 7b be d9 e7 11 be 81 7f c6 be 34 37 08 3d
       -0.24526723 -0.14248599 -0.38769153 0.03325577
0000b0 7a 5b 99 3e 75 eb b7 be 06 70 7f 3e 29 48 af 3d
       0.29952604 -0.35921827 0.24945077 0.08558685
0000c0 d3 f6 bc 3e 9a e5 97 3e 09 d4 77 bd 1e 60 8b bc
       0.36907062 0.2966736 -0.060504947 -0.017013606
0000d0 ad 5f d3 3d 33 7a 5c be cb 4c d7 bd 98 5f 1a be
       0.10320983 -0.2153099 -0.10512694 -0.15075529
0000e0 cf cd f3 3c f3 d3 ca 3d 86 75 8e be 95 cf 06 3d
       0.029761223 0.09903707 -0.27824038 0.03291281
0000f0 19 6a 99 be 1c 26 8d bd 74 fe 0e 3e 03 fd d9 3d
       -0.2996376 -0.068920344 0.13964254 0.10643961
