pinn1/checkpoint/simulator.pth (torch, 489605 bytes, 187 tensors)

model.encoder.eb_encoder.0.0.weight f4 [32, 10]
00000000: 268b a93d 6e5b 18bd 26e1 36be 4a82 1a3e
00000010: 873d d93a 2c0f b93e ee32 843d 6146 2dbb
00000020: 6aec 0e3d 58da 08be 219a 5e3e ad92 373d
00000030: 8550 143e 60c8 333d 0f47 a63e 01da 2abd
00000040: ccd8 a33e 3bd5 6dbe dfc8 213e 94b3 043f
00000050: d75f 1ebe 90ab 063e c0ef fc3d a39a 453d
00000060: b771 443e 978e 673d 7635 293d 04ca 523e
00000070: 7ed3 163e ca9a a7be 349b d83e fd7b 40bd
00000080: 1393 973e 3d5a 683e 0e24 e33d f99a ae3e
00000090: d9d8 843c f6a4 48be e8ca 1b3e 6077 7a3d
000000a0: f858 003e 73ef 55be 688a 713e d4f0 0f3e
000000b0: 6552 82be e640 94be 73f3 f73c 4ae8 503d
000000c0: 1019 e7bd e4d2 4b3e 3e3f 573e 2f22 343e
000000d0: 3d26 2cbe 38df 0b3e 5e27 abbd 1ad0 6e3d
000000e0: d0b9 1cbe 8ddc 5fbe 1ffa a8be 0a5e 0d3d
000000f0: 5611 43bc d6ed c43d 4a43 dbbd b367 7b3e
00000100: 8739 c4bc 14f7 7d3e ecc0 2fbd f8ba a43d
00000110: 7f5c 2f3e 90f7 bd3d 4833 9e3d 2aab 763e
00000120: 62e4 25be 5b4a 863e a573 573e f3c1 463c
00000130: 735a a73d b16a 7bbd 18a4 2dbe fcb5 7c3e
00000140: 7975 f93d be84 bebd fb1b 2d3e 7ce4 96bd
00000150: b8d4 bc3e 0810 32be 0bfc 563e d363 4abe
00000160: bfd5 babe e2ce 843e 69a9 773d e46b e73b
00000170: d1c6 093e eb50 703e 82f0 523e b716 a73e
00000180: 34d5 253e 90d2 503e 58ac 5abe 780a 6d3d
00000190: c50f 85bd 5ff9 533e 49f5 58bd b020 77bd
000001a0: 89f5 863d 5549 993e ec50 78be 626e 8bbc
000001b0: ff49 4bbe 02b9 293e d82d 793e f119 153e
000001c0: 85c7 01be c24d 74be 7ab9 393e 3287 25bd
000001d0: 4819 743e f6bc 833e e2d1 9cbe c56d 813e
000001e0: 9ed3 893e d206 7abd 67e5 a93b d0a8 93be
000001f0: ee3c 13be 010d 203e 2279 fcbd 9e9d 05be
00000200: 9c6f 95be 3e54 b93c fb67 463e 9efe 6f3e
00000210: 7bed 22bd 2a6b 91be c321 b83d ad54 f7bd
00000220: 0acb a7bc 1573 963e b2f1 51be f0fe b8bd
00000230: 722d 373e 461c 92be 39ea 2bbe 87cf 59bd
00000240: b968 383e d82d cebd dbc3 0b3d ce8d 9d3e
00000250: 2a42 b13e 3d84 963c fda9 6abd 249c 213d
00000260: c4d6 a6bc b584 d93d 40c2 93be 8c80 383e
00000270: 0c16 76be 4f69 363d 415e 1b3c 50fd 93be
00000280: 1187 c8bd ee53 0b3e dd1d 5ebe c58d 743e
00000290: d668 303e 9e66 0d3e 1970 06be e6e4 593e
000002a0: 307f d0be 0d52 8ebe 70b4 ba3e 3631 c2bd
000002b0: 6a64 29be fb37 87be 565c 29be 3639 32be
000002c0: 3f72 44bd 5ddb 82bd 58d7 86be c68f 3ebc
000002d0: 1f15 e03c c008 103e c8c6 0d3d afda 4ebe
000002e0: c8a3 ef3d 683e 38be db69 a0be 0790 163e
000002f0: 6906 afbe c84d e8bd 3b3e 903d 525c 693e
00000300: d622 373e ba91 77be 5816 1ebe 9e05 e23c
00000310: 2922 41bd 576b ccbd c344 2fbe 4d10 bfbe
00000320: 4a52 2a3e 34d0 b43c 10dd a93d 0dbd acbe
00000330: f38a ef3d 659b d2be 49ca 96bc b74c 94be
00000340: d7a7 31bd 0cb7 513e 3820 543e 7de8 623e
00000350: fa45 d7bd 8de4 903d cde9 e23c 3bdd adbd
00000360: 31f7 67be 7645 073e 6d30 9bbe c4c7 92be
00000370: cc93 66be e071 d6bb 4eaf 1c3e 1589 a1bc
00000380: b368 97be 9b31 383d 2831 5fbe 8ff2 dd39
00000390: ad9e 7bbe 4346 5a3d 2c06 28be 6dce 02be
000003a0: 6b58 41be 5acd fbbd f16a 6d3e 27f9 a3be
000003b0: 05fa 843e 9e34 a53d e9aa 423e d26a efbd
000003c0: f67b 6cbe 5c9a 1c3e af7d bc3d 18f8 293d
000003d0: 882e 6b3e 034e 903e 9cb1 20be 5cc0 893d
000003e0: 98ff 213d 0d50 043e 189c 013e 21ee 873c
000003f0: f963 8fbc 72ba 22be 1b04 a2be 5c29 6dbc
0.082784936 -0.03719657 -0.17859325 0.15088764 0.0016574123 0.36144388 0.064550266 -0.0026439654
0.03489343 -0.13364542 0.21738483 0.044817615 0.14483841 0.043892264 0.32476088 -0.04171181
0.3200134 -0.23225872 0.15799282 0.51836514 -0.15466247 0.13151383 0.12350416 0.048243176
0.19184004 0.05653247 0.04131075 0.20584875 0.14729115 -0.32735282 0.4230591 -0.046993244
0.29604396 0.22690673 0.11090861 0.3410261 0.016216682 -0.19594178 0.15214121 0.061149
0.12533939 -0.20892124 0.23587954 0.14056712 -0.25453487 -0.28955764 0.030267453 0.051002778
-0.11284077 0.19904667 0.21020219 0.17591165 -0.16811462 0.1365937 -0.08357118 0.05830393
-0.15305257 -0.21861477 -0.33003327 0.03451351 -0.011905989 0.09615676 -0.10706194 0.24551277
-0.023953212 0.24801284 -0.042908594 0.08043474 0.17125128 0.092757344 0.07724625 0.24088731
-0.16200402 0.26228604 0.21040209 0.012131202 0.08171549 -0.061381046 -0.16957128 0.24678797
0.12180609 -0.09302662 0.16905205 -0.07367799 0.36881042 -0.17388928 0.20994584 -0.19764642
-0.364912 0.2593909 0.060464296 0.007062422 0.13454749 0.23468368 0.20599559 0.32634518
0.16194612 0.20392823 -0.21354806 0.057871312 -0.064971484 0.20700596 -0.052968297 -0.060333908
0.06589801 0.2993876 -0.24249619 -0.017020408 -0.19852446 0.16574481 0.24333894 0.14560677
-0.12673767 -0.23857787 0.1813716 -0.040412135 0.23837769 0.25730103 -0.30628878 0.2527906
0.26919264 -0.06104166 0.0051848176 -0.2883973 -0.14378712 0.1562996 -0.12327792 -0.13048407
-0.29186714 0.022623178 0.19375603 0.23436972 -0.03977726 -0.28402072 0.089908145 -0.120766975
-0.020482559 0.29384676 -0.20502356 -0.090330005 0.1788843 -0.28537196 -0.16788568 -0.05317643
0.18008699 -0.10067338 0.03412233 0.3077225 0.34620792 0.018373603 -0.05729102 0.039455548
-0.02036608 0.10621015 -0.28859138 0.18017787 -0.24031848 0.044534024 0.009482921 -0.289042
-0.09791387 0.13606235 -0.2169108 0.23882206 0.17227492 0.13808677 -0.131287 0.21278724
-0.40722036 -0.27796975 0.36465788 -0.094820425 -0.16542211 -0.26409897 -0.1653913 -0.17404637
-0.047960516 -0.063894965 -0.2633617 -0.011630958 0.027353821 0.14065838 0.0346134 -0.20200609
0.11701161 -0.17992556 -0.3133076 0.1470338 -0.34184578 -0.113429606 0.070431195 0.22789124
0.17884383 -0.24176684 -0.15438211 0.02759057 -0.04715172 -0.09981411 -0.17116074 -0.37317124
0.16632953 0.022071935 0.082941175 -0.33737984 0.11696424 -0.41134182 -0.018407004 -0.2896478
-0.043372955 0.20479983 0.20715415 0.22159 -0.10511394 0.070748426 0.027699376 -0.08489462
-0.2265289 0.13210091 -0.30310383 -0.28668034 -0.22517318 -0.0065443367 0.15301248 -0.019718686
-0.29572067 0.044969182 -0.21796095 0.00042333125 -0.24572249 0.053289663 -0.16408604 -0.12774058
-0.18881385 -0.12295027 0.23185326 -0.32026026 0.25972 0.080666766 0.1901051 -0.11690296
-0.23094162 0.15293258 0.0920366 0.041496366 0.22966969 0.28184518 -0.15692753 0.06726143
0.039550394 0.12921162 0.12657201 0.01659304 -0.017503725 -0.15891436 -0.31643757 -0.014475193

model.encoder.eb_encoder.0.0.bias f4 [32]
00000000: 091d 84be 6f33 ce3e e0b4 953e 1ef2 b0bd
00000010: a63b fc3d 423a 753e d5ec 383d 9fad bd3e
00000020: 9837 9d3e cf87 813e e00e 933d 6561 83be
00000030: d93c a63e 2629 443c 9c0e 15ba 255c 6c3e
00000040: 3bcf 00bd 3390 b63e 11b2 13be 26ee 5f3e
00000050: 3505 0c3d 150a 6c3d 6f03 68be f87c 8dbe
00000060: 48e3 663e 599a b63e 6f0e fd3c cd4e 55bd
00000070: e434 12be 017b 45bb ba6a febd a23c ab3d
-0.25803402 0.40273616 0.2923956 -0.0863993 0.123160645 0.23948005 0.045147736 0.37046525
0.30706477 0.25298926 0.071805716 -0.25660244 0.32468298 0.011972701 -0.0005686076 0.23082025
-0.03144763 0.3565689 -0.14423396 0.2186819 0.034184653 0.057626802 -0.2265756 -0.27634406
0.22547638 0.35664633 0.030890672 -0.052077103 -0.14277989 -0.003013313 -0.124227 0.08361174

model.encoder.eb_encoder.0.2.weight f4 [32, 32]
00000000: 314e 10bb 0b0c 563e 2572 e8bc ad66 183d
00000010: 87c8 4dbd 46ba 6b3e c9d7 ca3d 77dd 0b3e
00000020: f606 693e d05d a5bd 2682 d7bd 28bb 42bb
00000030: 3d83 2c3e 4b18 cbbd ec8d 11bd 485f 943e
00000040: 1b8e 07be 6158 363d bbd7 14bd 37d4 343d
00000050: 338a 8d3d 26b8 f6bd 1e50 e0bd da15 083e
00000060: cf09 bd3d 384e a7bd 809b 053e 25f8 443e
00000070: c434 9ebc edd5 8fbd 023e ee3d cd93 e23d
00000080: 32c5 f33d f667 823c b170 b83d bb3d 233d
00000090: aeeb 52bc a267 c4bd 6823 7a3e 5dea 003e
000000a0: d380 d63b 9fce 0a3e 1054 e03d 56d9 e9bd
000000b0: 2e54 943c 17d5 ccbd 9ce8 bd3b 437f 82bd
000000c0: 2130 02be 307c 43bd 790c ec3d 63b3 8c3c
000000d0: 16b9 3a3e 570c 23be 71f9 a63e 3e13 503d
000000e0: b046 1ebd 288b 17be c0b2 4bbe f12b 033e
000000f0: 2472 1f3e 47f0 93bb 56c3 53be 918c 74be
00000100: a41b 8d3c 8050 0a3e 5d2a d5bd 29ab a93d
00000110: eeeb fe3c 6b25 803c 0113 d33d c122 843d
00000120: 1d45 2bbb 58a0 103c c29b 8fbc ed43 223e
00000130: 712c ba3c aa94 0abe 0365 08be 1e19 923d
00000140: a54b 0e3e 62d6 e73c 55e1 86bc ec70 38bd
00000150: fead 5c3e 526d 43bd 6d92 9bbd 7934 17be
00000160: 6c3c 663e 3b33 30be 6711 8a3e d7b0 48be
00000170: 2e32 1abe a6f2 393c 012f f63b 821f a23e
00000180: 27d1 56bd 18ca 7ebd 3542 0c3e 4d18 d8bd
00000190: b715 e2bc c06a 7fbd d1cb 163e ad96 5cbc
000001a0: 370d c53d 1c89 5abd 5109 1a3e 10a2 a4bd
000001b0: f57c c3bd 325e babd 06b6 2c3e 4427 dd3d
000001c0: 58b7 303e 4c9f a53d a56b e5bd 70cc d93d
000001d0: 39d7 98be 2214 19bd fae8 0f3e 8b8f a83c
000001e0: ea65 aabd 9538 ea3b 8d9e 3cbe bd4c ef3d
000001f0: 5c9c fe3c ba02 13bd 6c26 b03d fb02 7dbd
00000200: 4789 103d 55d5 b6bd 3bcb 1b3d 5ac5 aebd
00000210: bcf1 a3bc 6b53 2abe fde5 493d 106d 093c
00000220: f0d1 693d a5f7 dc3d d84a 9c3c 5bd0 fabc
00000230: e272 d2bb 6c4f f5bd e8da ab3d 20c2 0f3e
00000240: 9254 0e3e e3d0 cdbd 4d63 39be 9da8 263e
00000250: d939 573d 843f e73d 7502 103e 973a 84bd
00000260: 1ff9 d43c 348d 25be 1736 05be 4417 0d3e
00000270: 1566 e5bc 05fe f73d 5723 a53c ff72 36be
00000280: 364f df3c eb31 51bd 4160 283e 0ead 2cbe
00000290: 4d37 1c3d 4e56 8c3c c5d7 edbd ab0a 3abe
000002a0: e9a8 8ebc ea97 2cbd 5f97 b63d e0d6 153e
000002b0: 70be f8bd b558 eebd 0584 00be 0eef c43c
000002c0: d521 073e 3898 b0bc 90b1 593d 6e52 3ebc
000002d0: 40b5 b9bd c8c4 c8bd 858e 82bd f97a 973d
000002e0: f3e3 843d 180e 6c3d 9839 183d 2e82 67bd
000002f0: d081 3cbe b2ec bf3d 2ef1 f93d fc14 163d
00000300: 50ff 04bd 720e 2dbc bf3c ac3d 3bda 94bb
00000310: e5c6 103e e045 cd3d 5464 153e 5371 fcbd
00000320: 2820 5cbd e66f 203c b62e 1c3e 1e23 aa3d
00000330: fbdc 9b3b ebf8 1abe 2e37 0d3e c7ae 4d3e
00000340: 869f ce3d 330f e8bd 227c b9bd 95fd 983d
00000350: 6b95 67bd 7106 533d 27e2 853d 0619 2cbd
00000360: 0618 f03d f528 5bbd e989 6cbd 9e68 553d
00000370: 7e4d f53d 1a7f 21be 15ed 72bd 40a0 883d
00000380: 9051 5b3e f971 1ebe 6916 103e 50f9 9dbd
00000390: 4248 ea3d 7c11 653d c5a6 02bd 9bb7 febc
000003a0: c29d 77bc 04ca f9bd ceb7 e6bd c5c8 9ebd
000003b0: ae0e dc3d 7682 a93d 1491 763d f310 22be
000003c0: 435f 013e 04cb 60bd 68a8 d93d ce35 b4bc
000003d0: 0812 4cbd 6edc 903d e54d 54be 8477 fabd
000003e0: ce4e 07be ee62 58be a334 863d 45f6 6a3d
000003f0: 60b6 183d d5e9 eb3d 6945 cf3e fdc5 10be
-0.0022019262 0.20903032 -0.02837474 0.037207294 -0.050240066 0.23020276 0.09904439 0.13658701
0.22756562 -0.08074534 -0.10522871 -0.0029713605 0.16846938 -0.09916743 -0.035535738 0.28978944
-0.13237803 0.04451788 -0.03633855 0.044147696 0.06911125 -0.12046842 -0.10952781 0.13289586
0.092303865 -0.08169216 0.130476 0.19235285 -0.01931227 -0.07023225 0.11632921 0.11063347
0.119028464 0.015918713 0.09005869 0.039853793 -0.012873573 -0.09590079 0.24427569 0.12589402
0.0065461188 0.13555382 0.10953534 -0.11418407 0.018106546 -0.10001581 0.0057955515 -0.063719295
-0.12713672 -0.047725856 0.115258165 0.017175382 0.18234667 -0.15922676 0.32612184 0.0507996
-0.03864163 -0.14799178 -0.19892406 0.12809731 0.15570885 -0.0045147273 -0.20679983 -0.23881747
0.017225094 0.13507271 -0.10408471 0.08284599 0.03111836 0.015642842 0.10306359 0.06451941
-0.0026133724 0.008827291 -0.017530326 0.15846224 0.02272627 -0.13533273 -0.13319783 0.07133697
0.13896044 0.028300468 -0.016464869 -0.045029566 0.21550748 -0.047711678 -0.07596288 -0.1476611
0.22483987 -0.17207043 0.26966402 -0.19598709 -0.15058205 0.011349356 0.0075129275 0.31664664
-0.052445557 -0.06220445 0.13697131 -0.1055151 -0.027598245 -0.062357664 0.14726187 -0.013463658
0.09621661 -0.053353414 0.15042616 -0.080387235 -0.09545318 -0.090999976 0.16866311 0.10798505
0.1725744 0.08087024 -0.11202172 0.106346965 -0.29851702 -0.037372716 0.14053717 0.02057626
-0.0832022 0.0071478584 -0.18419857 0.116845585 0.031080417 -0.035891272 0.086010784 -0.06177042
0.035287168 -0.089274086 0.038035613 -0.085337356 -0.020012729 -0.16633384 0.0492916 0.008387819
0.057084978 0.10789422 0.019078657 -0.03061693 -0.0064223865 -0.11978039 0.083913624 0.14038897
0.13899449 -0.100496076 -0.18104286 0.16275258 0.052545402 0.112914115 0.14063437 -0.064564876
0.025997696 -0.16167146 -0.13008915 0.13778406 -0.028002778 0.12108997 0.020158453 -0.17817305
0.02725945 -0.051072996 0.16442968 -0.1686289 0.038138676 0.017130997 -0.116134204 -0.18168132
-0.017414527 -0.042137064 0.089155905 0.1463275 -0.12145698 -0.11638013 -0.12550361 0.024039771
0.131965 -0.021556959 0.053147852 -0.011616332 -0.09067774 -0.09803158 -0.0637484 0.07396502
0.0648879 0.05763063 0.0371643 -0.056520633 -0.18408895 0.09371318 0.122042045 0.036641106
-0.032470047 -0.010562526 0.08410024 -0.0045426167 0.14138372 0.10023093 0.14589053 -0.123263024
-0.053741604 0.009792304 0.15252194 0.08307479 0.0047565675 -0.15134017 0.1379058 0.20086204
0.100890204 -0.11331024 -0.090568796 0.07470242 -0.05653898 0.051519815 0.06537276 -0.04201605
0.11723332 -0.053505857 -0.05774871 0.052101724 0.11977671 -0.15771142 -0.05930813 0.0667119
0.21417832 -0.15473165 0.14071049 -0.07713568 0.11439563 0.055924878 -0.031897325 -0.03109341
-0.015113296 -0.121967345 -0.11265527 -0.077531375 0.107449874 0.082768366 0.06019695 -0.15826778
0.12633996 -0.05488111 0.10627824 -0.021998312 -0.049821883 0.070732936 -0.2073284 -0.12229827
-0.13213655 -0.21131489 0.065530084 0.057363767 0.0372833 0.11519209 0.40482643 -0.14138027

model.encoder.eb_encoder.0.2.bias f4 [32]
00000000: 1a4b a43e 1557 0b3c 4a96 093e 209d f13d
00000010: 7439 ac3d 0817 00be 1ba5 fc3d b39f 2bbe
00000020: 2e19 86bc a3bf 0ebe 5013 1e3e 67c6 dc3c
00000030: 8658 b2bd a0d4 d8bd 4676 22bd bb76 c93d
00000040: 06da 11be e573 933c 0fa1 ce3d 295f f33d
00000050: 6c71 dcbc 7371 143e b914 1e3e 024f e73c
00000060: 8869 433e 0582 89bd 33e6 b2bd 370a 373e
00000070: c61c 133e 16e2 0a3e 125e 67bc 5664 fcbd
0.32088548 0.008504649 0.13436237 0.11797547 0.08409396 -0.12508786 0.12336179 -0.16760139
-0.016369428 -0.13940291 0.15437055 0.026950074 -0.08708291 -0.1058743 -0.039663576 0.09837099
-0.14243326 0.017999599 0.10089313 0.11883385 -0.026909553 0.14496402 0.15437593 0.028235916
0.19083226 -0.067142524 -0.08735313 0.1787499 0.14366445 0.13562807 -0.014121549 -0.12323825

model.encoder.eb_encoder.0.4.weight f4 [32, 32]
00000000: 9190 66bd 011e 14be 4ef5 063d 5a3b 01be
00000010: 8f39 f2bd 7ec8 56be 06a2 b63d 92cc 4b3d
00000020: d4d2 b3bd 9d6f 103d e2c6 db3c 3be5 1ebc
00000030: 7f60 a03d c4db e93d 5389 0c3e a04f 92bd
00000040: 8db2 1cbe b1ad 003e 265a 003e 6102 4e3e
00000050: db23 62bc 380b 253d b46f 8f3d c769 b53d
00000060: e9bd c4bd 69f4 343b 7d8a db3d 3e0d 173d
00000070: 055d 06be ca19 2bbe 2a0c a3bc 554e 983d
00000080: c794 35be 0d3d 47be 56ec 37bd 82ea d83d
00000090: 154d d1bd 6fc7 e4bd 1752 f13d 5e87 1b3c
000000a0: 86cf 1c3e d54b 75bd 5e30 5d3d 8c1d 29bd
000000b0: 4ad2 ff3c afe8 88bd 7d38 59bd f753 303e
000000c0: 0332 aebd e862 923d 7ec5 85bd 6853 6a3c
000000d0: 6f88 223e 3c36 99bd a25c 333b 021c 803d
000000e0: 3c84 67ba 726a d73d 62bc 9ebd 33e7 da3d
000000f0: 2386 c03d 5a8a 6bbd 6b6c 3f3d 0b01 bbbd
00000100: af29 5c3a 8eb4 813b 2f20 c2bc 260e 96bc
00000110: 631c 233e 9e43 d9bd 3bbd 02bd a657 93bb
00000120: edbf 953b 0aa9 243e 6f5b 18be da87 f7bd
00000130: 1762 edbc 0356 33be cf0d e0be 293c 093d
00000140: 1c6c 4d3e 4368 04bf 46c4 eabd f050 8dbe
00000150: e970 e53d b55c 0a3d f2e8 c33d a6e7 debd
00000160: ebfc a9bb 3677 45be 2964 18bd 4ef7 033c
00000170: 9427 7ebd cb9b 83bd 8863 28be 0714 04bd
00000180: 35b8 3e3e 35bd ec3d 6116 c43d 15ad 2d3c
00000190: dd12 d3bc b0f4 3e3d 7b74 fbbd 0a45 c93d
000001a0: 0f26 f93d cc1b b73d 86e0 a8bd 9aef 26be
000001b0: e21a 803d c798 44bd c3a9 c63c 9ead 533d
000001c0: e019 adbb 8767 babd 93bf df3d ed4a f3bd
000001d0: f63c 233e a985 c13d 23e2 f7bd 50b4 203e
000001e0: a9d8 dc3c a2ce ec3d bed8 f93d 2a66 623d
000001f0: 9db6 85bd 5d65 26be c119 133e d2f2 0abe
00000200: da33 403e 0cc9 d23d 85b0 053c 32ae c2bc
00000210: 3a9a 203e 9ba0 d6bd 47ee 883d 2109 ae3d
00000220: a8f4 523d 593f 0bbe 48b4 473c 904e c03c
00000230: 8b4c 023d 7697 0ebe 6ab1 e4bd f707 9fbc
00000240: 0e9c fbbc 375c 6cbd 125e 03be 1c97 c13d
00000250: b884 e4bd cf04 1e3e 3784 783d 8cd5 43be
00000260: 2877 e83d d5da 5fbd 243f 5a3d 2388 e1bc
00000270: 551d c63d 49be 15be c4aa 1e3d 0f52 a8bd
00000280: 5148 08be ca74 ae3d 536b 2a3e a6dc fd3d
00000290: ade1 cfbc 031b e1bd fb08 e0bd a86d 0abd
000002a0: 23ae dd3c 84b0 cbbd 4f06 173e c604 9bbd
000002b0: a7a8 573d 098b ff3d 1af0 053e fdf3 88bd
000002c0: 9644 883d 3782 1f3e 3ef8 f4bc ef28 56bc
000002d0: e5f7 cf3b c628 eabd ee8c 4e3d a070 c7bc
000002e0: b03d b33d f873 cdbd d47a 02bd 8790 c8bd
000002f0: 60b8 b0bc a384 dd3d 80f0 1a3c 3619 85bc
00000300: 7afe 873e a57c c03d 27fb bebd 2963 19be
00000310: d815 ca3d 900e 5dbd 9c99 783d 877e b03b
00000320: 78a8 63bc f5f6 23bd 6614 f6bd 379a fd3d
00000330: e4db 46be 82b3 903d b3ce 253e 1be3 883d
00000340: 3cae ffbd e396 513e 5087 22be cb89 c4bd
00000350: 93d0 573e 590b 213d 5c89 043e ad4e 30be
00000360: 7bde de3d bd2b 6abd f41a 71bd 2cc2 69bd
00000370: 29d8 f9bd 7d02 b0bd 62dd 963d 978c 0f3e
00000380: 0297 acbd ee6d e8bd 5f04 9abc 1656 593d
00000390: 0f3e 1c3e 840e 933d 63ef ca3d 6a06 003c
000003a0: d2ef 1d3e a813 aebd b8b9 283e 502e 04be
000003b0: 61f6 103e 5f04 9fbc 4670 f4bd bf02 80bd
000003c0: 81ab d23d 1d39 8d3c 594e f83d 6d42 1a3e
000003d0: 64a9 023e 5404 c3bd ab9e f9bd b411 3cbd
000003e0: 9a17 d73c 288a 8bbd 21ab d5bd d5d2 20be
000003f0: 05fe afbd 3b5b 163e 6a30 a0ba 2930 213e
-0.056290213 -0.1446457 0.032948785 -0.12620297 -0.11827385 -0.20974919 0.08917622 0.04975564
-0.08780447 0.035262693 0.026828233 -0.0096982075 0.07830905 0.1141887 0.1372426 -0.071440935
-0.15302487 0.12566258 0.12534389 0.20118095 -0.013802494 0.040293902 0.070037276 0.08858066
-0.09606535 0.00276115 0.10719774 0.036877863 -0.13121422 -0.16709056 -0.019903261 0.07436816
-0.17732535 -0.19456883 -0.044903122 0.10591604 -0.1021978 -0.111708514 0.117832355 0.009492723
0.15313539 -0.059886772 0.054001205 -0.041287944 0.031228203 -0.06685006 -0.053032387 0.1721953
-0.08505633 0.07147771 -0.06531809 0.014302112 0.15872358 -0.074810475 0.0027368446 0.06255342
-0.0008831655 0.1051835 -0.07750775 0.10688629 0.094005845 -0.05750499 0.046734255 -0.09131058
0.00083985453 0.0039582914 -0.023696987 -0.018317293 0.15928797 -0.106086 -0.031918745 -0.0044965325
0.0045699985 0.16080108 -0.14878629 -0.120864585 -0.028977437 -0.1751328 -0.43760535 0.03350464
0.20060772 -0.5172159 -0.114632174 -0.27600813 0.112031765 0.03377982 0.09565915 -0.10884027
-0.005187621 -0.19283757 -0.037204895 0.0080545675 -0.062049463 -0.064261995 -0.16444218 -0.032245662
0.18624957 0.11559526 0.09574581 0.010600348 -0.02576583 0.04662007 -0.12278076 0.09827621
0.12165462 0.08940849 -0.082459494 -0.16302338 0.062551275 -0.047997262 0.02425087 0.051679246
-0.0052826256 -0.091017775 0.10925212 -0.11879525 0.15941224 0.09449322 -0.12103679 0.15693784
0.02695878 0.115628496 0.121995434 0.055273212 -0.06528971 -0.16249605 0.14365293 -0.13569191
0.1876978 0.10292253 0.008159761 -0.023764703 0.15683833 -0.10479852 0.06686073 0.08497835
0.051502854 -0.13598384 0.0121889785 0.023474962 0.03181128 -0.13924965 -0.111666515 -0.019412978
-0.030714061 -0.05770513 -0.12828854 0.0945265 -0.111581266 0.15431522 0.060672965 -0.1912443
0.11350852 -0.054652054 0.05328287 -0.027530735 0.096735634 -0.1462337 0.038737074 -0.082187764
-0.13308837 0.085183695 0.16642503 0.12395601 -0.025376165 -0.1099148 -0.10939213 -0.033795983
0.027060574 -0.09945777 0.147485 -0.0756927 0.052651074 0.12477691 0.13079873 -0.06687162
0.06653707 0.15577017 -0.029903527 -0.013071283 0.00634669 -0.11433558 0.05042737 -0.024345696
0.08752 -0.10031885 -0.03185542 -0.097931914 -0.021572292 0.10816314 0.009456754 -0.016247373
0.26561338 0.09398774 -0.09325247 -0.14979233 0.098674476 -0.053968966 0.06069337 0.005386177
-0.013895147 -0.04003044 -0.120156094 0.1238293 -0.19419819 0.070654884 0.1619213 0.06683942
-0.124844044 0.20467715 -0.1587193 -0.095965944 0.21075659 0.039317463 0.12943023 -0.17217512
0.108822785 -0.05717062 -0.058863595 -0.057069942 -0.121994324 -0.085942246 0.07366444 0.14018475
-0.0842724 -0.113490924 -0.018800912 0.053060614 0.15258048 0.07180503 0.09908941 0.007814029
0.15423515 -0.08499843 0.16477096 -0.12908292 0.14156486 -0.019411264 -0.11935477 -0.06250524
0.10286618 0.017239148 0.12124319 0.15064402 0.1275993 -0.0952231 -0.12188467 -0.04591532
0.026256371 -0.068134606 -0.10433031 -0.15705426 -0.08593372 0.14683239 -0.001222146 0.15741028

model.encoder.eb_encoder.0.4.bias f4 [32]
00000000: 05e3 fabd eb6b 203e 5775 15be 2f4a 103e
00000010: a19e cebc 453a 673e 4abb 9bbd cd57 7dbd
00000020: 9bc4 d83d eff2 36be 90c5 a9bd 2be5 6cbd
00000030: 1f8a efbd 9bcd 92bd 08c9 27be a3ee 433d
00000040: fc8d 19be fb9e 67bc f98f 473d 2d29 63be
00000050: 344a adbc 98f6 753d 9c50 09be d5ed 263e
00000060: 1834 f8bd 26a5 7d3d 6e0f 053e 658f b3bc
00000070: 091a 8ebc dace aebd 4045 233d 3419 00be
-0.12250332 0.15666167 -0.14595543 0.14090799 -0.025222125 0.22580822 -0.07604082 -0.06185131
0.105843745 -0.1786611 -0.08289635 -0.05783574 -0.116962664 -0.071681224 -0.16385281 0.047835004
-0.14995569 -0.014137025 0.048721287 -0.22183676 -0.021153547 0.060049623 -0.13409656 0.16301663
-0.12119311 0.061925076 0.12994167 -0.021918962 -0.017346399 -0.085355476 0.039860964 -0.12509614

model.encoder.eb_encoder.0.6.weight f4 [32, 32]
00000000: f8e8 2fbe c27b 7cbc ad85 033e 78ba d8bd
00000010: 5ebb ca3c e4ca 773d dade 8b3c 0366 0ebe
00000020: 7193 e6bd f1cd 903d 7ddc 333e a788 9bba
00000030: 8150 f83d 19d2 babd 5d55 7ebd cad2 1fbe
00000040: ac11 17bd 7309 ba3d 7b25 2fbe f11d 883d
00000050: 615a 7e3c fc76 51bd 9a92 7a3c da96 99bd
00000060: b0ba ddbd 9a6a 7f3d c93d 3d3e 8f21 13be
00000070: f42e 073c 7c4f a03d e2cf 12bc 3511 8fbd
00000080: 3b8f 973c 379d dabd 8d12 37be 546e 6d3d
00000090: 9150 f3bd 3431 5abc 2bea 2cbd fe16 e33d
000000a0: 01fd 003d 680a 2abe ca6c 1fbe 1028 bc3d
000000b0: e994 d53b ffa1 26be 7ba1 8f3d 2180 533d
000000c0: daa5 993d 0903 63be 6108 3f3b 3712 e1bd
000000d0: 21a8 c33d cc25 2e3d 57fd 793d 9d87 cc3c
000000e0: 6e6a d3bd 6ae1 92bd 0cc5 14bd 4c78 19be
000000f0: dd2b 4fbe cbd5 453e e93c cc3d 11a8 68be
00000100: 09cf a3ba 9f1d 1c3e 9f0b c63d c99d 4e3b
00000110: 282f 273e 9675 99bc 7f34 9d3d 5120 d23d
00000120: 35cf ce3d 072a f6bd a88d ec3d c78d 643c
00000130: 7d39 42bd 2cbf bcbd abdb f0bc 391c 1b3d
00000140: 091a fbbd eeaa 0cbe 6efc 67be fe5b df3d
00000150: 5a32 85bc f7a5 063e eb52 193d ecf1 e83c
00000160: 8662 143e 2ae6 823d defc 4e3d dc69 853c
00000170: 4ef2 073e 84f1 d83d 819a 02be bb68 65bd
00000180: 6f7c 97bd dfc2 1fbe 29e6 183e 01d4 1a3e
00000190: b888 483e 7195 dabc f974 823d 61fe 7dbd
000001a0: 80c2 303e 7f6c 17be e6a3 c639 d20f b03c
000001b0: f6c4 1bbe 8adf 173e eaa4 cfbd 6e27 18be
000001c0: 194c 7e3c c5e1 563d c003 d23d 5033 3bbe
000001d0: b727 c73d 5475 0c3e 8960 353d ae0b 8dbc
000001e0: 48aa c9bb 8801 32bd 355e 1cbd 2cbe a73d
000001f0: 0ca4 f9bd cbf2 a3bd 9a01 783d f459 f53d
00000200: 978e b9bd 9537 46bd 03e8 6ebd 9ae3 a1bd
00000210: 5b3d 16be 3f03 673d fa58 2b3d b9a3 c33d
00000220: 2afe bd3d e94f 27be 8052 2a3e 2933 3dbd
00000230: ae5e d7bd 4319 f73c be02 013e bf47 07be
00000240: be5b ea3c 6c91 ac3d 6825 f53d f7ee c3bd
00000250: 9b05 23bc fa06 7abd 7726 ae3d 76c7 0fbe
00000260: 896d d5bd 52a5 7e3d 57e2 07be 13e9 7b3c
00000270: 901f 27be 2c17 093e 2605 713d e34f 213d
00000280: b028 053d 46cb 1a3e 85b6 57be 9968 0c3e
00000290: 13ce 403d 8918 afbd edf7 df3d 0613 a1bd
000002a0: 30c7 e83d 75d7 3abe e182 97bd b920 003d
000002b0: ecfa 0c3d 36d7 0ebe 72e9 1bbe a8b7 14bd
000002c0: 97d7 b53c 5679 7e3d d0b1 033e 3d2d 29be
000002d0: fdee abbc d60c 323e 1b1e 02bd f95f 683e
000002e0: 266e 2c3c c72a a6bd 8088 d8bd 844c adbd
000002f0: 61bb fa3d 0718 26be 250f b2b9 d523 323e
00000300: 3292 57bd 52c1 0b3e 26cd 6c3d ad16 80bc
00000310: cd1d 213e f428 9bbc b802 ec3d 43d4 3cbd
00000320: cc5a 93bd e725 28bd a1bd 94bd d59b ec3d
00000330: b48a b0bd d71e a53d 22f7 17bd 15d1 923d
00000340: d74e 4a3d 5ce0 063d 024a 8ebd 4c0c 553e
00000350: 33d0 0a3e 339d 483e 1b3d 60bd a669 443d
00000360: 9751 023e bfad 1f3d d365 563e b186 eebd
00000370: 2b09 e43d 558a bcbd 674e 37be a0db 85bd
00000380: cc68 c13d 9e0e ecbd b013 93bd b5b9 06be
00000390: 5d73 76bd 69aa 723a 56aa 2a3d d333 fa3d
000003a0: 2c57 2d3e d32d 063a 61ab 6bbd 51bf b2bd
000003b0: 1551 63bc 5436 dc3d 0fd0 8f3d 0fcc 07be
000003c0: e3e8 1f3d afdf ecbd b05f d9bd bb36 2f3e
000003d0: b72c 05be c5ec 26be e87c 043e 8667 36bd
000003e0: aea4 f9bc 81ef 78bb ec0c 93bd e4a9 4bbd
000003f0: ae59 7e3d 75c7 263d cac3 393e 25bd ec3c
-0.17178714 -0.015410366 0.12843962 -0.10582441 0.024747547 0.060496226 0.017074037 -0.13906102
-0.11258591 0.0707053 0.17564578 -0.0011866287 0.1212473 -0.09122104 -0.062093128 -0.15607753
-0.036882088 0.090838335 -0.17104141 0.06646336 0.015524478 -0.051138863 0.015293742 -0.07499476
-0.108266234 0.062357523 0.184806 -0.1436827 0.008250941 0.078276604 -0.008960696 -0.06985704
0.018500915 -0.106745176 -0.1787817 0.057966545 -0.11880601 -0.013317395 -0.042215507 0.1108837
0.031491283 -0.16605532 -0.15568843 0.09187329 0.0065179956 -0.16272734 0.07013222 0.051635865
0.07502337 -0.22169127 0.0029149281 -0.10989802 0.095535524 0.042516515 0.06103262 0.02496701
-0.10323034 -0.071719006 -0.03632073 -0.14987296 -0.20231576 0.19319837 0.09972555 -0.22720362
-0.0012497614 0.15245675 0.09670185 0.0031527153 0.16326582 -0.018732827 0.076760285 0.1026007
0.10098115 -0.12019735 0.11550456 0.013949818 -0.047418106 -0.09216151 -0.02940162 0.037868712
-0.12260825 -0.1373708 -0.22654888 0.10906218 -0.016259361 0.13149248 0.037432592 0.02843567
0.14490709 0.063915566 0.05053412 0.01628583 0.13276026 0.105929404 -0.12754251 -0.056008082
-0.07396781 -0.15601681 0.14931549 0.15119936 0.19583404 -0.026682587 0.06369967 -0.062010173
0.17261696 -0.14787482 0.00037887617 0.021491919 -0.15211853 0.14831367 -0.10138877 -0.14858791
0.015521073 0.052461404 0.102546215 -0.18281293 0.09724372 0.13716632 0.044281516 -0.017217483
-0.0061543323 -0.04345849 -0.03817578 0.08190569 -0.121894926 -0.080052935 0.060548402 0.11980048
-0.090604 -0.04839285 -0.058326732 -0.0790474 -0.14671843 0.05639958 0.0418329 0.09552712
0.092769936 -0.16339077 0.16633034 -0.04619137 -0.105161056 0.030163413 0.12598702 -0.13210963
0.0286082 0.084261745 0.11970025 -0.09567063 -0.009950067 -0.06104181 0.0850343 -0.14040932
-0.10421283 0.06216938 -0.13269936 0.015375393 -0.16320634 0.13387746 0.0588428 0.039382827
0.032509506 0.15116605 -0.2106572 0.13711776 0.047071528 -0.085496016 0.1093596 -0.078649566
0.11366117 -0.18246253 -0.0739801 0.031281207 0.034418985 -0.13949284 -0.15225771 -0.03630796
0.022197528 0.062127434 0.12860799 -0.16521163 -0.020987982 0.17387709 -0.031766992 0.2269286
0.010524308 -0.08113628 -0.1057291 -0.0846186 0.12242771 -0.16220103 -0.0003396209 0.17396481
-0.052629657 0.13647965 0.057812832 -0.015635813 0.15734024 -0.018940426 0.11523956 -0.046100866
-0.071950525 -0.04105177 -0.07262731 0.1155316 -0.086202055 0.08062523 -0.03710092 0.071687855
0.049391594 0.03292881 -0.069477096 0.20805472 0.13555984 0.19591217 -0.054745775 0.047952317
0.12726437 0.038984057 0.2093728 -0.11646784 0.11134561 -0.09206072 -0.17901002 -0.06536031
0.094438165 -0.115262255 -0.071814895 -0.13156779 -0.060168613 0.00092569605 0.04166635 0.12216916
0.16927785 0.00051185227 -0.057536487 -0.08727897 -0.013874312 0.1075255 0.07022106 -0.13261436
0.039040457 -0.11566102 -0.10613954 0.17110722 -0.13005339 -0.16301258 0.12938273 -0.04453232
-0.030474033 -0.0037984552 -0.07180199 -0.049722567 0.062097244 0.04071756 0.18141094 0.028898785

model.encoder.eb_encoder.0.6.bias f4 [32]
00000000: 4ad6 333e 6b20 543d f3e6 28be 39a5 2c3e
00000010: 0ef2 1f3e aa0d 433e 4f35 2cbd b8e3 d03d
00000020: 9b26 433e 7d61 f5bb 6fb9 bc3d 32a7 4cbe
00000030: d936 8ebd 33aa 0cbe cc09 7ebc 041a 01bd
00000040: 3922 1d3d cfd6 ca3d 2535 23be a1c5 8f3d
00000050: 3f65 173e 9470 d93d fdf5 b3bd 5f2b 9bbd
00000060: 8706 f2bd 3327 20be bb80 bd3d ca77 393e
00000070: 6404 96b9 c9ac 903a caa9 c6bb c879 cf3d
0.17562214 0.05178873 -0.1649435 0.16859902 0.1561968 0.19048181 -0.042043027 0.10199684
0.19057696 -0.007488428 0.09215056 -0.19985655 -0.06944055 -0.13736801 -0.015505265 -0.03151895
0.038362715 0.09904253 -0.15938242 0.070201166 0.14784716 0.10617176 -0.08787153 -0.07576632
-0.11817651 -0.15639953 0.09253069 0.18112102 -0.000286135 0.0011037822 -0.006062721 0.1013065

model.encoder.eb_encoder.1.weight f4 [32]
00000000: 13af 8a3f ae9b 823f dc8a 843f 95aa 823f
00000010: 7be7 803f 37de 803f 9326 863f c1f6 823f
00000020: 2b59 843f 50ff 863f da32 8c3f a3d4 853f
00000030: 686f 863f a2a3 833f 61af 813f edc0 803f
00000040: b963 843f 11c7 763f 476b 813f 94e8 823f
00000050: c561 853f 23b8 813f 030b 8d3f 056b 7c3f
00000060: 7c58 813f f3b5 863f 4115 833f 499e 853f
00000070: 5023 773f 9e59 803f 4b71 823f c482 733f
1.0834678 1.020376 1.0354877 1.0208308 1.0070642 1.0067815 1.0480522 1.0231553
1.0339712 1.0546665 1.0953019 1.0455517 1.0502748 1.0284312 1.0131646 1.0058876
1.0342933 0.963975 1.0110863 1.0227227 1.0420462 1.0134319 1.1018986 0.986008
1.0105128 1.0524276 1.0240861 1.043893 0.9653826 1.0027349 1.0190824 0.9512141

model.encoder.eb_encoder.1.bias f4 [32]
00000000: f34f 523c 8177 20bc 5ab3 e5bb 8d9e f3ba
00000010: 7a42 0f3a 7f0a cfbb 6537 5a3a e6dc dc3b
00000020: 7c67 f6bb 881a be3b 1833 a6bb 3b3a 0ebb
00000030: 30d1 9db9 6f9b e9ba e45e 0bbb 0ee9 2abc
00000040: b077 4f3c 9c4a 043a b027 44bb dd11 a9bb
00000050: 5756 f83b 7577 e2bb 0299 50bc 4bdf d13b
00000060: 36ba 26bc ed17 763b c7fe e23b a553 2d3c
00000070: 5ff3 513c 2558 233c 7f7e c6bc 23c5 863b
0.012836444 -0.009794117 -0.0070099058 -0.001858668 0.0005464923 -0.00631839 0.00083242945 0.0067402003
-0.0075196605 0.0058015026 -0.005072009 -0.0021702189 -0.0003010123 -0.0017822812 -0.0021266276 -0.010431541
0.012662813 0.0005046518 -0.0029930882 -0.0051596 0.007578652 -0.006911213 -0.012731792 0.0064047924
-0.010176232 0.0037550882 0.0069273445 0.010579024 0.012814372 0.009969746 -0.02423024 0.004112856

model.encoder.nb_encoder.0.0.weight f4 [32, 10]
00000000: 0a9a 6a3e b53e b43d a3d1 aebd 4b5a de3d
00000010: 91db eabd b4c1 0ebe e97f 693e 0932 88bc
00000020: 360d 0e3f 6702 fc3e a187 20be 8edb f13d
00000030: f2d6 c33d 4881 23be 374d 78be 873c 21be
00000040: 3e7a 42be 2f27 c43d dd72 973e ee10 5bbe
00000050: 7033 bebd 3758 143e bbfb 37be b582 37bd
00000060: 7daa 75bc 477f 90bd df31 b03d 7c07 533d
00000070: a2d4 963e 4953 82be 784b a43e ad8d 8ebe
00000080: ab55 c53c 7748 f13d 86f3 0f3e 37a0 893c
00000090: 37ce 2f3d 48f9 f83d 481e af3e 1a33 ce3d
000000a0: d075 7dbe e5a1 903e c836 713d f7a7 9c3d
000000b0: fc2d 39be ddd9 1f3e 7f5d 883d 0b3a 733e
000000c0: 51e7 293e 8e8a a1bd 199b 88be 2c1d 943e
000000d0: d8c1 58bd 3bed a8bd 8c4d 21be 281b 403e
000000e0: 4f8b abbe e242 3fbc 4cf3 90be c105 2a3e
000000f0: 49f2 cf3d 10e5 3c3e 1c69 723c 1877 89be
00000100: ffed 11be 6fc0 e0bc 06ba 31be 867e 72bf
00000110: 5289 573e 8fa2 febd d385 283d e433 1dbe
00000120: 2569 4b3e 5b1a 913d e872 bdbe 2a0f 1c3e
00000130: 3551 89be 6352 66be cf5c d1be a572 3a3d
00000140: 7c1f 873e 592e 193e 13d6 2b3e 0b70 7bbd
00000150: 5c6e fe3c 82dc 66be fad4 fb3d 3b81 c9bd
00000160: 97d4 62be 9546 6cbe 58d2 c63c d5ed fd3d
00000170: 991a 123e a981 ad3d 4969 843e 327a e63d
00000180: 1f8c 36be 6876 85bf 9638 c5bd b56e 20bf
00000190: 92d2 083c 3c9d 543d 2543 32bd fa05 893e
000001a0: 8426 11be b38e ec3c b09d b03d d002 d63c
000001b0: fa80 dc3e 38cd 64be 368a 03be c90a 703e
000001c0: 23d4 553e be5f b9bd 5c0e 84be 8081 483e
000001d0: e274 883d 8b9a 00bc 2a1a 99be d1e3 7ebd
000001e0: d848 5bbd 7d90 94be 781e 413e 592e 15be
000001f0: 7cc2 c83c 07bb 6cbe 677c 923e d5ec a73b
00000200: 6279 953c a82b 5bbc 968e 943e a448 fbbc
00000210: dabe b93d c368 923b 8709 2e3e 9dcf 8c3d
00000220: f6ff 983d 9d6a 8b3e a9d8 8c3e 264b 043d
00000230: f97e 9b3e 42c9 893e cc70 40bc 656b 0ebe
00000240: ef7e ef3d 4931 71be 6aab 743e 1afd c1bd
00000250: 42db 3b3e e286 2d3e 838b 193b 9e93 933c
00000260: 38a0 68b9 9fcc 9cbc b666 a53d 73da a73d
00000270: f48b a83e edb5 50bd 5501 3fbe 37aa 203e
00000280: 7828 fbbc 077d a5be c80c a13d 27c0 d23d
00000290: 5aa4 6abe cd7a 86bc 487d 1bbd 66b2 ab3d
000002a0: 9cca 53be d6f2 15be 973e 06be 493b 42be
000002b0: abb9 6c3e 4416 723d 2e28 72be 919d 293d
000002c0: e3ac 66be 5e51 f13d 42b2 f0be 4184 993e
000002d0: ad3f 7a3e 55de 4b3d 89e5 4bbd 3d45 983e
000002e0: 2f6c 0f3e e219 4abd 5447 0a3f 403c cdbe
000002f0: 3cf4 a43e efd5 723e f3e7 25be 33a4 43be
00000300: 6619 603d 19a1 6ebd 748a 263e 3e32 cdbe
00000310: 017a 8b3e 9faf 6ebd 1fa4 c73e a73f 3bbd
00000320: e00e 25be 7af4 803e 0073 6e3e 4cea 9ebe
00000330: f835 743c 5b85 27bd 22a8 a7bd 4104 fabc
00000340: f754 20be 3a37 06be 071a b53d e22b 8f3e
00000350: 3e63 f2bc 9613 79be 754f 883e cf2d 493e
00000360: 0539 993e b0c5 c1bc 5e50 583e 0954 863c
00000370: b873 5a3e 5bd8 633e 8069 87be f16a 23be
00000380: cd46 023e dc49 6fbe 1372 0e3e f140 533e
00000390: 4fc8 5cbe c9bc 963e 756a 38bb 5bbd 21bc
000003a0: b411 4dbe 8745 61be 6cec ddbe 81b2 c33d
000003b0: bf3a 75be 5e6a 0c3d b3ed 243d c56b 49be
000003c0: 9ea7 97be 63bc a43c 5ade 8fbd 297a 1e3d
000003d0: f25f 883e f2ee 213d c6e9 963d b61f 863e
000003e0: a9e6 b13e 669b b5be f911 223e a6f3 e23d
000003f0: a85b 8fbe 7a2c 36be f471 273d ded4 acbe
0.22910324 0.08801023 -0.08536079 0.10857066 -0.1146766 -0.1394108 0.228027 -0.016625421
0.5548891 0.49220583 -0.15676738 0.11809455 0.09562482 -0.15967286 -0.24248205 -0.15745746
-0.18991944 0.09577786 0.2957982 -0.21393177 -0.09287155 0.14486776 -0.17967121 -0.044802386
-0.014994261 -0.07055526 0.08603262 0.05152081 0.294591 -0.25454167 0.32088828 -0.27842465
0.024088701 0.117814 0.1405774 0.01680003 0.04292127 0.121569216 0.3420279 0.100683406
-0.24751973 0.28248516 0.058890134 0.07649224 -0.18083948 0.15610452 0.06658458 0.2375261
0.16592146 -0.07887755 -0.2668083 0.28928506 -0.05291924 -0.08248373 -0.15752238 0.1876036
-0.33504722 -0.011673661 -0.2831062 0.16603757 0.10153634 0.18446755 0.014795568 -0.26848674
-0.14250945 -0.02743551 -0.17356119 -0.9472431 0.21048477 -0.12433349 0.04114325 -0.15351826
0.19864328 0.07085105 -0.3700173 0.1524016 -0.2681977 -0.22492366 -0.4089112 0.04551949
0.26391208 0.14959086 0.16780882 -0.06138615 0.031058483 -0.22545055 0.122964814 -0.09839102
-0.22151409 -0.230738 0.024270222 0.123988785 0.14267959 0.08471996 0.25861576 0.11253776
-0.1782689 -1.042676 -0.096299335 -0.62668926 0.008350985 0.051907763 -0.043521065 0.26762372
-0.14174849 0.028876638 0.086238265 0.026124388 0.4306715 -0.2234391 -0.12845692 0.23441614
0.20881705 -0.090514645 -0.25792205 0.1958065 0.066629186 -0.007849346 -0.29902774 -0.06222898
-0.053536266 -0.29016486 0.18859279 -0.14568461 0.0245068 -0.2311822 0.28610536 0.005124668
0.018246356 -0.013377108 0.29015034 -0.030674286 0.09069605 0.004468055 0.16995822 0.068755366
0.07470696 0.27229777 0.2750905 0.03229823 0.3037031 0.2691136 -0.011745643 -0.13908155
0.116941325 -0.23553957 0.23893514 -0.094721034 0.18345359 0.16945985 0.0023429103 0.018014725
-0.0002218493 -0.01914054 0.08076231 0.08195963 0.32919276 -0.050954748 -0.18652852 0.15689932
-0.030658945 -0.3232195 0.07863766 0.102905564 -0.22914258 -0.016415978 -0.037961274 0.08383636
-0.20682758 -0.14643416 -0.13109814 -0.18967928 0.23117702 0.059103265 -0.2364814 0.041410033
-0.22526889 0.11783098 -0.47011 0.29983714 0.24438353 0.04977258 -0.04977945 0.29740325
0.14006113 -0.04934109 0.5401509 -0.4008503 0.32217586 0.23714422 -0.16201763 -0.19105606
0.05471172 -0.058259103 0.16263753 -0.40077394 0.2724152 -0.058272954 0.38992402 -0.045715
-0.16118956 0.2518652 0.23286057 -0.3103813 0.014905445 -0.040898662 -0.08186366 -0.030519607
-0.15657412 -0.13107005 0.08842855 0.27963167 -0.029588338 -0.24323878 0.2662312 0.19646381
0.29926315 -0.023653835 0.21124408 0.016397493 0.21333206 0.22250502 -0.26447678 -0.15958764
0.12722321 -0.23368019 0.13910703 0.20630242 -0.21560787 0.29440907 -0.0028139625 -0.009871806
-0.20026284 -0.21999179 -0.43344438 0.09555531 -0.23948191 0.034281127 0.04026575 -0.19670017
-0.2962007 0.020109361 -0.07024832 0.03869072 0.266357 0.039534517 0.073688075 0.2619607
0.34746292 -0.35470122 0.15827169 0.110816285 -0.27999616 -0.17790404 0.04088016 -0.33756155

model.encoder.nb_encoder.0.0.bias f4 [32]
00000000: 61b9 d03e 5fe6 95be 28fa 513e fd7d 843e
00000010: ad2b 323e 2d23 3abe 505c c33e d7ae b43e
00000020: ccdf b63e bc6b d23c d965 bbbd 3309 4c3e
00000030: 5179 be3d fbc0 a1bd 3eaa aa3e 3ec5 9e3e
00000040: 061a 803e 41a7 9cbe e7dd d93e 7dfc 433e
00000050: 0b4d 3d3e 79ae fa3d 9833 8f3d ac3a 983e
00000060: aa52 bfbd 7845 ce3e a18c 5c3e 513f 3a3d
00000070: 3638 ad3d ec49 71ba 6ac8 db3e 2e0e 67bd
0.40766433 -0.29277322 0.20505583 0.2587737 0.17399473 -0.18177481 0.38156366 0.35289642
0.35717618 0.025686137 -0.09150285 0.19925384 0.09300483 -0.07898136 0.3333301 0.3100986
0.25019854 -0.30596355 0.4255211 0.19139285 0.18486421 0.12240309 0.069922626 0.29732263
-0.09341939 0.40287375 0.2153802 0.04547054 0.08457987 -0.00092044356 0.4292634 -0.056410007

model.encoder.nb_encoder.0.2.weight f4 [32, 32]
00000000: 1163 a63c 81fb e93d d9a6 92bd a98c 4b3d
00000010: 015c cfbd 453d 13bd 331e 11be 2e94 bdbe
00000020: 623d a03c e48d 09be 3732 553b 34be e5bc
00000030: 1799 733c 2e8c 1b3c 398c c93d dbb1 953c
00000040: 6edc b2bd a4cb f53d df13 083e b6b1 f6bd
00000050: f260 b2bd 85c0 863d 6483 2c3e c8af 7fbd
00000060: c81c dfbd e821 8cbc d18b 503d ae61 2fbe
00000070: 2b59 ae3d 5262 b93d 2957 c7bd 80c5 ac3c
00000080: b0e1 8d3d 0cd7 793c 42e5 a83d 1424 823d
00000090: 258d babb b34c 3ebc ea3d a03d 6cc6 7cbd
000000a0: 2deb f73c 0be9 9c3d c679 ef3d a75e 1b3e
000000b0: 6f0d 6a3e 6768 d8bd 80b0 1e3c e375 6dbe
000000c0: 69b3 843e 0a23 973d 949c 593e 6437 53bd
000000d0: f241 213e ba92 aa3c d035 febd 9e55 df3e
000000e0: d610 d7bd 0ced 1a3e 1bfd c23c 987a e13d
000000f0: 689f dabd cb4a 243e a774 b0bd 826f babd
00000100: 54a6 e33d 8b37 37be 0323 193d 3a19 c83d
00000110: db66 e43d 6285 273e 2b2d 823d 30ea 1bbe
00000120: 6784 0f3e 1c35 b83d f630 4fbe ac23 ac3c
00000130: 19b0 053e 8e82 f93d f5a8 583c dc9c da3d
00000140: 3543 ae3d 461f 563d f209 063c d90b cb3b
00000150: bd7f c2bc 9c6f 613d 7fd3 043e 5ddf 853d
00000160: d4d2 12be a921 aebd 55a7 333d ee00 1dbe
00000170: 68a6 e43d fbd7 e93d 991d 6cbe 1f8a c2bd
00000180: b034 233e 088a b03d 208e 283e 26a4 eebc
00000190: 971a a8ba 2d37 ad3d 627f b4be f8bb 773e
000001a0: 0232 0dbd 37b4 85bd 8343 363e d7a9 84bd
000001b0: 244d 4f3e ae30 0d3e 1d22 dcbd c467 b23b
000001c0: 9dfd 28be 6baf ebbd 5fd8 353c f141 ffbc
000001d0: 8e0d 0f3e f3d1 73bd 8d78 df3d fe17 0fbe
000001e0: 78ad 89bd e4c2 19bd 61f4 8b3d 0417 f03d
000001f0: b07c 743c 82de d2bd 1748 7fbd baf1 7f3d
00000200: 7d2b 45bd 3281 c8bb 3438 16be 53f9 fc3d
00000210: 29e4 b0bd f180 61be bb08 90bd 7dfb debd
00000220: 06d4 923d bbb2 ebbd fa67 623e 9ed6 203d
00000230: 824d f2bd dbca 373d 452a f23d 5a78 393e
00000240: a704 05be 3eaa 803d c2ac 9c3d a65b 65be
00000250: d0ab 16be baaf 7f3d 5400 f4bd 207d 32bd
00000260: 36da 1b3e e6ae 093d 9c11 31bd 6475 31bc
00000270: 3bf7 613e 9c05 3a3c e39e c43c 30c7 b03d
00000280: efaa 03be 2a58 14bd 618f 95bd c02e de3d
00000290: c1eb a0bd 86c9 5f3d 5db2 4f3d 4a38 923d
000002a0: 893f 09be 2cb0 2ebd 85a9 1a3e 5da2 f1bd
000002b0: d274 7ebd dbf3 9d3c 749b 4ebd 94f7 413d
000002c0: 32c3 a2bc bd8e 00be 4693 1c3d 4e7d 32bd
000002d0: bfde 123e f383 18be aa76 b0bd e827 8d3d
000002e0: a64b 33bd b0cd 51bd 3926 363d de87 fabc
000002f0: df88 c1bd 457e 813d b899 0dbd 8477 acbd
00000300: 8deb 8d3d 6291 013e 42e7 4d3d cdae 493e
00000310: c31c c4bd 1713 0bbd 2e6d b43c 83b1 ab3d
00000320: d91e 1c3e 8e02 263e fd19 373d c1f5 a93d
00000330: f672 123e b281 583d 5673 22bd d77b 103e
00000340: 6d2b b33d 26ee 6ebd 3042 d33e da9c b7bd
00000350: b911 10bc 5c1a 22bb 7b28 00be 99e6 603e
00000360: 4a78 263e 6b71 b0bd f468 39be 0413 babd
00000370: 729f d0bc 8045 9dbd 7639 ab3d 69f0 cdbd
00000380: 7852 95bd 40cd 603d f778 8c3d 7e95 9f3d
00000390: 2259 d6bd 83ba 623e d001 f13d f2a9 953c
000003a0: 6c23 113e 9923 b9bd 93a5 55bc 4f06 12be
000003b0: a0b3 2c3d 6efc 4e3e 8995 23bd eacf 723d
000003c0: 0893 cf3b b99a 0cbe 0581 fc3d d398 3abe
000003d0: 31d4 c2bc 5ef8 5dbd 30cc f5bd ede8 29be
000003e0: a13d 4a3d 879b d3bc 15f8 593d ae4a e4bd
000003f0: 85e6 433c abf1 c1bd 87ce aa3e e8fb d5bc
0.02031091 0.11424924 -0.0716073 0.04969469 -0.1012497 -0.035947103 -0.14171676 -0.37027115
0.01956052 -0.13433033 0.003253115 -0.028044797 0.014868042 0.009493871 0.098411985 0.018273285
-0.0873345 0.12001732 0.1328883 -0.120456144 -0.08709897 0.06579689 0.16846997 -0.062423497
-0.108941615 -0.017106012 0.05091459 -0.17127106 0.08513101 0.09051956 -0.09733421 0.02109027
0.06927812 0.015249025 0.082468525 0.063545376 -0.0056930953 -0.011614966 0.07824309 -0.061712667
0.030263508 0.07661637 0.11693148 0.15172826 0.22856687 -0.10566788 0.009685636 -0.23189501
0.2591813 0.0737973 0.21251136 -0.051566496 0.15747812 0.020821918 -0.12412608 0.43620008
-0.10501258 0.15129489 0.02380233 0.11009711 -0.106749356 0.16044156 -0.08616 -0.091033
0.11115709 -0.17892282 0.037386905 0.097704366 0.111524306 0.16359475 0.06356271 -0.15226054
0.14015351 0.08994505 -0.20233521 0.021013103 0.13055457 0.121831045 0.013223876 0.1067445
0.085089125 0.05227592 0.008181082 0.0061964807 -0.023742551 0.05503808 0.12971304 0.06536744
-0.14338237 -0.08502514 0.043860752 -0.15332386 0.11164552 0.11418148 -0.23058166 -0.09499001
0.15938067 0.08620077 0.16460466 -0.029131006 -0.0012825307 0.084577896 -0.35253435 0.24192798
-0.03447152 -0.06528514 0.17799191 -0.06477707 0.2024427 0.13788101 -0.10748694 0.0054444987
-0.16502996 -0.11508068 0.01109895 -0.031159373 0.13970014 -0.059526395 0.10911665 -0.13973996
-0.0672254 -0.037539378 0.06833721 0.1172314 0.014922306 -0.10296346 -0.06232461 0.062486388
-0.048137177 -0.006118917 -0.14669877 0.12352242 -0.08637268 -0.22021843 -0.07032915 -0.10887811
0.071693465 -0.115086995 0.22109976 0.039267175 -0.1183119 0.044871192 0.118244685 0.18112317
-0.12990056 0.06282471 0.076501384 -0.22398242 -0.14713979 0.062423445 -0.11914125 -0.04357636
0.1521996 0.03361406 -0.043229684 -0.010831211 0.22066967 0.011353876 0.024001544 0.08631742
-0.12858175 -0.036216892 -0.07302738 0.108487606 -0.078574665 0.054635547 0.05070721 0.071396425
-0.13403143 -0.04264848 0.15103729 -0.117985465 -0.062123127 0.019281318 -0.05044122 0.04735525
-0.019868467 -0.1255445 0.03822639 -0.04357653 0.14342783 -0.14894085 -0.086163834 0.06892377
-0.043773316 -0.05122155 0.044470046 -0.030582365 -0.09449934 0.06322912 -0.034570426 -0.08421233
0.06929693 0.12653115 0.050269373 0.19695587 -0.09575798 -0.033953752 0.022024717 0.08383467
0.15246142 0.16211912 0.04470252 0.08298827 0.14301667 0.052858062 -0.039660774 0.14109741
0.08748517 -0.058332585 0.41261435 -0.08965464 -0.008793288 -0.002473495 -0.12515442 0.21962966
0.16256824 -0.08615383 -0.18106443 -0.09085658 -0.025466654 -0.07679272 0.08360569 -0.1005562
-0.0729112 0.05488324 0.0685901 0.07792185 -0.104662195 0.22141461 0.11767924 0.018269513
0.14173669 -0.09039993 -0.013039964 -0.14260219 0.04216349 0.20213482 -0.03993753 0.059280314
0.006334666 -0.13730897 0.12329296 -0.1822236 -0.023782821 -0.05419194 -0.12001836 -0.1659276
0.04937518 -0.025830997 0.053215105 -0.111470565 0.011956816 -0.09469923 0.33360693 -0.026121095

model.encoder.nb_encoder.0.2.bias f4 [32]
00000000: 0a84 f9bb 5335 543e 389e 803e 534c d23d
00000010: d081 dc3d fc3b 2e3e 80b8 8b3e e3a6 50bd
00000020: e3bb 07be 0413 25be bc78 573e 28ab a83c
00000030: cb99 10be a1ba dfbd 180f c53c ac27 8dbc
00000040: f5ac 91bd 5fa4 1dbe 4dd8 b53d e133 6dbe
00000050: 02b7 093e 4338 eb3d c317 003d d7ef 60bc
00000060: 0e37 473c 7a70 41bd 3c98 af3d 1cac 2d3e
00000070: 3286 cfbd 715d 6a3e fe60 303e 9419 ffbd
-0.0076146172 0.20723467 0.2512071 0.10268464 0.10766947 0.1701507 0.272892 -0.050940406
-0.13255267 -0.16120535 0.2104215 0.020589426 -0.14121167 -0.109242685 0.024055049 -0.017230831
-0.07113067 -0.15394734 0.08879147 -0.23164321 0.13448718 0.114853404 0.03127266 -0.013729057
0.012159122 -0.047226407 0.08573958 0.16960186 -0.101330176 0.22887208 0.172245 -0.124560505

model.encoder.nb_encoder.0.4.weight f4 [32, 32]
00000000: 6c58 16be a7c1 c2bd f7b0 203e afe4 c8bd
00000010: 2e9d 233e 617c 1d3d a37e bebd 8633 4fbc
00000020: 3824 afbd dd0e 053e d381 cebc 6ff7 dcbd
00000030: f4f8 07bc fa95 80bd b754 a93d 0af3 383d
00000040: 7b59 953d aa28 853d f41d 37be 2de2 34bb
00000050: 09b9 eabd d880 3a3d 7b6c 123e e60a f3bb
00000060: 7512 9d3e c144 61be 784c 5a3e a081 f03c
00000070: fb2d 8a3d de6c ea3d 2eb4 293e 36a2 d4bd
00000080: 2bbb 853d 890c 05be c44c 143e 636a 183e
00000090: 8235 4b3e 8692 f03c 0ccf 56be 1f78 d63c
000000a0: 383b e2bd b913 35bc 1f0b a43d 04f4 3b3e
000000b0: 4ce8 e2bd 938a dfbd 2fff 5fbd 5d96 623c
000000c0: d68f 8dbd 0732 40be 9577 4abd 685d 463d
000000d0: f87e b53d 21e2 64bd b2d4 203e 21bb 303e
000000e0: e9af 04be f8d9 3c3e f6f8 433e 1704 bdbd
000000f0: cba5 d93d 5b20 dbbd d8f0 b23d 3a98 b3bd
00000100: 088d 413d 1c76 f33d 0f17 c73d 8f6b bfbd
00000110: f1d2 b23d 3697 0f3c 0fd6 9c3d 43ba 003e
00000120: 72ae 293d 137e 4ebd 7b94 0b3d a1f9 f8bd
00000130: 46ab fa3c 349f 39bb bc4c 99bd 80b6 9f3c
00000140: ab1f 90bb 1601 a23b a406 8e3d 2001 1ebe
00000150: 28ef 1e3d 2163 293e af60 1c3e 3187 d63d
00000160: bde3 a83d 9df3 863d e402 323e fcbe 983d
00000170: 5dd9 cc3d ab59 f53d 8893 99bd d2d5 063d
00000180: 29a3 8bbd d0af e9bc c6dd ccbd b848 073d
00000190: 2241 e43d 5924 a03d 2436 643e ad3c 2e3d
000001a0: 54b5 4ebd 668e adbd 48b8 823e 4fae e33d
000001b0: 083e b6bd b3ee 143e e06b 0d3e 09f0 1abe
000001c0: 4066 483d d1b2 a13d 0a06 543c 490c eabd
000001d0: 9143 2cbe 1780 053e 7fba 083d 2485 b5bb
000001e0: 3ee6 bbbc be57 d7bd 7a41 263e aa16 adbd
000001f0: 79f7 173d 64fc 1f3e b14e 32bd df2a abbd
00000200: d1b7 2e3d e93f 0dbd cd9d 153e 22c0 11be
00000210: cfb7 883d 5f7e d93d a528 083e a9a0 f9bc
00000220: 8d87 5d3d 2c5e f9bd 5887 88be 9ade ccbd
00000230: fa1b 18be 7760 343d f0ae 533d e206 58bd
00000240: aa31 053e b770 90bb dd10 5a3d 9aac c9bd
00000250: 63c7 bdbc 2a2a 40bd 8286 3dbe a1be f23d
00000260: 59f7 e8bd 211b 5d3e 0682 48be 6eaa b3bd
00000270: 4aa0 2f3e aaaa e53c 3ef7 363e 5d4d 463d
00000280: ec50 3ebd 92fe 92bd 91fb 7e3d f0c7 153e
00000290: 3620 a93c af90 013e 4ec2 7b3d 9174 16be
000002a0: 756b 293d 099c 25be 9928 a2bd ab15 f9bc
000002b0: bec4 febd 146f 923d e956 513d 399a ac3d
000002c0: 2cac fa3d 2cca 2d3e 1a6e da3d 5ea5 893c
000002d0: ed8b d23d ecd1 923d b655 913d d408 c43d
000002e0: e83a eabd bd39 84bd ddc6 5cbe 2828 29be
000002f0: 32c6 83bd 8ecc 203d a6ee 29bd 9729 a5bd
00000300: f6f9 15be b34a c93d 7a1f 8cbd 6f2a 253c
00000310: a424 b13d fb89 0b3e c554 293e da24 123c
00000320: 09dd 28be 3517 653d 53e4 0fbe 17a4 ef3d
00000330: 3753 dcbd 7f04 61bd 12f1 f7bd b7eb c13d
00000340: 2dd4 a6be 2980 2c3e a04e 9a3d 7b9d dfbc
00000350: 2644 e23d 2398 34bd b7d7 db3d 6eb1 ee3d
00000360: fe07 cdbd 332e 21be 8fa4 c83d 6458 61bd
00000370: 7845 c43d 37ad 0abe ba37 46be 2ca8 e7bd
00000380: 08da fdbd 3d57 ddbd b4e6 aa3d 6d0b efbd
00000390: 7aeb 5abb f2cf 5d3c 00ad 2bbe 09d4 ea3d
000003a0: 26ac a83d df38 543d 7ade ffbd 50e8 79bb
000003b0: df3a 973d 989f 13be 7396 6f3c 95a8 92be
000003c0: 3a48 8bbe 05a9 c0bd 97c8 ce3c 08d8 1bbe
000003d0: 96f9 903e f4e4 f63d 1608 83bd 0809 cd3d
000003e0: f06e 3c3c e36f 313e 83e6 353e 33ed b2bd
000003f0: e944 5e3d 0313 0b3d d352 0abd dc95 23bd
-0.14682168 -0.095095925 0.15692507 -0.09809243 0.15977928 0.038448695 -0.09301498 -0.0126465615
-0.0855183 0.12993951 -0.02520839 -0.10789382 -0.008299101 -0.06278606 0.08268111 0.045153655
0.07292458 0.06501897 -0.1788252 -0.0027600632 -0.11461074 0.04553303 0.14299195 -0.0074170707
0.30678144 -0.21998884 0.21318233 0.029358685 0.06747051 0.11446546 0.1657264 -0.10382502
0.0652984 -0.12993063 0.14482409 0.14884333 0.1984463 0.029366743 -0.2097742 0.026180325
-0.11046451 -0.0110520655 0.08009934 0.18354803 -0.11079463 -0.10915103 -0.05468672 0.013829795
-0.069122 -0.18769084 -0.04943045 0.048428923 0.08862108 -0.055879716 0.15706137 0.17258884
-0.1295773 0.18442523 0.1913794 -0.09229296 0.106273256 -0.10699531 0.087373435 -0.08769269
0.04725364 0.11887762 0.09721195 -0.09346687 0.0873164 0.008764079 0.07658016 0.12571053
0.04142613 -0.050413202 0.03407715 -0.12156988 0.030599248 -0.0028323652 -0.07485339 0.019496202
-0.0043983064 0.004943977 0.0693486 -0.15430117 0.038802296 0.16541721 0.15271257 0.104750045
0.08246563 0.06589434 0.17383915 0.074583024 0.10002396 0.119799934 -0.074988425 0.03291876
-0.0681823 -0.028526217 -0.100032374 0.033028334 0.111452356 0.07819433 0.22286278 0.042538334
-0.050465897 -0.08474426 0.2553122 0.11117231 -0.0889855 0.14544182 0.13810682 -0.15130629
0.04892564 0.07895435 0.012940893 -0.114281245 -0.1682265 0.13037144 0.03338098 -0.0055395532
-0.022936936 -0.10514782 0.16235915 -0.084515885 0.037101243 0.15623623 -0.043532077 -0.083577864
0.04265577 -0.034484778 0.14610977 -0.14233449 0.06675684 0.106198065 0.13296755 -0.030472117
0.05408435 -0.12176165 -0.2666576 -0.100033954 -0.14854422 0.04403731 0.051680505 -0.05274094
0.13007227 -0.004407968 0.05323874 -0.09847374 -0.023166364 -0.04691521 -0.18508342 0.11852766
-0.11375303 0.2159238 -0.1958085 -0.08772741 0.17150989 0.02803548 0.17867753 0.048413623
-0.046463892 -0.07177462 0.06225163 0.14627051 0.020645242 0.12652849 0.0614646 -0.14692904
0.041362245 -0.16172804 -0.079179 -0.03040584 -0.12439869 0.07150093 0.051108275 0.08427853
0.122398704 0.16971654 0.106655315 0.016802486 0.10280595 0.07168946 0.07096426 0.09571996
-0.11437017 -0.06456325 -0.21560235 -0.16519225 -0.06434287 0.03925758 -0.04148736 -0.08064573
-0.14646134 0.09828701 -0.06841941 0.010080918 0.08649567 0.13626854 0.16536243 0.008919919
-0.16490568 0.055930335 -0.14051943 0.117012195 -0.107580595 -0.05493593 -0.121065274 0.09468787
-0.32583752 0.16845764 0.07534528 -0.027296772 0.110481545 -0.0440904 0.10734504 0.11654936
-0.1001129 -0.1574028 0.09797012 -0.055015936 0.095835626 -0.13542639 -0.19357195 -0.11311373
-0.12395102 -0.10807655 0.083447844 -0.11672101 -0.0033404515 0.013538348 -0.16765213 0.11466224
0.0823596 0.05181205 -0.12493606 -0.0038132854 0.07384276 -0.14416349 0.014623272 -0.28644243
-0.27203542 -0.09407238 0.025242133 -0.15219128 0.2831542 0.12055388 -0.06398027 0.10011488
0.011501059 0.17327838 0.17763714 -0.087366484 0.054264937 0.033953678 -0.033770394 -0.03993784
