pinn1/checkpoint/simulator.pth (torch, 489605 bytes, 187 tensors)

model.encoder.eb_encoder.0.0.weight f4 [32, 10]
000000 be 59 a0 3d a4 e8 52 bd e3 a9 3b be 56 e6 27 3e
       0.07829617 -0.051491395 -0.18326525 0.1639646
000010 10 c8 f4 3b c1 47 b4 3e 69 a7 7e 3d 48 a1 ba b9
       0.0074701384 0.35210994 0.062171374 -0.00035596848
000020 1f 5d 47 3b 21 bc da bd c3 e5 68 3e b7 b6 28 3d
       0.0030420495 -0.10680414 0.22743897 0.041189875
000030 78 b5 f7 3d 4b 65 19 3c 72 ad af 3e d9 9e b6 bd
       0.12095159 0.009362529 0.34312016 -0.089170165
000040 cf c1 b7 3e 7b c2 4f be 3c 6d 39 3e 07 75 13 3f
       0.35890052 -0.20289032 0.18108076 0.57600445
000050 e6 9a 35 be 81 a5 10 3e ae 48 02 3e 81 5f 38 3d
       -0.1773487 0.14125635 0.12723038 0.045012955
000060 64 02 4b 3e f2 02 47 3d 1d bf 4d 3d f3 6a 51 3e
       0.1982513 0.048586793 0.050231088 0.20450954
000070 99 5e 17 3e 4f 2f a4 be 66 87 e1 3e 3f 9f 9e 3c
       0.1478218 -0.32067344 0.44048613 0.019363044
000080 d7 77 7e 3e c4 9a 30 3e 63 fc 05 3e d1 0c df 3e
       0.24850403 0.17246538 0.13084559 0.43564466
000090 af d4 14 bd b1 05 3d be 0b f9 08 3e 58 df 28 3e
       -0.036335643 -0.18459202 0.13376252 0.16491449
0000a0 02 63 29 3e a6 d8 54 be 3c 91 6f 3e 7b 2e 0f 3e
       0.16541675 -0.2078577 0.23395246 0.13982575
0000b0 90 a5 77 be d9 ba 91 be 9a d0 9a 3c f4 ad 59 3d
       -0.24184251 -0.28462866 0.018898297 0.05314441
0000c0 ae 83 c1 bd 16 f3 55 3e a6 3e 6a 3e 0c 1b 31 3e
       -0.09448944 0.20893511 0.22875461 0.17295474
0000d0 68 c8 ee bd ad e8 02 3e 7c 44 c9 bd 4c 53 e7 3c
       -0.11659318 0.12784071 -0.098275155 0.028237961
0000e0 e9 db ed bd e8 1a 83 be 92 c6 a7 be de 35 83 3e
       -0.1161421 -0.25606465 -0.32768685 0.25627035
0000f0 df 56 90 bc 5c 0a c1 3d 5d 29 d5 bd b8 e5 7a 3e
       -0.017619548 0.09425804 -0.1040828 0.24501693
000100 0e c7 dd bc ed c9 81 3e 08 91 39 bd 4f cc 9f 3d
       -0.027072456 0.2534937 -0.04530433 0.07802641
000110 89 f5 31 3e 75 4b ce 3d 02 07 63 3d a2 19 68 3e
       0.1737882 0.10072986 0.055426605 0.22666028
000120 4e d1 17 be c3 57 6c 3e 46 be 7a 3e c3 5b 2e 3d
       -0.14825937 0.23080353 0.24486646 0.04256798
000130 c8 c4 e6 3d d4 3b 82 bd 74 b3 49 be ff d2 5d 3e
       0.11268002 -0.063590676 -0.19697362 0.2166252
000140 62 e4 eb 3d 5f bb 80 bd 47 7c 2e 3e 1d 6f d9 bd
       0.1151817 -0.06285738 0.17039596 -0.10616896
000150 fd 35 c6 3e 46 8d 4b be 58 e5 23 3e b6 6d 3f be
       0.38713065 -0.1987811 0.16005456 -0.18694195
000160 9c 00 bb be ed 58 75 3e c0 00 8e 3d f0 d1 10 3c
       -0.36523902 0.23959704 0.06933737 0.0088391155
000170 c7 f9 0e 3e b5 8a 78 3e d5 52 47 3e a8 b2 ab 3e
       0.1396247 0.24271663 0.19465192 0.3353474
000180 d7 e5 1e 3e eb 01 50 3e 54 05 4f be ae 50 eb 3c
       0.15517364 0.20313232 -0.20216876 0.028724995
000190 a6 f0 ac bc 61 1a 3d 3e d8 92 1f bd d5 49 8c bd
       -0.021110844 0.18467094 -0.0389584 -0.0685002
0001a0 01 8e 91 3d c6 55 ac 3e 09 30 7e be d6 30 99 bc
       0.07107163 0.3365919 -0.24823011 -0.018700045
0001b0 e3 70 38 be 2d 3c 6c 3d f5 98 88 3e 89 9b 0a 3e
       -0.18011813 0.057674576 0.26679197 0.13535894
0001c0 26 f7 05 be 73 0f 8a be 35 90 40 3e 33 00 49 bd
       -0.13082561 -0.26964912 0.1880501 -0.049072456
0001d0 9e ca 80 3e d4 5c 80 3e 97 ee 97 be 5b d3 8b 3e
       0.25154585 0.25070822 -0.29674217 0.2730969
0001e0 95 75 92 3e 72 b5 5a bd a7 35 9e 3c 81 e7 71 be
       0.28605333 -0.053395696 0.019312693 -0.23623468
0001f0 8d 32 89 bd 94 b6 5c 3e 9c a2 ad bd 91 aa be bd
       -0.06699095 0.21554023 -0.08478281 -0.09309877
000200 b1 33 a6 be eb 1b 92 bd 17 22 2d 3e a6 5f 5c 3e
       -0.32461312 -0.07134231 0.16907535 0.21520862
000210 60 d8 e8 bc a3 9b 92 be ee 60 9e 3d 69 96 12 be
       -0.028423488 -0.28634366 0.077333316 -0.1431519
000220 d2 df a3 ba c9 15 97 3e f2 d3 3b be 13 72 9c bc
       -0.0012502617 0.29508808 -0.1834257 -0.019097364
000230 d5 ee 49 3e ff ab 92 be 3d 89 35 be 7e 8c 4c bd
       0.19720013 -0.28646848 -0.17728133 -0.04993867
000240 4c 51 2e 3e 1a 72 c5 bd d3 ab 02 3d e7 8d 9d 3e
       0.170232 -0.09640904 0.031902146 0.30772325
000250 2c 1f b9 3e 57 21 92 3c 16 2b 2c bd a8 fd 32 3d
       0.36156595 0.017838163 -0.042033277 0.043698937
000260 21 db 72 bb bc 65 df 3d ff a8 97 be cd 64 27 3e
       -0.003705688 0.10908076 -0.2962112 0.16347046
000270 fa da 6f be 3e 27 27 3d 87 8c 87 bc f8 4c 9f be
       -0.23423377 0.04080891 -0.0165465 -0.3111341
000280 91 5e b7 bd 3c 01 0a 3e f5 2d 54 be df 83 74 3e
       -0.08953584 0.13477033 -0.20720656 0.2387843
000290 ae 2e 2a 3e 36 d6 13 3e 19 f8 04 be f5 e7 58 3e
       0.1661937 0.14437184 -0.12985267 0.21182235
0002a0 6a cb dc be eb 1c 8b be 46 f3 c2 3e 93 e2 99 bd
       -0.43123943 -0.271705 0.38076228 -0.07513919
0002b0 91 7b 27 be 38 95 8c be e6 5e 18 be a1 b6 14 be
       -0.1635573 -0.27457595 -0.14879951 -0.14522792
0002c0 67 27 06 3c f3 3c 5c bd 7f 43 83 be 54 45 75 be
       0.008188105 -0.053769063 -0.25637433 -0.23952228
0002d0 14 cb 84 3c c1 a2 0e 3e 6e 95 06 3d 06 92 4f be
       0.016210116 0.13929273 0.03285735 -0.20270547
0002e0 5d 18 f8 3d d2 c4 3a be 68 2c 9f be 59 52 16 3e
       0.12114022 -0.18239143 -0.31088567 0.1467985
0002f0 c2 f2 b3 be 16 36 e7 bd 1d 0b fe 3d db 97 54 3e
       -0.35146147 -0.11289613 0.124044634 0.20761053
000300 94 4b 50 3e 4b 46 2a be 7a 39 41 be 88 43 20 3d
       0.20341331 -0.16628377 -0.18869582 0.039126903
000310 53 da cf bc bf f1 c0 bd df a8 05 be bd 8f 1f bf
       -0.02537266 -0.094211094 -0.130527 -0.623287
000320 90 7f 67 3e 56 fe 2b 3d 92 bb 99 3d 34 b8 a6 be
       0.22607255 0.0419906 0.07506479 -0.3256241
000330 e7 2b 10 3e bd b2 d7 be 3b bd ac bc 05 c6 91 be
       0.14079247 -0.42128554 -0.021086326 -0.2847139
000340 63 d7 3d bd 3d cc 00 3f 6d 34 65 3e 41 28 5e 3e
       -0.046347987 0.5031164 0.2238328 0.21695043
000350 dd 3c dc bd ef df a3 3d f3 fc d6 3c 67 6a 9b bd
       -0.10753796 0.08001696 0.026243662 -0.07588654
000360 b8 d3 72 be 74 36 06 3e 43 4d a5 be 49 99 99 be
       -0.23713577 0.1310671 -0.3228551 -0.2999976
000370 63 5c 86 be 14 68 37 3c 53 85 1b 3e 59 7b 3d bc
       -0.2624236 0.011194248 0.15187578 -0.011565053
000380 3b c1 a4 be 7e 22 ce 3c 40 02 5b be 5f 9c 7a ba
       -0.32178673 0.025162932 -0.21387577 -0.0009560044
000390 be 17 5e be cc 49 bb 3d 40 9c 52 be 9b 94 f7 bd
       -0.21688744 0.09144935 -0.20567417 -0.12088891
0003a0 5a db 30 be 41 e5 04 be cb 1f 75 3e 8a 03 a1 be
       -0.17271176 -0.12978078 0.2393791 -0.31448013
0003b0 47 2e 8b 3e 44 15 a1 3d 95 d8 18 3e ae 15 d8 bd
       0.27183744 0.07865384 0.1492637 -0.1055101
0003c0 e0 dc 51 be e2 80 15 3e 55 b3 ac 3d da 22 29 3d
       -0.20494413 0.14599946 0.08432642 0.041293003
0003d0 14 25 64 3e b3 72 8c 3e 72 45 25 be 94 7b 84 3d
       0.22279769 0.2743126 -0.16139773 0.06468883
0003e0 19 3e 6c 3d 08 84 0d 3e 39 8f 05 3e 1b 6c e0 3c
       0.05767641 0.13819897 0.13042916 0.027395299
0003f0 2f fe c6 bb 48 18 2c be 0d 6a a2 be aa 42 a5 bc
       -0.0060727815 -0.16806138 -0.31721535 -0.02017339

model.encoder.eb_encoder.0.0.bias f4 [32]
000000 31 a3 8b be b6 6a eb 3e 8e a0 96 3e 7d 94 bc bd
       -0.27272943 0.4597985 0.29419369 -0.092080094
000010 62 9b 0e 3e b2 23 a1 3e 5a 1c 38 3d 01 c5 b6 3e
       0.13926461 0.31472546 0.044948913 0.35697177
000020 3e 94 ae 3e f3 28 7f 3e b3 e8 76 3d 66 e6 86 be
       0.34097475 0.24917965 0.060280513 -0.26347655
000030 4c 7c 9e 3e 6f ca 38 3c a5 88 7b 3b 53 b2 7e 3e
       0.30954206 0.011278733 0.0038381007 0.24872713
000040 69 98 09 bd 57 2a bf 3e 71 5f 11 be 1e 58 74 3e
       -0.033592615 0.3733699 -0.14196564 0.23861739
000050 80 89 0e 3e 7c bf 6a 3d d7 d5 52 be 57 26 8f be
       0.1391964 0.05731152 -0.20589386 -0.27958938
000060 73 8a 60 3e cd 5f c0 3e dc cf 7f 3d 2c 68 46 bd
       0.21927814 0.3757309 0.06245409 -0.04843919
000070 35 c9 0f be e1 0c 3b bc a9 30 18 be 44 c0 b3 3d
       -0.14041598 -0.011416645 -0.14862312 0.08776906

model.encoder.eb_encoder.0.2.weight f4 [32, 32]
000000 41 38 b6 bd 26 34 63 3e f5 a4 17 bd 0b 6e 08 3c
       -0.08897448 0.22187862 -0.03702255 0.008327018
000010 95 d3 70 bc 70 1f 9c 3e 4b a6 c9 3d 73 42 27 3e
       -0.014698883 0.30492735 0.09846171 0.16333942
000020 3a 96 6e 3e c5 1f ec bd 4d 7e a4 bd 69 47 33 bc
       0.23299494 -0.11529497 -0.080319025 -0.0109423185
000030 bf 23 45 3e 49 cd b5 bd 7e 25 17 bd 94 45 bc 3e
       0.19251917 -0.08877046 -0.03690099 0.36771834
000040 93 d9 0c be 8a 58 a5 3d 6a 0a bf bd 3d 9d 3c 3c
       -0.13754873 0.08073528 -0.09328158 0.011512098
000050 12 de 4e 3d fa 0d a5 bd ff 7a 75 be c7 ab af 3d
       0.05050475 -0.080593064 -0.239727 0.08577686
000060 79 4d 5e 3d 6d b1 aa bd 43 39 16 3e 1e 3c 41 3e
       0.054273102 -0.083346225 0.14670281 0.18870589
000070 36 bf 12 bc 8e 62 86 bd 1e 19 3b bd 7f bf ef 3d
       -0.008956721 -0.065617666 -0.04567825 0.11706447
000080 0c 0a 31 3c e6 69 55 3d d0 91 c4 3d e9 59 10 3b
       0.010805618 0.052102946 0.09598124 0.0022026247
000090 0a 4b 80 bc 46 31 c4 bd 5b ee 7c 3e a7 60 cb 3d
       -0.015660781 -0.09579711 0.247003 0.09930544
0000a0 5c 3b eb 3b 9f 7b 15 3e 0b f2 9a 3d c0 9a f0 bd
       0.007178707 0.14597939 0.07565697 -0.11748266
0000b0 03 d4 18 3e 50 d4 d9 bd 6b a5 92 bb a4 a5 35 3c
       0.14924626 -0.106361985 -0.0044752858 0.011086855
0000c0 31 9e fa bd 91 3e 9d 3d da 01 f3 3d 43 20 57 bd
       -0.12237204 0.07677949 0.118655875 -0.052521
0000d0 58 71 4e 3e fe a2 2b be 8f d6 a9 3e 42 6b d3 3c
       0.20160425 -0.16761395 0.33171508 0.02580798
0000e0 67 89 e8 bb 7a bc 21 be 9f ad 93 be 95 e9 38 3d
       -0.0070964578 -0.15794554 -0.288434 0.045144636
0000f0 b5 3d 12 3e 84 34 38 bc 6e e8 75 bd a9 4c 10 be
       0.14281352 -0.011242989 -0.060036115 -0.14091744
000100 d1 be 00 3d ce 9a 6d 3e 6d be c5 bd 3b ef b0 3d
       0.031431977 0.23203585 -0.096554615 0.086393796
000110 f5 2f 7c 3d ee c0 a2 bd dc 1a 83 3d a4 dc 2a 3d
       0.061569173 -0.07946955 0.064016074 0.041714326
000120 34 26 08 bd ea 99 50 3c 1d 35 6c bd b0 1e 31 3e
       -0.03323956 0.0127320085 -0.05766784 0.17296863
000130 d6 85 06 3c ce d5 ff bd c5 0f 19 be 50 54 c6 3d
       0.00821062 -0.12491952 -0.14947422 0.0968405
000140 5c f7 06 3e 2a 6b 8f 3d 05 19 88 bc c4 b1 83 bd
       0.13180298 0.07002862 -0.016613493 -0.064303905
000150 24 30 1e 3e 52 be 33 bd d3 c2 41 be bc 7a 38 be
       0.15448052 -0.043882675 -0.18921976 -0.1801557
000160 65 11 63 3e 1d f6 e4 bd 83 d2 7d 3e 81 c8 3c bd
       0.22174604 -0.11179755 0.24787335 -0.046089653
000170 d5 e5 34 be 93 80 4f 3c d3 79 05 be 5a ab ac 3e
       -0.17665799 0.012664932 -0.13034754 0.3372448
000180 80 b4 b4 3c 94 10 9a bc d7 3e 09 3e 30 25 d1 bd
       0.022058725 -0.018806733 0.13402878 -0.10212171
000190 e0 d4 06 bd 23 59 32 be 0f a1 14 3e a0 76 f3 bc
       -0.032917857 -0.17416815 0.14514564 -0.02971965
0001a0 8a 18 c3 3d ed 90 60 bd bd 6c 0d 3e 4e ae a6 bd
       0.09526165 -0.054825712 0.13811012 -0.08138715
0001b0 51 39 85 bd 2f ca bc bd be 78 2b 3e 1d 28 c4 3d
       -0.06505073 -0.09218251 0.16745278 0.095779635
0001c0 f4 4d 31 3e ff dc f6 3a 25 73 e0 bd 35 c2 08 3e
       0.17314893 0.0018834173 -0.10959462 0.13355334
0001d0 7e c7 2f bf f0 87 15 bd 0a c8 27 3e 09 74 b5 3c
       -0.68663776 -0.036506593 0.16384903 0.022150056
0001e0 f3 84 aa bd 54 24 88 3c 39 00 17 be 14 98 07 3e
       -0.08326139 0.016618885 -0.14746179 0.13241607
0001f0 c3 2d bc 3c f7 ea 20 bd 42 c1 e4 bc c0 3e 15 bd
       0.02297104 -0.03928658 -0.027924184 -0.036436796
000200 9a d1 9d 3c b4 26 8b bd 8e 88 22 3d 1c ea ca bd
       0.019264985 -0.067944914 0.03968101 -0.09907934
000210 3b 53 89 bc 4d fc bf bd 18 00 62 3d f6 d2 07 3d
       -0.01676332 -0.093742944 0.05517587 0.033160172
000220 61 72 3d 3d 13 63 e7 3d 31 2d a9 3c f3 f3 e2 bc
       0.04625166 0.11298194 0.020651432 -0.027704215
000230 9f 97 06 3c 60 d7 f1 bd a0 99 af 3d 61 f6 0c 3e
       0.00821486 -0.11808658 0.085742235 0.13765861
000240 12 47 10 3e 50 e3 4d bd ca 4e 39 be 90 c1 28 3e
       0.14089611 -0.05026561 -0.18096462 0.16480088
000250 06 06 8c 3d a7 43 eb 3d 7b 2a 1e 3e 42 31 78 bd
       0.068370864 0.11487513 0.15445893 -0.06059385
000260 6f ac e6 3c 46 ca 24 be 2e 18 f5 bd 78 f9 17 3e
       0.028158395 -0.16092786 -0.119675025 0.14841259
000270 d4 72 ff bc 0c b1 f9 3d d1 f5 dc bd 84 5d 34 be
       -0.031182684 0.12191972 -0.10789073 -0.17613798
000280 b2 56 38 3c 30 a3 3a bc 39 36 27 3e 61 98 ca bd
       0.0112511385 -0.011391446 0.16329278 -0.09892345
000290 46 93 28 3d 99 11 8f 3c 39 12 f3 bd fc 90 37 be
       0.041156076 0.017464446 -0.1186871 -0.17926401
0002a0 a4 e1 0d bd dd c6 2d bd b5 a9 a9 3d 13 0a 15 3e
       -0.034639016 -0.04242598 0.08284322 0.14554624
0002b0 22 68 26 be 54 ef f0 bd 4b 42 02 be 30 04 d7 3c
       -0.16250661 -0.11764398 -0.12720601 0.026247114
0002c0 64 44 06 3e cd b0 37 bc 06 06 57 3d 98 13 ec bb
       0.13112026 -0.011211586 0.05249598 -0.007204484
0002d0 a7 7e cd bc d2 9a cb bd 97 61 6a bd 3a fd 93 3d
       -0.025084807 -0.09941639 -0.057221975 0.072260335
0002e0 66 11 82 3d ab 68 6e 3d 0b 16 54 3d f5 50 50 bd
       0.06350975 0.058205288 0.051778834 -0.050858457
0002f0 85 f1 3e be 54 8b bd 3d b9 76 e5 3d 20 64 13 3d
       -0.1864682 0.0925509 0.11204285 0.03598416
000300 93 82 e4 3c 19 e1 17 3c 94 6a a3 3d 6d 41 73 3d
       0.027894294 0.009269976 0.079793125 0.059388567
000310 c9 fc 1d 3e 7a 23 f1 3d a8 cd 1a 3e 80 bf 89 bd
       0.15428461 0.11774345 0.15117514 -0.06725979
000320 29 cc 63 bc ec c2 21 3c c8 94 0d 3e 11 32 aa 3d
       -0.013903656 0.009873133 0.13826287 0.08310331
000330 6d c0 0c 3d 87 9b 1b be e1 9e 11 3e 47 6c 43 3e
       0.0343632 -0.15196048 0.14220764 0.19084273
000340 e4 06 d1 3d ad 02 6d bd c9 57 bd bd 3c 56 5f 3d
       0.102063924 -0.05786388 -0.09245259 0.0545256
000350 73 fe ed bd 50 b8 60 3d 4b 74 0d 3d 07 ea 0d bd
       -0.11620798 0.054863274 0.034534734 -0.034647014
000360 8d 9b d9 3d fe 4f 44 bd d9 0f 2a 3d ab 7e 35 3d
       0.10625372 -0.04792785 0.04151902 0.044310253
000370 5a 2c d9 3d 99 ec 21 be a5 eb 58 bd d4 81 6c 3d
       0.106041625 -0.15812911 -0.052959103 0.057741
000380 2f 0b 60 3e 25 ac 94 bd 04 86 0e 3e b9 a0 a1 bc
       0.21879266 -0.072593965 0.1391831 -0.019729959
000390 fc 91 fa 3d 8b f7 c3 3c f5 99 23 bd b9 4d 6a bd
       0.122348756 0.023921749 -0.039941747 -0.05720303
0003a0 32 f7 5b bd 2e 82 ef bd 51 c2 af bd c2 d0 9d bd
       -0.05370254 -0.11694752 -0.08581985 -0.07705833
0003b0 56 fb a5 3d 0d 8f a9 3d 52 09 61 3d b4 90 1c be
       0.08104579 0.08279238 0.05494053 -0.15289575
0003c0 77 9d f5 3d 23 ab 6c bd 7f 81 d3 3d 8c 70 12 3d
       0.11992925 -0.057780396 0.10327434 0.035751864
0003d0 18 a7 4f bd 4b 94 93 3d e8 98 55 be 73 95 21 be
       -0.050696462 0.07206019 -0.2085911 -0.15779667
0003e0 56 18 07 be 03 5f 51 be fc 71 e3 3d b0 d5 bb 3c
       -0.13192877 -0.204464 0.11105725 0.022929043
0003f0 76 75 16 3d 2b f8 e9 3d 18 26 9f 3e 0d 5a 15 be
       0.036733113 0.114242874 0.3108375 -0.14585133

model.encoder.eb_encoder.0.2.bias f4 [32]
000000 57 37 cc 3e 79 f3 3f 3d 93 32 0e 3e d2 e3 02 3e
       0.3988597 0.046863053 0.1388648 0.12782219
000010 4a 50 a9 3d cf f5 04 be 94 ba 00 3e cf a2 25 be
       0.08267267 -0.12984394 0.12571174 -0.16175388
000020 91 f2 a2 bc c5 16 1c be 15 b0 1b 3e 57 16 b0 3c
       -0.019891055 -0.15243061 0.15203889 0.021495027
000030 bb ff ed bd c0 56 df bd 6d de c1 bc 03 1b d4 3d
       -0.11621042 -0.10905218 -0.023665631 0.103567146
000040 70 c0 16 be 9d 6b a0 3c 41 46 cb 3d 44 09 15 3e
       -0.14721847 0.019582564 0.09925509 0.14554316
000050 b7 e8 a7 bc b7 6f 0f 3e 7a ab 1f 3e d3 6a ad 3b
       -0.02049671 0.1400746 0.15592757 0.0052922755
000060 fe 7f 67 3e 69 a1 81 bd 5c f5 b6 bd cf 19 39 3e
       0.22607419 -0.06329615 -0.08933517 0.18076251
000070 06 ad 2e 3e b2 5e 0f 3e 3c e4 5a 3c 85 ab f9 bd
       0.1705819 0.14000967 0.013360079 -0.12190918

model.encoder.eb_encoder.0.4.weight f4 [32, 32]
000000 88 d1 db bc c2 6e 20 be a0 af 3c 3c 43 5d 07 be
       -0.02683331 -0.15667251 0.011516482 -0.1321917
000010 b7 ed fa bd 26 6e 57 be 72 23 b2 3d a5 bb 4a 3d
       -0.12252372 -0.21038112 0.08698167 0.049495358
000020 4d e0 b5 bd 7e 01 96 3d b0 03 e3 3c cc e5 b7 b8
       -0.088806726 0.07324503 0.02771172 -8.768923e-05
000030 c8 54 d5 3d 43 ba f1 3d e4 62 fe 3d d3 7e 8d bd
       0.10416561 0.11803105 0.12421206 -0.069089554
000040 3e 0b 11 be be 0a 0b 3e 2e 53 02 3e 24 f6 47 3e
       -0.14164445 0.13578317 0.12727043 0.19527489
000050 8b 33 97 bc 4a 97 13 3d 84 0d 91 3d 29 b5 30 3d
       -0.018457195 0.036032952 0.07082656 0.043141518
000060 73 87 93 bd 2e 44 bd 3a 72 76 dd 3d 8a 0d dd 3c
       -0.07203569 0.0014439875 0.10813607 0.026983995
000070 c6 8e 70 bd 6c 2a 29 be 04 3a 79 bc 46 7d a4 3d
       -0.05872991 -0.16520089 -0.015211586 0.080317065
000080 12 fa 13 be 74 a6 2e be cb 0c 51 bd 9c 3b d7 3d
       -0.14450863 -0.17055684 -0.05103759 0.105094165
000090 d7 1c cd bd 8f 3f e7 bd 75 94 ee 3d c0 31 4a 3c
       -0.100152664 -0.1129142 0.1164941 0.012340963
0000a0 ae cc 22 3e ab cf 57 bd 48 df 63 3d e7 b7 1b bd
       0.15898392 -0.052688282 0.05563286 -0.03801718
0000b0 ef 7e 69 3c c0 50 61 bd 09 fa 60 bd e0 c1 31 3e
       0.014251455 -0.05500865 -0.054925952 0.17359114
0000c0 0b 32 af bd 65 49 6e 3d 2e 3f 82 bd 1a 31 aa 3b
       -0.08554467 0.058175463 -0.06359707 0.0051938416
0000d0 1e 5e 1f 3e f2 a8 93 bd 9f 12 96 3b de 28 38 3d
       0.15563247 -0.07209958 0.0045798565 0.04496085
0000e0 98 0a 5b bc 2f 44 d9 3d 95 d2 9d bd b8 57 c4 3d
       -0.013369225 0.10608708 -0.07706181 0.095870435
0000f0 2f d2 02 3e 6e 12 61 bd ba b8 2e 3d 89 ea ba bd
       0.12775491 -0.054949217 0.042656638 -0.09126765
000100 45 c5 bd bc 03 e5 64 3c 6a 54 d5 bc ba 70 4a bc
       -0.023165355 0.013970616 -0.026041228 -0.012355978
000110 46 5e 27 3e 77 5e bc bd e9 50 ec bc ba 3f f0 bb
       0.16344556 -0.09197705 -0.028847175 -0.0073318155
000120 c1 7f 66 3b 73 fe a8 3e 96 fd 2c be 65 2d 01 be
       0.0035171362 0.3300663 -0.1689361 -0.12614973
000130 74 06 5a 3e bc fd 00 bf 4a 45 f9 be 38 e1 f5 3c
       0.21291524 -0.5038717 -0.48685676 0.03001462
000140 75 6a 42 3e 22 8f 4d bf d3 8f ee bd 30 a2 15 bf
       0.18985923 -0.8029653 -0.11648526 -0.58450603
000150 7f 3b a9 3d 86 10 2e 3d ec 1a c4 3d 2e fc 7f bd
       0.08263301 0.042496227 0.095754474 -0.062496357
000160 c0 a0 6d bc e3 62 dd bd 2c 1d 0f bd 51 68 b9 bc
       -0.014503658 -0.10809877 -0.03493993 -0.02263275
000170 83 3b 31 3e 2e 09 ab bd 69 d9 d2 bd 99 e7 6c bd
       0.17307858 -0.0835136 -0.10295374 -0.057838056
000180 c0 c4 d3 3d cc 89 e3 3d 6f 49 00 3e f1 86 9b 3c
       0.103402615 0.11110267 0.12528013 0.018985244
000190 c8 24 e1 bc a6 76 4e 3d ed 14 fd bd 6d 80 c8 3d
       -0.027483359 0.05040612 -0.12357507 0.0979012
0001a0 4b 92 02 3e bf 02 c6 3d 2a 9e 95 bd df b2 2f be
       0.12751119 0.096684925 -0.07305558 -0.17158078
0001b0 c3 4b 60 3d 78 85 d9 bc fb 3d 35 3d 06 c1 4d 3d
       0.054759752 -0.0265529 0.044248562 0.05023291
0001c0 57 b3 23 bc dc 64 a9 bd 1f 7b d8 3d d2 43 f5 bd
       -0.009991488 -0.082711905 0.105703585 -0.11975826
0001d0 a3 1d 26 3e 4e ee b4 3d 21 31 fa bd e5 36 3d 3e
       0.16222243 0.088345155 -0.12216402 0.18477972
0001e0 39 bc 0c 3c da 0a fa 3d 96 87 f8 3d 53 54 78 3d
       0.008589798 0.12209101 0.12135236 0.060627293
0001f0 a5 76 d2 bc 69 97 32 be 20 5f e7 3d 4d 0a 0f be
       -0.02569134 -0.17440571 0.112974405 -0.13968773
000200 08 69 33 3e 5e 1d cc 3d 78 5c 5f 3c c0 76 a0 bc
       0.17520535 0.09966539 0.013632886 -0.019587874
000210 88 6c 21 3e bc 37 d1 bd 19 80 87 3d b1 b9 a5 3d
       0.15764058 -0.102157086 0.066162296 0.080920584
000220 16 5f 6d 3d 29 07 33 be 87 2f 7a 3c 2d c8 32 3c
       0.05795201 -0.174832 0.01527012 0.010911983
000230 c3 d1 f2 3d b5 b8 27 be 68 21 e8 bd 68 ac ae bc
       0.11856415 -0.16379054 -0.11334497 -0.021322444
000240 0b 54 eb bc 61 4d 6b bd ec ca 04 be f4 5b a8 3d
       -0.028726598 -0.05744684 -0.12968034 0.08220664
000250 9f d1 b4 bd f1 13 1e 3e 2d 39 73 3d 60 4f 10 be
       -0.088290446 0.15437295 0.0593807 -0.14092779
000260 c7 02 bd 3d 62 35 c5 bd e4 f3 5c 3d 29 0e 87 bc
       0.09229045 -0.096293226 0.05394353 -0.016486244
000270 a5 ae 26 bd 95 e0 1a be ef 08 af 3d 24 32 b0 bd
       -0.040693898 -0.15124734 0.08546626 -0.086033136
000280 9f 03 da bd 0a c4 a8 3d c8 ef 19 3e 08 5a dd 3d
       -0.10645222 0.082405165 0.15032876 0.10808188
000290 a6 13 d9 bc 6e 41 a0 bd 59 2a d6 bd f2 39 ff bc
       -0.026498627 -0.0782498 -0.10457296 -0.03115556
0002a0 e2 8c 15 3d 85 3e fa bd a2 5d 12 3e a8 0b ac bd
       0.03651131 -0.12218956 0.1429353 -0.08400661
0002b0 54 9a f9 3c fb ed 40 3e 92 81 07 3e f4 ed 82 bd
       0.030469097 0.18840782 0.13233021 -0.06393042
0002c0 28 e4 64 3d 2d f2 28 3e 7d 19 d9 bc da 1c d8 bd
       0.05588165 0.16498633 -0.026501412 -0.10552378
0002d0 de 54 08 3c be 37 d6 bd 38 f3 51 3d 7a 8a f6 3b
       0.008321015 -0.10459851 0.051257342 0.007523832
0002e0 32 19 b8 3d 37 1e 9c bd 91 2e bf bc b1 88 0c be
       0.089891806 -0.076229505 -0.023337634 -0.13724019
0002f0 0b 45 c3 3c 73 e1 ff 3d 59 24 11 ba 3c bf 59 bc
       0.023836633 0.12494173 -0.0005536727 -0.013290223
000300 4e eb 7b 3e 80 0e c5 3d be 4d ed bd 7d a8 2b be
       0.2460148 0.09621906 -0.11587094 -0.16763492
000310 d6 11 bb 3d 27 78 6d bd d5 ca 6e 3d 4a 4e a8 3b
       0.09134261 -0.057975914 0.058298904 0.005136286
000320 dc eb e1 bb 5d 1d 42 bc bc 31 f4 bd a8 47 01 3e
       -0.0068945717 -0.011847821 -0.119235486 0.12624991
000330 fa 66 41 be a0 da 87 3d 40 aa 17 3e 95 0f 8a 3d
       -0.18886939 0.06633496 0.14811039 0.06741253
000340 dd 37 02 be 8d 88 52 3e 45 3d 22 be ff f9 e5 bd
       -0.12716623 0.20559902 -0.15843685 -0.112293236
000350 a7 09 54 3e f3 87 21 3d 13 93 04 3e 07 ea 2d be
       0.20706807 0.039436292 0.1294673 -0.16983806
000360 0f 92 13 3e 2c e1 85 bd 05 40 77 bd 6b 9e 67 bd
       0.14411186 -0.06537089 -0.06036379 -0.056547564
000370 38 43 d2 bd 2d ec a4 bd 18 28 7c 3d b5 7f 0d 3e
       -0.10266727 -0.080528595 0.061561674 0.13818248
000380 b1 4f 10 bd 53 64 a2 bd 7d 48 0b bd ae 42 5b 3d
       -0.03523225 -0.079292916 -0.034004677 0.053530388
000390 d0 c5 1c 3e c9 15 82 3d 6d 86 cf 3d 8c 18 0e 3c
       0.15309834 0.063518114 0.101330616 0.008672845
0003a0 3d 60 17 3e 42 59 8d bd 45 3c 27 3e 18 58 fe bd
       0.14782806 -0.0690179 0.16331585 -0.12419146
0003b0 fc 77 08 3e b9 32 d5 bc d2 8d f8 bd 52 47 77 bd
       0.1332702 -0.026025163 -0.12136425 -0.06037075
0003c0 6d 2e d5 3d 3d 0f 8e bc 4a bd fa 3d 65 7e 91 3d
       0.10409246 -0.01734125 0.12243135 0.07104186
0003d0 88 85 ec 3d 00 77 c6 bd dd c0 f4 bd e4 92 2e bd
       0.115489066 -0.09690666 -0.11950848 -0.042620555
0003e0 00 16 86 3c 3f 79 90 bd 3b dc d9 bd db 30 32 be
       0.016367912 -0.07054376 -0.10637709 -0.1740145
0003f0 48 c7 c9 bd 1c 63 11 3e cd f3 ec bb 55 4b 25 3e
       -0.09852463 0.14197963 -0.0072312118 0.16142018

model.encoder.eb_encoder.0.4.bias f4 [32]
000000 22 24 02 be 58 85 28 3e 68 f4 1c be 08 42 0a 3e
       -0.12709096 0.16457117 -0.15327609 0.13501751
000010 fd 67 d0 bc 0a 26 6d 3e 17 a9 9a bd 59 eb 7d bd
       -0.02544021 0.23159042 -0.075517826 -0.061992023
000020 ce c0 d4 3d 37 67 34 be e0 4d b4 bd 85 b4 6d bd
       0.10388337 -0.17617498 -0.08803916 -0.058033485
000030 48 10 ed bd 78 ab a0 bd a4 0c 28 be 7f 7c 3b 3d
       -0.11575371 -0.07845205 -0.16411072 0.045773026
000040 44 51 ff bd a8 5f 99 bc 90 5e 21 3d 69 34 7d be
       -0.12466672 -0.01872237 0.039396822 -0.24727024
000050 d2 b1 15 bd 3f 70 a6 3d 5f 56 09 be 27 1f 38 3e
       -0.036546536 0.08126878 -0.13411854 0.17980634
000060 da 50 f1 bd ab 6c 82 3d f0 c6 03 3e ef db 37 bd
       -0.11782999 0.06368383 0.12868857 -0.04488748
000070 93 f6 8c bb 9a ff 86 bd 91 5d 12 3d 94 34 fa bd
       -0.004301855 -0.06591721 0.035733763 -0.1221706

model.encoder.eb_encoder.0.6.weight f4 [32, 32]
000000 75 5d 35 be 76 95 66 bc 27 b4 1f 3e 4f 94 d4 bd
       -0.17711432 -0.01407372 0.15596066 -0.1037985
000010 54 3d 03 3d 91 50 76 3d 53 07 50 3c e8 08 f9 bd
       0.03204091 0.060135428 0.012697059 -0.12159902
000020 74 12 e1 bd 92 94 ba 3d 88 09 34 3e cf f0 76 bb
       -0.10989848 0.09110369 0.17581761 -0.0037680154
000030 db f5 00 3e ae a8 aa bd 0c 8c 50 bd f1 eb 21 be
       0.12593786 -0.08332954 -0.05091481 -0.15812661
000040 12 7a 49 bd 9e 64 c2 3d 49 6d 6f be c2 f8 3c 3d
       -0.04918868 0.094918475 -0.23381533 0.04613567
000050 13 1b 56 3c f9 4a 8d bd 04 88 07 3c 03 fe ea bd
       0.013067978 -0.068990655 0.008272175 -0.1147423
000060 20 72 d6 bd 8f e4 85 3d a8 27 43 3e 77 15 14 be
       -0.10470986 0.06537735 0.19058096 -0.14461313
000070 2c 28 82 3c 55 af a2 3d cb 55 15 bc 33 44 9e bd
       0.015888296 0.07943598 -0.009114693 -0.07727852
000080 63 17 a1 3c 93 06 d1 bd f6 c4 37 be c4 85 67 3d
       0.019664472 -0.10206332 -0.17946228 0.056524053
000090 51 b4 e4 bd b3 ac c4 bc ca e4 2f bd de 30 d2 3d
       -0.11167205 -0.02400813 -0.0429428 0.10263227
0000a0 3d 92 0a 3d f7 58 0c be c2 aa 11 be 72 e3 bd 3d
       0.03383087 -0.13705812 -0.14225295 0.092718974
0000b0 c3 3e 96 bb a7 93 22 be 18 6c 64 3d 9f 52 2f 3d
       -0.0045851185 -0.15876637 0.05576715 0.042803403
0000c0 97 91 de 3d 04 c7 66 be e6 5f d1 3d 25 d9 52 be
       0.10867613 -0.22536856 0.10223369 -0.20590647
0000d0 b8 f4 ba 3d 80 eb 81 bd 0f a0 94 3c 02 f7 f9 3c
       0.09128708 -0.06343746 0.018142728 0.03051329
0000e0 f1 df b6 bd b6 a1 83 bd 68 5b 19 bd 91 aa 2e be
       -0.08929432 -0.06427328 -0.037440687 -0.17057253
0000f0 be 73 4c be 91 b2 4c 3e ce 3a ca 3d 2a 98 2d be
       -0.19966027 0.19989993 0.09874497 -0.16952577
000100 53 3d 20 3c b4 20 1f 3e d1 cb 94 3d 19 97 27 3b
       0.009780246 0.15539819 0.072654374 0.002557224
000110 8a b1 26 3e 68 69 16 3b d9 72 8a 3d ff 67 d8 3d
       0.16278663 0.002295101 0.06760187 0.10566711
000120 e9 5b dd 3d 7e 42 22 be ed 82 c0 3d 5f fb 35 3b
       0.10808546 -0.15845677 0.09399972 0.0027768237
000130 18 36 35 bd 0d 98 ae bd 69 e8 9c bd 5e b2 35 3d
       -0.04424104 -0.08525095 -0.07661516 0.044359557
000140 e4 b5 d3 bd 55 a1 09 be d2 b1 a0 bc 3d 28 06 3e
       -0.10337427 -0.1344045 -0.019616041 0.13101287
000150 18 b7 97 bc 5e df 04 3e 12 85 c7 3b de b6 10 bd
       -0.018519923 0.12975833 0.0060888613 -0.035330646
000160 05 8f 02 3e a8 a3 83 3d a2 19 32 3d 01 61 8a bd
       0.1274987 0.06427699 0.043481477 -0.06756783
000170 bf ba 05 3e a4 54 e4 3d 74 df fc bd ba dd cb bd
       0.13059519 0.111489564 -0.12347308 -0.099544
000180 28 d7 9e bd 5e db 1f be de 5a 25 3e 36 fe 20 3e
       -0.077558815 -0.15611026 0.16147944 0.15721974
000190 ca 53 49 3e bb 94 1d bd ee d5 48 3d d9 ba 73 bd
       0.19660869 -0.03847192 0.049032144 -0.059504364
0001a0 17 5c 35 3e 35 fb f5 bd 36 84 87 bc 82 5e 9d 3c
       0.1771091 -0.120108046 -0.016542535 0.019210104
0001b0 72 26 1c be 51 ab 05 3e 20 47 cf bd 66 90 15 be
       -0.1524904 0.13053633 -0.10120988 -0.14605865
0001c0 af 71 97 3d 37 73 4f 3d 66 6b 57 3d 1d cf 29 be
       0.0739473 0.050646987 0.052592658 -0.16582914
0001d0 45 66 b6 3d e6 fd 88 3d 8e 8a 9a 3c 2e dc e1 bb
       0.08906225 0.06689052 0.018864896 -0.0068927025
0001e0 66 b0 e1 bb 0d ff 42 bd 11 8a 08 bd 06 89 60 3d
       -0.0068874834 -0.047606517 -0.033334795 0.054818176
0001f0 1e a4 ea bd 2c 04 a5 bd 1d ec 66 3d 1d 3d df 3d
       -0.11457084 -0.08057436 0.05637752 0.10900328
000200 3b 18 c2 bd 4d 45 46 bd cb 1c f4 bd 90 bf a6 bd
       -0.09477278 -0.048405934 -0.11919554 -0.081420064
000210 71 f4 1d be 75 b9 30 3d ff ea 18 3d c7 55 c1 3d
       -0.15425278 0.043145616 0.037333485 0.09440189
000220 d1 3e c6 3d a6 5f 1b be 0f d6 3d 3e 5b b6 31 bd
       0.0967995 -0.15173206 0.18538688 -0.0433868
000230 b1 33 d5 bd 91 0b 21 3d bf 0c fc 3d f3 e5 0f be
       -0.1041025 0.03931767 0.123071186 -0.14052562
000240 4f 75 02 3c 25 07 7b 3d f9 a6 e5 bd e3 da 44 be
       0.007962539 0.06128611 -0.11213488 -0.19224124
000250 af c0 55 bc 89 0f a2 3c b3 93 9f 3d af ea e5 bd
       -0.013046428 0.019782798 0.07791843 -0.11226403
000260 05 e8 d6 bd 69 d1 a4 3d 62 22 06 be fc 7c 8f 3c
       -0.10493473 0.08047754 -0.13099054 0.017515652
000270 63 9d 22 be be fa 08 3e 84 36 65 3d 08 f5 a1 3d
       -0.15880351 0.133769 0.055960193 0.07908064
000280 2f b9 0a 3d 69 69 1e 3e d9 da 66 be f3 49 0e 3e
       0.03386801 0.15469898 -0.22544421 0.13895397
000290 69 b3 3b 3d 1a c1 a1 bd 29 b6 e0 3d 0e a7 a0 bd
       0.045825396 -0.07898159 0.10972244 -0.07844363
0002a0 e6 cd e6 3d df 4f 2e be 79 d2 84 bd d7 48 30 3d
       0.11269741 -0.17022656 -0.06485457 0.043038215
0002b0 d0 aa 0e 3d 62 3b cc bd 9a f2 3d be 54 03 27 bd
       0.03483087 -0.09972264 -0.18549576 -0.04077466
0002c0 e2 f9 af bd d5 9b 52 3d ec b4 0a 3e b1 c9 1a be
       -0.08592583 0.051418144 0.13545579 -0.15116002
0002d0 d4 31 ca bc 48 70 41 3d 68 3d 08 bd fc c4 95 3e
       -0.024681963 0.04722622 -0.033261687 0.2925185
0002e0 43 c5 4a bb 35 80 9f bd cd c0 cf bd 11 23 81 bd
       -0.003094033 -0.077881254 -0.10144196 -0.063055165
0002f0 0f 36 fe 3d 38 6d 28 be 7d eb 0b bb 67 c4 36 3e
       0.124126546 -0.16447914 -0.0021350079 0.17848359
000300 f5 b0 51 bd 14 16 08 3e da b3 68 3d d6 5c 76 bc
       -0.05119415 0.13289672 0.056812145 -0.015036782
000310 c6 2d 1c 3e ee 82 7e 3b eb c0 c0 3d a9 81 18 bd
       0.15251836 0.0038835364 0.09411796 -0.03723303
000320 fe c2 94 bd ab 71 b5 bc e5 44 9b bd 01 7a e0 3d
       -0.07263754 -0.022148928 -0.075815 0.109607704
000330 27 57 af bd 9e e0 b0 3d be 12 36 bd 09 1b 9d 3d
       -0.08561545 0.08636592 -0.044451468 0.07671172
000340 2c 40 9c bc bf e5 e1 3c e0 72 58 bc cb 6b 23 3e
       -0.019073568 0.027575372 -0.013210982 0.15959089
000350 42 f9 0d 3e 39 20 63 3e de 76 37 bd a2 50 75 3d
       0.13864616 0.2218026 -0.044791095 0.05989135
000360 8f 2a 09 3e 15 d9 63 3d a7 92 48 3e d0 b6 cb bd
       0.13395141 0.055626947 0.19587193 -0.09946978
000370 7f f1 db 3d 66 51 c2 bd 9b 95 37 be 8b 99 ae bd
       0.10739421 -0.09488182 -0.17928164 -0.0852538
000380 f6 da cc 3d b9 f3 e3 bd 8e fa d1 bd f9 a5 0b be
       0.10002701 -0.11130471 -0.10252868 -0.13637532
000390 ac 60 90 bd cc 51 7a 3d d8 2f 1d 3d 8c 73 0c 3e
       -0.07049689 0.061113164 0.038375705 0.13715953
0003a0 8e 08 2e 3e 66 5b 33 3d 66 6f 2f bc 7c e2 9b bd
       0.16995451 0.043788336 -0.010707712 -0.07611558
0003b0 7a 6e 48 bc 4f 12 b1 3d 76 2f 55 3d 1a 89 fa bd
       -0.012233371 0.0864607 0.052047215 -0.12233181
0003c0 14 67 87 3c cf 2c 09 be dd bd b7 bd e1 a2 f1 3d
       0.016528644 -0.13396 -0.089717604 0.11798645
0003d0 60 5c 09 be 93 0b 2d be 2b 65 00 3e 27 56 7d bd
       -0.13414145 -0.16898946 0.12538593 -0.06184974
0003e0 64 3f 34 bd 4b 39 5d bc 32 83 8d bd 0f 22 9d bd
       -0.044005767 -0.013502429 -0.06909789 -0.07672512
0003f0 ad 34 73 3d a2 32 07 3d 19 ce 37 3e 8e ef 8b 3d
       0.059376407 0.03300727 0.17949714 0.06832801

model.encoder.eb_encoder.0.6.bias f4 [32]
000000 a5 34 3b 3e 48 74 4f 3d 9b c9 2c be ff aa 35 3e
       0.18281801 0.050648004 -0.16873781 0.17741011
000010 53 10 1f 3e de 49 52 3e 76 92 27 bd ec 75 da 3d
       0.15533571 0.2053599 -0.04091116 0.10667023
000020 09 e1 4d 3e da cc 2a bc ed 98 c3 3d 87 a3 5c be
       0.20105375 -0.010424817 0.09550653 -0.21546756
000030 f7 af 90 bd ff a9 19 be 06 b9 88 bc 3d f6 14 bd
       -0.07064813 -0.15006255 -0.016689789 -0.036367644
000040 f4 ed 33 3d c9 0e c7 3d 10 bf 28 be 3d 04 98 3d
       0.0439281 0.09719617 -0.16479135 0.074226834
000050 6a 91 19 3e c4 a3 e4 3d ea fc cd bd 19 2e a1 bd
       0.14996877 0.11164048 -0.10058005 -0.078701206
000060 72 ec 02 be 4f ae 27 be ff ee db 3d c6 aa 45 3e
       -0.12785509 -0.16375087 0.10738944 0.19303426
000070 cf b0 8c ba 74 cf 12 3b 6b d7 48 bc 35 db d8 3d
       -0.0010733845 0.0022401484 -0.012258391 0.105886854

model.encoder.eb_encoder.1.weight f4 [32]
000000 41 eb 8c 3f c3 27 82 3f ec 38 85 3f f1 a6 82 3f
       1.1009294 1.0168384 1.0407996 1.0207196
000010 4c 33 82 3f 41 d6 80 3f c0 d6 85 3f 3f 29 85 3f
       1.0171905 1.0065385 1.0456161 1.0403212
000020 55 93 84 3f c4 3e 87 3f 01 9e 8c 3f 00 91 86 3f
       1.0357462 1.056603 1.0985719 1.0513
000030 a5 41 87 3f 68 ab 85 3f cc 31 81 3f d7 62 81 3f
       1.0566908 1.0442934 1.0093322 1.0108289
000040 b7 c0 82 3f d0 99 77 3f c0 d1 81 3f e9 36 83 3f
       1.0215062 0.96719074 1.0142136 1.0251132
000050 48 59 87 3f 97 8c 81 3f 7f c8 8c 3f 65 86 79 3f
       1.0574121 1.012103 1.0998687 0.97470695
000060 97 8c 80 3f 8b c5 87 3f 15 4b 83 3f fc 3c 88 3f
       1.0042905 1.060716 1.0257288 1.0643611
000070 08 8d 73 3f 7c bf 80 3f a0 e1 81 3f d9 ad 71 3f
       0.9513707 1.0058436 1.014698 0.94405895

model.encoder.eb_encoder.1.bias f4 [32]
000000 54 68 72 3c cc d0 4e bc d0 f5 a9 bb a3 98 8c bb
       0.014795382 -0.012623023 -0.005186774 -0.0042906567
000010 a6 05 57 bb ac 80 ff bb 63 19 c6 3b c6 6e a7 ba
       -0.0032809763 -0.0077973213 0.006045507 -0.0012774102
000020 4d 7b 16 bc 78 fb f7 3b 4b f1 cf bb e8 c0 40 ba
       -0.009184671 0.007567819 -0.006345903 -0.0007352964
000030 a9 06 b9 3a c7 14 82 ba 2a af a1 bb 43 96 23 bc
       0.0014116365 -0.0009924405 -0.0049342113 -0.009984556
000040 99 a7 9b 3c 09 ab e3 ba da c6 b7 bb d9 d0 e4 bb
       0.019000815 -0.0017369698 -0.0056084218 -0.0069829044
000050 d0 77 da 3a c0 80 04 bc 2b 5e 2d bc 58 c3 fd 3b
       0.0016667787 -0.008087337 -0.010581533 0.007744234
000060 9b f7 b5 bb 53 69 51 3b 5f b9 c7 3b 31 b2 41 3c
       -0.0055531985 0.0031953647 0.006095096 0.011822269
000070 9d f7 35 3c a1 84 79 3c a9 9b ab bc fc 6e b7 bb
       0.011106399 0.015229375 -0.020948248 -0.005597947

model.encoder.nb_encoder.0.0.weight f4 [32, 10]
000000 b6 3b 77 3e ed 37 99 3d 9a af ae bd 1a 4b f5 3d
       0.24143872 0.0748137 -0.08529587 0.11977215
000010 35 f7 dd bd a4 0b 00 be cf d8 55 3e 19 52 5d bc
       -0.108381666 -0.1250444 0.20883487 -0.013508343
000020 13 4c 28 3f 10 3d 04 3f cd a4 26 be 96 8d f1 3d
       0.6574108 0.51655674 -0.16273804 0.117945835
000030 5f 26 c8 3d ec b4 2f be 49 80 74 be 5c f7 26 be
       0.09772944 -0.1715886 -0.23877062 -0.16305298
000040 e3 5a 3f be 2a 3e c1 3d 1f 12 a2 3e 4a 48 84 be
       -0.18687014 0.09435685 0.3165445 -0.25836402
000050 01 04 bd bd f7 2a 0c 3e 5e 35 3e be 10 be e8 bc
       -0.09229279 0.13688265 -0.18575045 -0.028410941
000060 7d 34 db bb 65 5b 8c bd 34 cc a5 3d d2 8e 4e 3d
       -0.0066896067 -0.068533696 0.08095589 0.050429173
000070 da a1 ad 3e b8 e3 91 be 06 ba b3 3e ad 34 90 be
       0.33912545 -0.28494048 0.35102862 -0.28165188
000080 c1 ec d8 3c f8 97 f8 3d 3d 19 08 3e 78 90 1b 3d
       0.02648008 0.12138361 0.13290878 0.037979573
000090 35 ac 30 3d c8 a8 f4 3d 4a 50 a8 3e 97 df f2 3d
       0.04313298 0.11946255 0.32873756 0.11859053
0000a0 88 63 8a be ca 31 8b 3e b6 7c 57 3d 6d b8 a1 3d
       -0.2702906 0.27186424 0.052609168 0.078965046
0000b0 9f f4 34 be ce 65 32 3e 49 59 7f 3d de 73 6f 3e
       -0.1767144 0.17421648 0.06234101 0.23384044
0000c0 1d ef 29 3e 9f cd 20 3c 9c cb 8a be 4d ce 94 3e
       0.1659512 0.009814649 -0.27108467 0.29063645
0000d0 b8 d9 8c bd 2c ab 4f bc da a0 4b be 2b 38 1b 3e
       -0.06877464 -0.012675088 -0.19885579 0.15158145
0000e0 5d 20 bc be 67 1e 2c bc d2 18 b3 be ac 16 6a 3e
       -0.3674344 -0.010505295 -0.34979874 0.22860211
0000f0 0a a5 05 3e 78 e2 18 3e d5 96 af bc f2 5b 3f be
       0.13051239 0.14930141 -0.021434227 -0.18687418
000100 e3 33 55 be 99 fc 6b bc 4c 91 95 bd 23 32 cb bf
       -0.20820574 -0.014403486 -0.07303104 -1.5874676
000110 84 50 0e 3e 43 1f 1c bf 18 c7 9e 3d 31 f9 1b be
       0.13897902 -0.609852 0.07752818 -0.15231778
000120 e7 20 3b 3e 21 96 19 3d dd d9 f6 be 75 98 76 3e
       0.1827427 0.03749669 -0.48213091 0.24081595
000130 50 00 23 be 2b bf 25 be b4 b3 d9 be 91 8e d4 3e
       -0.15918088 -0.16186206 -0.42519915 0.4151502
000140 78 39 97 3e 4d f0 0f 3e 40 41 1d 3e 1c 76 1d be
       0.29536033 0.14056511 0.15356922 -0.15377086
000150 ff 2b 68 bc dc 12 77 be 04 73 d6 3c 2f 4c c9 bd
       -0.014170646 -0.24128288 0.02617789 -0.09828984
000160 a7 78 76 be 33 c8 a2 be 53 41 7f 3d 7a ca d1 3d
       -0.24069463 -0.31793365 0.062318157 0.102436975
000170 3d d8 e4 3d 90 7e c9 3d 99 66 5b 3e 71 f5 f0 3d
       0.11174057 0.09838593 0.21425857 0.11765564
000180 82 d3 8a bd aa 61 db bf 11 b0 c4 bd e0 59 9f bf
       -0.06778623 -1.713918 -0.096038945 -1.2449303
000190 08 98 aa 3a 7d ed 3e 3d ca 3e 3a bd 1a b8 83 3e
       0.001301528 0.046613205 -0.045470037 0.25726396
0001a0 11 70 10 be a3 1c 89 3c 7e 20 a6 3d 40 fe d9 3c
       -0.1410525 0.016737288 0.08111666 0.026610494
0001b0 ef 6b fc 3e 16 cf 6c be c4 ad 10 be 2a ea 75 3e
       0.49301097 -0.23125872 -0.14128786 0.24015108
0001c0 01 b4 56 3e b6 46 9e bd 1e 26 8b be b7 a6 48 3e
       0.20967104 -0.07728331 -0.2717752 0.19594847
0001d0 f7 06 86 3d 67 80 9b bb ef 49 98 be d9 4e 6d bc
       0.06544297 -0.0047455314 -0.29743907 -0.014484131
0001e0 f5 0e 54 bd b7 cf 97 be 31 d8 33 3e d9 d5 08 be
       -0.051772077 -0.2965066 0.17562939 -0.13362826
0001f0 21 2c 3f 3d a6 56 71 be d5 31 98 3e 8b 7e d1 3b
       0.046672944 -0.2356821 0.2972552 0.006393259
000200 01 61 6a 3c 5f 23 83 bd 2f f7 8d 3e 4f 2f f1 bc
       0.014305354 -0.06403231 0.2772765 -0.029441504
000210 fd 1c b8 3d 7a 0c 09 ba 2f 23 2f 3e 72 76 4d 3d
       0.08989904 -0.00052279944 0.17103265 0.050161786
000220 58 21 8d 3d 56 34 89 3e 07 8b 98 3e 44 0f 6e bd
       0.068911254 0.26797742 0.2979357 -0.058120027
000230 55 22 9e 3e 3c c0 7c 3e 71 05 c1 bc dc 96 78 be
       0.30885568 0.24682707 -0.023562165 -0.24276298
000240 87 dc 05 3e a4 3f 65 be 0c 9f 7a 3e 02 af b5 bd
       0.13072406 -0.22387558 0.24474734 -0.08871271
000250 3a 94 82 3e 1a 7f 31 3d a1 bf 58 3d c1 6f e6 bc
       0.25503713 0.043334104 0.052917127 -0.02812946
000260 e7 fb 6a bd 85 6c 8e 3c 2f cd 20 3e e9 56 01 3d
       -0.05736914 0.01738573 0.15703271 0.031577025
000270 9f 1b 99 3e 1b 28 34 bc 31 ca 6e be 7d 27 18 3e
       0.29903886 -0.01099589 -0.23319317 0.14858814
000280 69 4e 42 bd b7 3a a7 be c4 a0 94 3d e5 1a dc 3d
       -0.04743806 -0.32661983 0.07257226 0.10747317
000290 71 d3 88 be e3 77 a4 bc f6 d0 80 bd 37 d6 a5 3d
       -0.26723817 -0.020076698 -0.06289856 0.08097499
0002a0 a9 b3 46 be c5 88 20 be f0 27 04 be 76 12 41 be
       -0.19404472 -0.15677173 -0.1290586 -0.18854699
0002b0 ef 1a 68 3e 01 54 83 3d 27 27 79 be 87 ae 2f 3d
       0.22666524 0.06412507 -0.24331342 0.04289105
0002c0 83 e8 69 be 93 1a ee 3d 27 b8 02 bf 3a 29 a3 3e
       -0.22842602 0.116261624 -0.51062244 0.3186739
0002d0 0e e1 a5 3e 4d 46 f6 3d 29 9e 3b bd f5 a2 46 3e
       0.32398266 0.120251276 -0.04580513 0.193981
0002e0 5e 25 86 3d b7 18 82 bd 4c f9 03 3f d2 23 fb be
       0.06550096 -0.0635237 0.5155227 -0.49050766
0002f0 86 ba a1 3e 81 89 c5 3d 5f 9a e4 bd c9 9f 0d be
       0.3158762 0.096453674 -0.111622564 -0.13830484
000300 0b 2f b5 3d 4e 40 3e bd 8c eb 9c 3e cb 5d ca be
       0.08846863 -0.046448044 0.30648458 -0.39524683
000310 1e 89 72 3e a5 27 a4 bd 09 20 cc 3e f7 f2 6a bd
       0.23685119 -0.08015374 0.3986819 -0.057360616
000320 12 c5 2c be 66 89 83 3e 71 87 6f 3e 90 2b 9d be
       -0.16872051 0.25690764 0.2339151 -0.30697298
000330 11 77 9d 3c 9c 98 6f bd fb 64 d6 bd 9d 29 04 bd
       0.019221814 -0.05849515 -0.10468479 -0.032266248
000340 01 49 0f be 83 ba 05 be 26 ef d1 3d 88 25 8e 3e
       -0.13992693 -0.1305943 0.10250692 0.2776301
000350 dc 66 a9 bc f4 ce 75 be 3f 9a 8a 3e 9f 69 53 3e
       -0.02067893 -0.24004728 0.27070805 0.2064576
000360 c5 0c 98 3e 9f ad b3 bc 25 b0 7c 3e 53 58 32 3c
       0.29697242 -0.021933375 0.24676569 0.010885316
000370 3c 55 62 3e 5b 1f 60 3e 07 2e 8a be fb dc 27 be
       0.22102827 0.21886961 -0.2698824 -0.16392891
000380 ce 68 06 3e 49 f6 6e be 95 61 08 3e 95 08 51 3e
       0.13125917 -0.23336138 0.13318475 0.2041343
000390 58 03 8a be e2 77 a6 3e 1a c8 55 3c f3 9b 83 3c
       -0.26955676 0.32513338 0.013048196 0.016065573
0003a0 48 a3 45 be 7d 2c 41 be d2 4e d7 be 2e 87 02 3e
       -0.19300568 -0.18864627 -0.42052323 0.1274688
0003b0 45 56 75 be 3f a0 02 3d 15 92 4f 3d 6f 96 02 be
       -0.2395869 0.031891104 0.050676424 -0.12752698
0003c0 bb c3 a2 be 84 7e a1 3c 78 2e 8b bd 9e a1 1d 3d
       -0.31789955 0.019713648 -0.067959726 0.03848421
0003d0 4b 96 89 3e d4 f5 2a 3d 91 15 a1 3d 59 9e 85 3e
       0.26872477 0.041738346 0.078654416 0.26097372
0003e0 c1 f9 c5 3e fa 5c d6 be f8 d7 44 3e 9b f4 e0 3d
       0.3866711 -0.4186781 0.1922301 0.10984155
0003f0 0b d9 8c be 3b 92 2d be 9a e1 a1 3c 4e 9a b3 be
       -0.2750934 -0.16950314 0.019760896 -0.35078663

model.encoder.nb_encoder.0.0.bias f4 [32]
000000 b6 68 d8 3e 59 50 9b be d4 9b 5f 3e 2d b4 97 3e
       0.42267388 -0.30334738 0.21836787 0.2962965
000010 56 ca 20 3e 93 79 37 be 46 99 d5 3e 95 f5 d9 3e
       0.15702185 -0.1791747 0.417185 0.42570177
000020 ca 75 cb 3e af 83 83 3d c6 63 c2 bd 3c c4 35 3e
       0.39738303 0.06421601 -0.094916865 0.17750639
000030 77 3a bd 3d 2b 6a cb bd 32 60 9e 3e b1 38 e8 3e
       0.09239667 -0.09932359 0.30932766 0.45355752
000040 04 a9 5d 3e 91 71 9c be 08 ba 0e 3f c0 3b 86 3e
       0.21646506 -0.30555394 0.5575261 0.2621746
000050 01 b4 30 3e 27 b3 19 3e bd e5 aa 3d 5c 97 8d 3e
       0.17256166 0.15009747 0.083446 0.2765454
000060 67 9d fc bd e3 93 d5 3e 99 3e 5f 3e 60 77 d2 3c
       -0.123347096 0.4171439 0.21801223 0.025691688
000070 d5 8f 01 3e b4 89 4d 3d 8f ce 0b 3f 41 5a 65 bc
       0.12652524 0.050180152 0.5461206 -0.013998569

model.encoder.nb_encoder.0.2.weight f4 [32, 32]
000000 3b 9b 89 3d 5e 37 e0 3d f7 86 9c bd a6 b9 47 3d
       0.06719061 0.109480605 -0.0764293 0.048761033
000010 ca 98 d5 bd 60 b3 ca bd b4 82 d0 be 13 88 4a be
       -0.10429533 -0.09897494 -0.4072472 -0.1977847
000020 47 1e f7 ba 2b 75 a3 be 70 9d 92 ba 43 9b f3 bc
       -0.0018853628 -0.3192533 -0.0011185836 -0.02973712
000030 c9 3a 05 3c d8 b2 03 3c 88 c4 09 3e d6 08 cb 3d
       0.008131691 0.008038245 0.13453877 0.09913795
000040 26 26 b3 bd 44 ef f3 3d 70 f4 f4 3d 38 e0 5b be
       -0.087475106 0.11910871 0.11960685 -0.21472251
000050 e9 0d ae bd 61 71 8f 3d e2 15 2c 3e 27 6f 93 bd
       -0.08498747 0.07004047 0.16805223 -0.07198935
000060 26 f0 e4 bd d8 c1 29 bc e6 b2 4c 3d 63 2a 34 be
       -0.11178617 -0.010361157 0.0499753 -0.17594294
000070 38 b0 72 3d b0 18 ca bd 78 14 e2 bd 47 a2 a3 3c
       0.059250087 -0.0986799 -0.1103906 0.01997484
000080 0a 90 4b 3d 5c 32 02 3c c8 75 af 3d 45 5b 97 3d
       0.049697913 0.007946577 0.08567387 0.07390455
000090 ef 37 1c bc 2f c9 82 bc ab ec 11 3e 98 d4 8a bd
       -0.00953482 -0.015965072 0.14250438 -0.0677883
0000a0 21 ec bc 3b f5 d0 b6 3d 62 74 f3 3d 2e 05 06 3e
       0.0057654534 0.08926574 0.11887433 0.13087913
0000b0 1f 0b f7 3e d3 d2 d5 bd 19 d9 7a 3c 74 62 99 be
       0.48250672 -0.10440602 0.015310549 -0.29957926
0000c0 47 2d 78 3e eb 74 62 3d 3b 14 6a 3e 3f 0e db bd
       0.24236022 0.055287283 0.2285928 -0.106960766
0000d0 8b 53 0e 3e 21 e9 9b 3d 40 2b e2 bd 5c a5 e8 3e
       0.13899057 0.07612825 -0.110434055 0.4543866
0000e0 fd 2a c1 bd 9f 5a 7b 3e 8f 62 0b 3d 42 e7 eb 3d
       -0.094320275 0.24546288 0.03402954 0.11518718
0000f0 a7 b8 17 be ee b1 46 3e 81 af 01 be 68 9b cc bd
       -0.14816533 0.19403812 -0.12664606 -0.09990579
000100 19 1d 40 3d ad 5f 3e be 95 43 01 3d 95 7c c9 3d
       0.04690275 -0.18591185 0.031558592 0.09838215
000110 21 eb dc 3d 1f 6b 37 3e db 54 b0 bd 98 52 60 be
       0.10787035 0.17911957 -0.08609935 -0.21906507
000120 69 b9 10 3e 5f 2c 02 3d c7 33 70 be 9a e1 83 3c
       0.14133228 0.031780597 -0.23457251 0.016098786
000130 44 58 e6 3d 59 63 f6 3d d8 a7 99 3b d8 eb 32 3e
       0.11247304 0.12030668 0.004689198 0.1747278
000140 ab 8b b3 3d 58 ad 42 3d 0a bd 35 bd 94 08 c8 bc
       0.08766874 0.047528595 -0.044369735 -0.024418153
000150 c2 83 08 bd 82 15 78 3d 63 8e 02 3e 84 11 a7 3d
       -0.03332878 0.060567386 0.12749629 0.08157638
000160 0b 69 17 be a8 0d a0 bd 9c 8b 27 3d 70 3c 25 be
       -0.14786164 -0.07815105 0.040904626 -0.16136336
000170 e3 24 10 3e c9 fd 35 bd 2b 0b 0c be 85 23 c2 bd
       0.14076571 -0.04443148 -0.13676135 -0.09479431
000180 c3 43 18 3e bc 72 af 3d fe 71 26 3e 17 83 00 bd
       0.14869599 0.08566806 0.16254422 -0.031375017
000190 b3 00 a8 bb aa 23 9a 3d 48 46 e5 be a4 99 80 3e
       -0.0051270365 0.07526334 -0.44780183 0.25117218
0001a0 1f 3b 90 bc 35 4e a3 bd 85 07 38 3e 0d 60 96 bd
       -0.017606316 -0.07973901 0.17971618 -0.07342539
0001b0 d7 27 52 3e a7 c2 09 3e 9b 0e d8 bd 0c fd 37 bd
       0.2052301 0.1345316 -0.10549661 -0.04491906
0001c0 b5 97 31 be c0 08 fa bd a7 d2 5e 3c 0d 20 ab bd
       -0.17343028 -0.122087 0.013600028 -0.083557226
0001d0 55 46 0f 3e ce 00 69 bd 77 63 d6 3d 4b 30 06 be
       0.13991673 -0.056885533 0.1046819 -0.1310436
0001e0 e8 5c 91 bd 33 01 01 bd 62 4a 82 3d ed 6a ed 3d
       -0.070977986 -0.031495284 0.06361844 0.1159266
0001f0 51 22 61 3d 57 fc d4 bd 73 8e ad 3d 53 6e 76 3d
       0.054964367 -0.103996925 0.08474436 0.060163807
000200 6f 8c 2b bd 67 16 94 bb 48 47 16 be 92 41 fd 3d
       -0.041881975 -0.004519272 -0.14675629 0.12366022
000210 90 2e b2 bd 53 5c 47 be 94 54 ff 3c e3 d2 99 bd
       -0.08700287 -0.19468813 0.03116826 -0.075109266
000220 f8 47 af 3d 54 c1 3c bd 85 76 67 3e 60 01 19 3d
       0.08558649 -0.04608281 0.22603805 0.037354827
000230 86 c3 f8 bd 74 05 34 3d 96 76 0b 3e 6a 22 f9 3d
       -0.12146668 0.043950513 0.13619456 0.12164767
000240 20 8a 04 be 84 94 78 3d ea b0 79 3d e4 5c 21 be
       -0.12943316 0.06068851 0.060959734 -0.15758091
000250 52 9a 18 be b3 05 76 3d 89 ba f9 bd 84 91 28 bd
       -0.14902619 0.06006403 -0.12193782 -0.0411544
000260 1f 6c 1a 3e 4c ee d9 3c b5 f9 3a bd 71 c5 36 bc
       0.15080307 0.026602887 -0.045648295 -0.011155472
000270 f3 6a 91 3e 65 63 32 3e 52 98 11 3e c3 d0 b1 3d
       0.28401908 0.17420729 0.14218262 0.08682396
000280 ef aa 03 be 2a 58 14 bd 61 8f 95 bd c0 2e de 3d
       -0.12858175 -0.036216892 -0.07302738 0.108487606
000290 c1 eb a0 bd 86 c9 5f 3d 5d b2 4f 3d 4a 38 92 3d
       -0.078574665 0.054635547 0.05070721 0.071396425
0002a0 89 3f 09 be 2c b0 2e bd 85 a9 1a 3e 5d a2 f1 bd
       -0.13403143 -0.04264848 0.15103729 -0.117985465
0002b0 d2 74 7e bd db f3 9d 3c 74 9b 4e bd 94 f7 41 3d
       -0.062123127 0.019281318 -0.05044122 0.04735525
0002c0 32 c3 a2 bc bd 8e 00 be 46 93 1c 3d 4e 7d 32 bd
       -0.019868467 -0.1255445 0.03822639 -0.04357653
0002d0 bf de 12 3e f3 83 18 be aa 76 b0 bd e8 27 8d 3d
       0.14342783 -0.14894085 -0.086163834 0.06892377
0002e0 a6 4b 33 bd b0 cd 51 bd 39 26 36 3d de 87 fa bc
       -0.043773316 -0.05122155 0.044470046 -0.030582365
0002f0 df 88 c1 bd 45 7e 81 3d b8 99 0d bd 84 77 ac bd
       -0.09449934 0.06322912 -0.034570426 -0.08421233
000300 da 82 85 3d ee 9f 08 3e 84 12 21 3d 2a c0 58 3e
       0.065190986 0.13342258 0.0393243 0.21167055
000310 74 ed d9 bd a6 f4 dd 3c 28 5d 87 3e d2 1e ed 3c
       -0.10640994 0.027094197 0.2643826 0.02894536
000320 00 1e 3c 3e 2b ee 89 3e 65 0a 24 3c a4 11 5f 3b
       0.18370819 0.2693952 0.010012244 0.0034037614
000330 34 a8 7f 3e bf 06 64 3d b4 0e 0c bd 9c 74 cc bc
       0.24966508 0.055670496 -0.03419371 -0.024957947
000340 ea 0f 00 3e 63 1b 81 bd 7e 90 1d 3f 99 e5 08 be
       0.1250607 -0.06304052 0.615486 -0.13368835
000350 bd ce 08 bc 7e f0 54 bc e7 82 f7 bd 6a b7 49 3e
       -0.0083500715 -0.012996791 -0.120855145 0.19698873
000360 7e b7 24 3e 03 0a 54 bd c1 02 32 be c4 d0 b6 bd
       0.16085622 -0.05176736 -0.17383863 -0.08926538
000370 fb 72 50 bc 35 c5 d3 3c 58 7e 24 3d db 15 c8 bd
       -0.012722726 0.025850872 0.040159553 -0.097697936
000380 ae 9c b0 bd 93 2b 59 3d b7 a1 87 3d 47 fc a0 3d
       -0.08623634 0.05302007 0.066226415 0.07860618
000390 70 ea d6 bd 3a 07 49 3e 71 26 8c 3e cd 60 92 3d
       -0.10493934 0.19631663 0.27373078 0.071473695
0003a0 7f 67 29 3e 79 57 b0 3d 08 d9 67 bb 88 17 0d be
       0.16543387 0.08610434 -0.0035377163 -0.13778508
0003b0 98 ce 6e 3d 8d 38 4f 3e 85 09 2b bd d9 16 9f 3d
       0.058302492 0.20236416 -0.041757125 0.0776803
0003c0 e9 13 88 3b ed a5 0e be 9a d8 08 3e ed 0d 44 be
       0.004152764 -0.13930483 0.13363877 -0.19145937
0003d0 39 9f 8c bc 70 cf 4e bd 42 6f f6 bd ee da 37 be
       -0.017165767 -0.050490797 -0.120329395 -0.17954609
0003e0 af d1 46 3d 2e 08 a1 bc a7 e5 5e 3d 23 1c eb bd
       0.048539814 -0.01965722 0.054418232 -0.11479976
0003f0 4b 5e e3 3a 17 57 27 be 86 d3 7b 3e f1 33 ca bc
       0.0017346827 -0.16341816 0.24592409 -0.02468297

model.encoder.nb_encoder.0.2.bias f4 [32]
000000 e2 1f 30 3c a8 3c 88 3e 5f 70 92 3e ce 1c dc 3d
       0.010749789 0.26608777 0.28601357 0.107476816
000010 7a c9 df 3d fc 3b 2e 3e 9e d5 a6 3e 07 57 38 bd
       0.109271005 0.1701507 0.32584852 -0.04500487
000020 77 65 fe bd b9 63 43 be fa 49 ba 3e ee 9c 84 3c
       -0.12421697 -0.1908101 0.36384565 0.016188111
000030 3c 87 09 be aa 0c 0e be bc ec ce 3c 36 35 fa bc
       -0.13430494 -0.13872018 0.025259368 -0.030542951
000040 ab c8 9f bd ce b2 3d be a4 d9 c8 3d a4 42 9a be
       -0.07801946 -0.1852524 0.09807137 -0.30128968
000050 b2 c8 0e 3e db b4 30 3e 5c 01 75 3d 75 03 28 bc
       0.13943747 0.17256491 0.05981575 -0.0102547305
000060 44 67 78 3d e4 99 2f bd 8d 5f 9d 3d 3f c4 43 3e
       0.060645357 -0.04287137 0.076842405 0.1911783
000070 9a 86 09 be af 1a 93 3e 9f 95 41 3e dc 09 2d be
       -0.13430253 0.28731295 0.18904732 -0.16898292
