new_architecture/checkpoint/checkpoint_15.pth (torch, 735353 bytes, 88 tensors)

encoder.mlp.0.0.weight f4 [64, 13]
00000000: 2e48 9d3d 40d7 05be 212f 543e ba1d ac3d
00000010: 3cfd 0abe 4ef6 2dbe d8a0 7abe e61e 33be
00000020: b496 94bd 4e1d 37be 25ec d8bd f76d 95bd
00000030: 2175 7d3e a41f 63bd 7b7d 7fbe 433c 763e
00000040: ccc6 263e af7e 383e ff59 2fbe f85d a9bd
00000050: 01b4 3a3e 263b 193e 2529 74bc 6743 87bd
00000060: 3492 7f3e c0d8 88bd d5dd b4bd c095 70be
00000070: f30b 293e e78f 15bc 20e3 123d a018 a1bd
00000080: f346 043e 8163 1f3d f27b 51be 012e d53d
00000090: 87c0 223e da7d da3d 2f72 6fbe d493 ba3d
000000a0: 88ce 7dbd a96c 0b3e 29f5 cfbd bd25 873e
000000b0: 4288 213e 17d0 24bd 2d37 74be bd48 6cbd
000000c0: 67dd ad3d bc0f 6fbe 2fbc 55be 1b76 5ebe
000000d0: 60f8 4e3e c06d 483e 4f52 f53d 3892 69bd
000000e0: 8448 96bd 9134 08be 888f 123e 8c04 76be
000000f0: 1a10 83be 3478 7dbe c0e3 6ebe 91c9 7ebe
00000100: 7906 353e aa54 f5bd eedd f63d 5521 353d
00000110: 8129 013d 49c7 ad3d d740 ad3d 135e 943d
00000120: efd5 12be a342 a5bc e82b b5bd ab23 9b3d
00000130: db54 85be 9bb2 863e 149c edbd 6e7e 2dbe
00000140: 7431 163e 1696 823e 1cf0 cdbd 1b1d c3bd
00000150: ac15 9fbc eabf 963d 037b bc3d 44ce 63be
00000160: a988 10be 2c1f e6bc 0e36 c53d cc78 1e3d
00000170: bc96 22be 475a 61bd 36a3 61be a536 01bd
00000180: d304 abbc 4d4e 14be 9e1e 93bc a7cc ef3d
00000190: 1066 543e 6fe9 e2bd 8499 5c3e b6ea 753e
000001a0: 1e7c 66be 01a0 adbd bd40 433e b749 6ebe
000001b0: df07 3d3d 25cb 183e f4f5 72be 22fc 16be
000001c0: 8f8f 7bbe 88d2 103e a253 533c c28b c23c
000001d0: 8a08 f73d cec7 2a3c 1e02 873e cd1a 05be
000001e0: f01c 483e aa1e 11bd 2029 11be ee33 80bd
000001f0: ec56 5e3e 9d19 f43c 299f 503d f302 223e
00000200: 28d7 863e c28b 303e 8451 33be 57ce 2d3d
00000210: bec7 db3d c59b 9fbc 373c 82be a796 e43b
00000220: 18df e4bd 712a 23be b7d0 0ebe db34 ecbd
00000230: 3801 6a3e c6ca 1cbe bd7e 7a3e 1dc7 86be
00000240: 5e84 313d 6111 98bd 093a 39be 0e19 263e
00000250: b0cc 80be e82f 03bc 81c3 d13d 8f96 1e3e
00000260: 276d 143e 68cc 023e 0b60 18be 0e5b 6a3e
00000270: 7873 f83d 270b 35be 73b9 45be 7dbe 973d
00000280: 29ca 4e3e 8682 85be bc5f 2bbe 5d42 453e
00000290: 8caf 18be 3c71 20be a73c 1d3d e10e 073d
000002a0: f8b7 32be f3a8 7dbc 806c 63be 827c 7f3e
000002b0: c1e3 64bd 6f13 273e 7fa0 1abe a1d8 3a3e
000002c0: 3819 8b3e e464 16be e509 383e b73d 863e
000002d0: e4c4 bfbd 1205 ebbc c8c9 a13d 81e8 1d3d
000002e0: 1c72 69be 9771 edbd c052 2c3b ddd4 af3d
000002f0: 6444 51bb 3146 efbd 57c9 58be 9026 0cbd
00000300: 56f0 72be 94e6 0cbe 5696 d6bd 72f1 12be
00000310: 82b2 fc3d 45c5 693e 0967 84be 2648 e33d
00000320: 502e 72be 2306 553d f775 103d 49c6 ffbd
00000330: c28b ce3c 9046 cabd 53b4 0f3e 419d 6d3e
00000340: a8f7 5ebd e06e 663e 8951 4a3d a6ee bcbd
00000350: 955e 3f3e 15d4 853e 45c4 d9bc 60bc 12be
00000360: 10d3 36be 8068 303c 5fd5 37be 18ec 493e
00000370: 3c0a c23c 0ee1 75be 7ec5 81be 27c5 33bd
00000380: 829d 173e 7882 3abe d55a 2d3e 8db7 413d
00000390: d474 47be 50d0 44be 1f57 77be 0134 82bc
000003a0: bdb9 c6bd 55ec 133e 2a72 433e 6294 853e
000003b0: 6f18 f1bd 93e0 0b3e f403 babd 71e5 7fbe
000003c0: ca23 6b3e 3071 a4bd fc61 243d e1da 673e
000003d0: b853 5f3e 68c5 853d 9892 7fbe 0a0c 87be
000003e0: c816 5c3e 029a 3c3e 0797 02be 0211 babd
000003f0: aac4 38be c30d fc3d 0195 e1bc 06aa 84bd
0.07679783 -0.13070393 0.20721103 0.084041074 -0.13573164 -0.16988489 -0.2447542 -0.17492256
-0.07255307 -0.17882273 -0.10591916 -0.07296365 0.24751712 -0.055450097 -0.24950211 0.24046426
0.16286772 0.18017076 -0.17124175 -0.08269876 0.18232729 0.1496397 -0.014902388 -0.06604653
0.24958116 -0.06681967 -0.088313736 -0.23494625 0.16508465 -0.009128547 0.035861135 -0.07866025
0.1291769 0.038913254 -0.20457438 0.10409165 0.15893756 0.106685355 -0.23383401 0.09110227
-0.06196454 0.1361567 -0.101541825 0.2639598 0.15774634 -0.040237512 -0.23849173 -0.057686556
0.08489495 -0.23345846 -0.20872568 -0.21724741 0.20211935 0.19573116 0.1197859 -0.05702421
-0.0733805 -0.13301302 0.14312565 -0.24025172 -0.25598222 -0.24752885 -0.23329067 -0.24881579
0.1767825 -0.11979039 0.120540485 0.04422124 0.03153372 0.08485276 0.08459633 0.07244506
-0.14339422 -0.020173376 -0.08846265 0.075751625 -0.26041302 0.2630814 -0.11602035 -0.1694276
0.14667302 0.2550513 -0.10055563 -0.09527036 -0.019419514 0.073608235 0.0920315 -0.22246653
-0.14114632 -0.028091036 0.09629451 0.03868942 -0.15877813 -0.055017736 -0.22034916 -0.031546254
-0.020876324 -0.14482994 -0.017958935 0.11708956 0.20742059 -0.1107968 0.21542937 0.24015316
-0.22508284 -0.08477784 0.19067664 -0.23270307 0.046150085 0.14921243 -0.23726636 -0.14744619
-0.24566482 0.14142811 0.012898358 0.023748282 0.120621756 0.010423614 0.26368803 -0.12998505
0.19542289 -0.035429634 -0.14175844 -0.06259905 0.21712846 0.02979737 0.050933037 0.15821438
0.26336026 0.17240813 -0.17511564 0.04243311 0.10731457 -0.019483456 -0.25436565 0.006975967
-0.11175364 -0.15934159 -0.13946806 -0.11533519 0.22852027 -0.15311727 0.2446241 -0.26323786
0.043339126 -0.0742519 -0.18088545 0.16220495 -0.25156164 -0.008007027 0.102423675 0.15487121
0.14494763 0.12773287 -0.14880387 0.22886297 0.12131399 -0.17680036 -0.19309025 0.0740938
0.20194305 -0.26076144 -0.16735739 0.19263597 -0.14910716 -0.15668195 0.03838792 0.032973174
-0.17452991 -0.015482175 -0.22209358 0.2494984 -0.055881266 0.16316007 -0.15100287 0.182467
0.27167678 -0.14686924 0.17972524 0.2621896 -0.09363726 -0.028688941 0.07899815 0.03855181
-0.22797436 -0.11593931 0.002629444 0.08585522 -0.0031931633 -0.1168331 -0.21170555 -0.034216464
-0.23724493 -0.13759834 -0.10477893 -0.14349917 0.12338735 0.22829159 -0.2585986 0.110977456
-0.2365048 0.052007806 0.03526875 -0.12488992 0.025213126 -0.0987674 0.14033632 0.23204519
-0.054435402 0.22503233 0.049394164 -0.09225206 0.18688424 0.26138368 -0.026582846 -0.14329672
-0.17853951 0.010767102 -0.17952488 0.19718969 0.02368652 -0.24011633 -0.25345987 -0.04388919
0.14806178 -0.18213832 0.16929181 0.04729419 -0.1947816 -0.1922009 -0.24154328 -0.015893938
-0.097033955 0.14445622 0.19086519 0.2608977 -0.117722385 0.13659887 -0.09082785 -0.24989869
0.22962871 -0.08029401 0.040132508 0.2264209 0.2180928 0.06531793 -0.24958265 -0.26376373
0.21493065 0.18418124 -0.12752925 -0.09085275 -0.18043771 0.12307312 -0.02753687 -0.06477742

encoder.mlp.0.0.bias f4 [64]
00000000: 5451 883e f660 df3d 90d8 7f3e a31f d5bd
00000010: 49a4 c23d a8c4 82be 1d24 633c 07db 333e
00000020: cfae 813e 0ee2 8d3e 9a9c 78bd 98c7 25be
00000030: ce68 97bd cb62 6f3d 72bf 2ebe 359c 553e
00000040: 5a49 113e 06dc 5ebe 0559 3fbd 55b0 263e
00000050: 853b f73d ca22 db3d 6168 b63d b110 583e
00000060: 0c5b 51be 0582 47bc dc3f 58be ec76 89be
00000070: 9e74 6e3e 2515 2c3d 0df5 9ebd 3f02 21bd
00000080: 31b0 4a3e d9e6 d1bc 98ea 4e3e 1565 a5bd
00000090: 5818 87be 0e66 8c3e c66c 333e bc63 3d3e
000000a0: 18d8 e9bd eecf 473e 9bdf eebc 712f 07be
000000b0: 9ec6 cfbd daab 1abe 6167 86be b3a6 9b3d
000000c0: 2c0b 483e 2e0e 463e 03da 7c3d 5262 26ba
000000d0: cc80 463e 903e 28bd d2e0 e83d 233b 143e
000000e0: 8935 bc3c 58f0 4dbe f51b 5dbe c1ea d33d
000000f0: 088c 1c3e a134 8b3d 0540 03be 35e2 9e3d
0.26624548 0.10907166 0.24984956 -0.10406425 0.09503991 -0.25540662 0.013863591 0.17564021
0.2532868 0.2771153 -0.060696222 -0.1618942 -0.07393037 0.058443826 -0.17065218 0.2086037
0.14188138 -0.2176362 -0.046715755 0.16278203 0.12071899 0.10699995 0.089066274 0.21100117
-0.20444888 -0.012176995 -0.2111811 -0.26848543 0.23286673 0.042012352 -0.077615835 -0.039308783
0.19793774 -0.025622772 0.20206678 -0.080759205 -0.2638576 0.27421612 0.17521963 0.18495077
-0.1141817 0.19512913 -0.029159358 -0.13201691 -0.10145305 -0.15104619 -0.26250747 0.07600155
0.19535512 0.19341347 0.06173135 -0.00063470483 0.1938507 -0.04107529 0.11371006 0.14475684
0.022974746 -0.20111215 -0.21592696 0.1034751 0.15287793 0.067971475 -0.1281739 0.07757989

encoder.mlp.0.2.weight f4 [64, 64]
00000000: 80d5 85ba 6ef5 a9bd aec6 f7bd 2c97 1cbd
00000010: 00ce 863d ba84 833d 2080 9dbd 20f8 82bc
00000020: e035 453d 7c9c 5dbd 80c9 b1ba a8d5 95bc
00000030: 02b0 b33d e495 fe3d f085 853d 6c37 a73d
00000040: 40fa a1bc cedb cd3d 5a82 8e3d 605f 993b
00000050: 62f6 b63d 38e9 74bd 34b8 773d 5866 e3bd
00000060: 22e4 8cbd cc4b 333d 6871 d53c 5c99 153d
00000070: b88a bfbc 3071 febd ec7b 8cbd 781d 3bbd
00000080: b8d2 82bd 22d1 903d 34a2 8c3d a840 e93d
00000090: d419 f5bd 4a8a a2bd 7c70 96bd 7402 0ebd
000000a0: 683e febc 34cf cc3d a8a6 af3d 088e 2b3d
000000b0: 4c94 c13d e6c0 e8bd a490 f8bd 68bc e2bd
000000c0: 54b6 6fbd e048 d73d f0b4 503d 14c2 68bd
000000d0: 084c 53bd c09e c13c 2443 7d3d 7825 ed3d
000000e0: c448 2b3d 2a51 a9bd b046 b5bc cc12 263d
000000f0: a870 073d 0044 683c a252 a03d f8bc 71bd
00000100: cedc cdbd 8809 08bd eeaf d93d 2098 4fbc
00000110: 80a3 be3c 2c0d 393d 3a68 fdbd 6438 9ebd
00000120: 72ea ef3d 7089 043c 9e83 9abd 10fc 19bd
00000130: 88e2 1fbd 90a0 f3bc 0231 e7bd dcdd 91bd
00000140: c0c6 2c3b a032 a0bd a47c 6fbd 3818 4d3d
00000150: fc9b b0bd 0079 293c 748f bebd aadb b3bd
00000160: 260f f3bd cc05 8e3d 8e10 80bd 00a4 faba
00000170: a0e4 a13c f460 573d 8c74 adbd 8a3d d33d
00000180: 12ba ce3d 9a46 eb3d 5eb7 b5bd 6a1c 943d
00000190: 0ec5 d3bd 08bd 0d3d 406f f33b 7029 efbc
000001a0: 18fd 9cbc f259 e2bd 5472 a4bd a45c c23d
000001b0: a00a 86bb c6c2 943d c2cb b93d 5cdf 0ebd
000001c0: 801a 973d f869 e53d 4870 573d 76be 97bd
000001d0: 2049 96bd 30fe b13d 1029 27bd 3066 643c
000001e0: c847 cfbc c08e 99bd 3cb3 61bd b482 8d3d
000001f0: 98c6 f93c 80ce 773d 6248 a1bd 48bc a6bd
00000200: 98b7 783d acaf d13d 601d 0ebd c00b de3d
00000210: 08b6 b3bc e264 be3d 88f0 58bd e8e8 f73c
00000220: 6af8 b4bd 7a36 8a3d ca5d aebd 44a6 36bd
00000230: 721a bdbd 3069 77bd 78f8 f63d 3c0c 01bd
00000240: 40b7 e2bb c085 ffbd 10db 203c 784e 343d
00000250: 7cd7 e1bd d248 a73d 90e7 153c b89d 683d
00000260: f24a c23d 8c4c 40bd 9a93 e53d c83c b13d
00000270: ca06 fbbd 0a0a e73d b0f6 f53d b038 853d
00000280: b0fd c43d d01e bb3c ee21 d53d 500f 1cbd
00000290: 7031 d63d 0a6d 9a3d fefd eebd 7886 963c
000002a0: b09e 6dbc 30b2 ddbd 78ab 6fbd 2477 5c3d
000002b0: b807 513d d066 4bbd c84d f13c 40d5 1c3d
000002c0: 00f3 c83a ec12 373d 10f8 173c 88c3 d23c
000002d0: 8a78 e7bd e039 f8bc 968a 883d 6885 113d
000002e0: dc40 c5bd fc9d 44bd 005d a6ba d87e b6bc
000002f0: eccb 09bd 3ae6 e7bd c0fc 51bc 144a 9fbd
00000300: bc8c 9f3d 4c0e bbbd 64db 663d 18df cc3d
00000310: 50d8 303d 42d3 b4bd 6044 d13b 16b7 cd3d
00000320: 98c8 38bd 24b7 6fbd 0c81 e3bd b26b 8ebd
00000330: 4432 19bd 0ce5 d1bd 34ce d8bd 7291 c4bd
00000340: c257 9e3d 2acb f3bd 543b 4fbd a477 e3bd
00000350: b4fa c93d 9838 703d 809a 913c ee32 8f3d
00000360: 7c40 30bd 0838 1a3d 4861 c2bd d0f9 36bd
00000370: 8ad7 ca3d 40ed e93d cc02 2bbd 7cf6 623d
00000380: 8074 523d 8c18 153d 00f3 613d d860 6e3d
00000390: c88a 27bd fcb1 f43d 30d0 873c 802c e93d
000003a0: 1e1e 823d 4864 db3c 5ac6 c93d 2a87 f23d
000003b0: 4a5e f8bd 0004 293b 905f 4cbd 6c80 7dbd
000003c0: 36e1 bbbd aec2 b1bd a869 493d c8a0 8a3c
000003d0: 5e40 9f3d 1e15 ac3d 2212 c83d 003a 88bd
000003e0: 7c07 cd3d b66a b8bd 14d7 f4bd 4aa1 82bd
000003f0: 5c7c a8bd 3420 843d 5877 ea3c d4b3 4cbd
-0.0010210723 -0.08298765 -0.12098442 -0.038230106 0.0658226 0.064218 -0.076904535 -0.015987456
0.048147082 -0.054104313 -0.001356408 -0.018290356 0.08773805 0.12430933 0.06519687 0.08164868
-0.019772649 0.1005169 0.06958456 0.004680559 0.089337125 -0.059792727 0.060478404 -0.11103505
-0.068794504 0.043773457 0.026055053 0.036523208 -0.023381576 -0.124239326 -0.06859574 -0.0456824
-0.06387848 0.07071139 0.06866875 0.11389285 -0.11967817 -0.07936533 -0.073456734 -0.03467031
-0.031035617 0.10000458 0.08576709 0.0418835 0.094521135 -0.113649175 -0.12136963 -0.11071092
-0.05852349 0.10511947 0.050953805 -0.056825712 -0.05158618 0.023635268 0.06183161 0.11579412
0.04181744 -0.08267434 -0.022128433 0.04054527 0.03306642 0.014176369 0.07828261 -0.059018105
-0.10051881 -0.033212215 0.10629259 -0.012670547 0.023271322 0.045178577 -0.12373395 -0.077255994
0.11714639 0.008089408 -0.07544635 -0.0375939 -0.039034396 -0.029739648 -0.112886444 -0.071223944
0.0026363581 -0.07822156 -0.058468476 0.050071925 -0.08623502 0.01034379 -0.09304705 -0.08782132
-0.11868124 0.069346994 -0.062531576 -0.0019122362 0.019762337 0.052582696 -0.08469495 0.10314472
0.10094084 0.114880756 -0.08872865 0.07231982 -0.103403196 0.034604102 0.0074290335 -0.029194564
-0.019163653 -0.11052312 -0.08029619 0.09490326 -0.004090622 0.072637126 0.09072067 -0.03488098
0.07378101 0.112018526 0.052597314 -0.074093744 -0.07338166 0.086910605 -0.040810645 0.013940379
-0.025302783 -0.074979305 -0.05510257 0.06909695 0.030490205 0.060499668 -0.07875134 -0.081413805
0.060721964 0.10238585 -0.034695983 0.10842085 -0.021937385 0.092965856 -0.052963763 0.030262426
-0.08836444 0.06748672 -0.085139826 -0.044592157 -0.0923356 -0.06040305 0.120591104 -0.03150581
-0.0069188178 -0.12476683 0.009817854 0.044020146 -0.110274285 0.08168186 0.009149447 0.056791037
0.09486951 -0.046948 0.112097934 0.08654171 -0.12257154 0.11281212 0.120099425 0.06504953
0.096186996 0.022841841 0.10406862 -0.03810054 0.10458648 0.07540329 -0.11669539 0.018374667
-0.014503166 -0.10825002 -0.058513135 0.05382456 0.05103275 -0.049658597 0.029456034 0.03828931
0.0015331209 0.04469578 0.009275451 0.025728002 -0.11302288 -0.030301034 0.06667058 0.035527617
-0.096315116 -0.04800223 -0.0012692511 -0.02227728 -0.03364174 -0.11323209 -0.012816608 -0.07777801
0.07790515 -0.09133586 0.05636157 0.10003489 0.04317504 -0.08829357 0.0063863248 0.100446865
-0.045113176 -0.058524266 -0.11108598 -0.06954135 -0.037401453 -0.10248765 -0.10586205 -0.09598054
0.07731582 -0.11903985 -0.05059369 -0.11106804 0.09862271 0.058647722 0.017773867 0.06992136
-0.043030247 0.03765109 -0.09491211 -0.044671834 0.09904392 0.11422205 -0.041750714 0.055410847
0.051380634 0.036400363 0.055163383 0.058197826 -0.040903836 0.1194801 0.016578764 0.11385441
0.06353401 0.026781216 0.09852286 0.11842187 -0.12127359 0.0025789738 -0.049895823 -0.06189005
-0.09173815 -0.0867971 0.049173027 0.01692237 0.07775949 0.08402465 0.097690836 -0.066516876
0.10011193 -0.090047285 -0.119550854 -0.0637842 -0.08226845 0.06451455 0.02862136 -0.049976185

encoder.mlp.0.2.bias f4 [64]
00000000: 401f 39bd 705c 10bd e0a6 0bbc 9e61 c5bd
00000010: f0ea 35bd e016 143d f87e 873d 3253 cf3d
00000020: cc3d 48bd e257 d13d 52ce 88bd d4f9 a53d
00000030: a06c 8c3c 984f a4bd 507b 9f3c ee80 bebd
00000040: 9495 80bd 986c 6dbd 2cd6 9abd 1814 b9bd
00000050: b45d 903d baed d2bd a808 a3bc 6847 8fbd
00000060: d042 ce3c 6461 0a3d 2cc0 eebd 80df dd3b
00000070: 2c84 79bd 6c44 263d 30c4 7abd 7c96 27bd
00000080: f8f3 34bd d472 86bd f44c 8e3d 3007 9abc
00000090: 38eb c1bd 480e 573d f0b3 083d f4a1 e13d
000000a0: 808c 95bd 004e d1ba 2410 683d def2 9b3d
000000b0: a0bc 73bd f0ab 233d 446d debd 5c85 053d
000000c0: 428c dabd fede e6bd 36ca 95bd ec12 b03d
000000d0: c081 2a3c fcc0 b3bd a09d d83d 6030 653d
000000e0: f667 8a3d 2e9a d7bd a42d f73d 88a7 a33c
000000f0: 0889 1dbd 901e e83c 128d f03d a8e4 ee3c
-0.045195818 -0.035244405 -0.008523673 -0.096377596 -0.044413507 0.036154628 0.06616014 0.1012329
-0.04888706 0.102218404 -0.066799775 0.081042916 0.01714164 -0.08022994 0.01946798 -0.09301935
-0.0627853 -0.05796489 -0.07560381 -0.09037036 0.070491225 -0.10299249 -0.019901589 -0.069960415
0.025178343 0.033784285 -0.116577476 0.006771028 -0.060917065 0.040592596 -0.061222255 -0.040914997
-0.04417798 -0.065648705 0.069482714 -0.018802255 -0.094686925 0.052503854 0.033374727 0.11017218
-0.07302189 -0.001596868 0.056656018 0.076146826 -0.05950606 0.039958894 -0.108606845 0.032597885
-0.10671283 -0.11273001 -0.07313959 0.08597359 0.010406911 -0.08777043 0.105769396 0.055954337
0.0675811 -0.10527454 0.12069252 0.019977346 -0.03846076 0.028334886 0.11745657 0.029161766

encoder.mlp.0.4.weight f4 [64, 64]
00000000: 16b6 cc3d b030 1c3c 64ca 6bbd e23a a0bd
00000010: d086 74bd 24b6 ce3d 98ce c93c 8052 f7bc
00000020: 586c 6ebd 22d0 89bd 944e dd3d 1808 c3bc
00000030: b0f9 f53c f092 40bd f058 95bd 5c1f 933d
00000040: 96ae adbd a8d6 97bc fc72 66bd 5c92 11bd
00000050: 2a90 dcbd 40f9 883b 301c b9bd 2242 d33d
00000060: d889 3abd 3221 973d 7cfb d23d 6c35 e83d
00000070: f4a0 82bd 1048 bebc 50d6 913c 6085 b1bc
00000080: c8b1 9fbc 44df 65bd fc1a b3bd 16b0 9ebd
00000090: 623a e43d 0085 9e3a f8ae c93c 8247 f73d
000000a0: c07b 9f3d 1c02 ecbd 0cb6 f53d b856 973c
000000b0: 3014 173c 38e9 f7bc de91 d43d ee0f fb3d
000000c0: 34a8 fcbd 18ab c53c 202c efbd d8cc e2bc
000000d0: b656 ca3d 643a 393d e40f 4fbd 40e0 6ebd
000000e0: 2628 e53d bc91 a4bd 5461 a7bd 5000 e9bc
000000f0: c8f1 f83d 1852 973d 5ecc f13d 80db e6bc
00000100: 1867 38bd 10ec 593c d87a d23c 10e9 853c
00000110: 5492 8b3d 9625 eebd 183a 8dbd 2857 393d
00000120: 6076 e9bc c2de dd3d dc8e d8bd b02a 0a3c
00000130: 1813 ca3c 7cd9 22bd b090 a3bc 0042 51bc
00000140: 24c2 e8bd 80e8 873c 9c94 18bd e092 113c
00000150: da8f be3d d4dc 54bd ccfc 7fbd 48d3 dc3c
00000160: 6073 b73d c6b6 a33d f0c7 413d 9616 833d
00000170: 06f6 ef3d 68e7 d83c 38b3 8ebd ec17 3cbd
00000180: f036 fbbc 28d8 823d ea5f bb3d c036 48bc
00000190: 70c7 323c 6e06 c8bd be90 a33d c04b 9bbc
000001a0: 9a69 bf3d 00eb b63d 8007 3abc c68d 953d
000001b0: 5469 7c3d 88dd ecbd 94d7 a3bd a8e1 8c3c
000001c0: 1092 303d d885 22bd 24cf 263d ecbd a8bd
000001d0: b8d7 a13c 244b d43d f854 553d e049 c1bd
000001e0: a0fa 2ebd d408 56bd a2ab c6bd f05f 573c
000001f0: c8d2 473d 6a12 e93d b0f2 2f3d 0090 ed3a
00000200: e0de 783c 6009 52bd 0ef1 893d 64af 20bd
00000210: d6c0 bdbd d8fb de3c 64e9 503d f4fc fd3d
00000220: 1893 eebd 24ac 85bd 523f e73d 38aa 86bc
00000230: 3a38 983d dcaa 5bbd 1aea db3d 14c2 463d
00000240: c0f6 a93b 5c3e f6bd b21d a1bd 10d3 013c
00000250: 0040 e8ba 70ef d2bd 0ce9 50bd 7a11 c63d
00000260: e03e d63d a6a3 f3bd 1487 a13d a049 45bc
00000270: 6430 e33d ecfd d1bd 8828 633d 8017 393c
00000280: 8087 97bb e497 86bd bce2 54bd 2e1e e6bd
00000290: d86e fbbc 305f 9bbc d86a c7bc bc06 a4bd
000002a0: 3ca6 a3bd fc87 d23d feb7 ab3d 00d3 b23a
000002b0: ee1b c1bd 1406 b73d c8f1 c3bd 20e4 693c
000002c0: 8c70 343d b267 9c3d fe1c 833d 20ab ebbc
000002d0: 6441 473d b81a b9bc 74e9 b9bd 466b bd3d
000002e0: 0064 6a3a f074 f9bc 90e7 ac3d c855 55bd
000002f0: d4ae f4bd feb2 c6bd 8e53 b03d 64b2 65bd
00000300: 5c84 3d3d e013 78bd e034 bcbb 5c55 f4bd
00000310: c055 7abd 4ca6 a2bd 3e97 823d 42e1 f23d
00000320: 8801 d0bd 1e29 d7bd 30e3 11bc d8b5 ad3d
00000330: da09 9b3d e496 85bd e49e b23d 7c24 933d
00000340: b486 da3d a0fe 973b 70bf dcbc cc1c b5bd
00000350: 9482 8b3d c2ae babd 7059 f23c 10a5 69bc
00000360: 340e 28bd f2f3 e93d 6e79 99bd 7afb ff3d
00000370: ca43 bdbd e605 8b3d 1eac c7bd b6d8 83bd
00000380: b8a5 e23d 2c07 9b3d 80b6 e23d d46d 70bd
00000390: e4e9 9fbd fc91 37bd 5261 ebbd c015 e33c
000003a0: e833 c73d 305e 453d e0b6 fa3d 32be adbd
000003b0: e8fc 8abc 6cef b03d 9019 09bc 00b0 75bc
000003c0: 98d0 fe3d de65 9bbd 9455 2b3d e0dd 333c
000003d0: 1ae4 e8bd 40dd 15bd 0268 803d f200 93bd
000003e0: 38c3 23bd fe34 89bd 0e02 c23d 889d 6f3d
000003f0: 64a8 c0bd 0cbc 123d 4034 4b3d 405b ccbd
0.09995668 0.009533092 -0.05756606 -0.07823731 -0.05969888 0.10093334 0.024634644 -0.030190706
-0.058208793 -0.06729151 0.10806003 -0.02380757 0.030026287 -0.04701513 -0.07292354 0.07183716
-0.08480565 -0.018534973 -0.056262 -0.03553997 -0.107696846 0.0041801035 -0.090385795 0.10315348
-0.045541614 0.073793784 0.10301873 0.113383144 -0.063783556 -0.023227721 0.017802387 -0.021670043
-0.019493952 -0.056121126 -0.08745381 -0.077484295 0.11143948 0.001209408 0.024619564 0.12074186
0.07787275 -0.1152384 0.11997613 0.018473968 0.009221122 -0.030262575 0.103793845 0.12258898
-0.1233677 0.024129435 -0.11678338 -0.027685568 0.0987982 0.0452217 -0.050552264 -0.05831933
0.11189298 -0.08035609 -0.08172861 -0.028442532 0.12155491 0.07388705 0.11806558 -0.028180838
-0.045020193 0.013300911 0.025693342 0.016346484 0.06815019 -0.11628263 -0.06895846 0.045249134
-0.028498828 0.10833503 -0.10574123 0.008433029 0.024667308 -0.03975819 -0.019966453 -0.012772083
-0.113651544 0.016590357 -0.0372511 0.008885115 0.09304781 -0.05196841 -0.062496945 0.026956216
0.08957553 0.07993846 0.047309816 0.06400792 0.11716847 0.02647753 -0.06967777 -0.04592125
-0.030665845 0.06388885 0.091491535 -0.012220085 0.010911807 -0.09766851 0.07986592 -0.018957019
0.09346314 0.089315414 -0.011354327 0.07302432 0.061623886 -0.11565691 -0.08000103 0.017197445
0.043108046 -0.039678425 0.04072489 -0.0823935 0.019756183 0.103658944 0.052082986 -0.09437919
-0.042719483 -0.052254513 -0.09700705 0.013145432 0.048785 0.11380465 0.042956054 0.001812458
0.015189856 -0.051278472 0.06735431 -0.039229766 -0.09265296 0.027219698 0.05100383 0.124017626
-0.1164915 -0.06526974 0.11291374 -0.016438589 0.07432599 -0.05362974 0.10738011 0.04852493
0.0051868856 -0.12023613 -0.07866992 0.007923856 -0.0017719269 -0.10299575 -0.0510035 0.09671302
0.10461211 -0.11896448 0.07887092 -0.012041479 0.11093214 -0.1025351 0.055458575 0.011297107
-0.004624307 -0.065719396 -0.051974043 -0.11236225 -0.030692503 -0.018966287 -0.02434294 -0.08009097
-0.07990691 0.10279843 0.08384703 0.0013643205 -0.09429155 0.08936706 -0.095676005 0.014275581
0.044052646 0.07636966 0.06402014 -0.028768122 0.048646346 -0.022595748 -0.09077731 0.092489764
0.0008941293 -0.030451268 0.084426045 -0.05208376 -0.11947408 -0.09702109 0.08609687 -0.05607833
0.046268806 -0.06056583 -0.005743608 -0.119303435 -0.061116934 -0.07941875 0.063765034 0.11859371
-0.10156542 -0.10505889 -0.008904263 0.084819496 0.075702384 -0.06522921 0.08721712 0.07184693
0.10670224 0.004638508 -0.026946753 -0.08843383 0.06812015 -0.09115364 0.029583663 -0.014260545
-0.04102917 0.11423482 -0.07493864 0.12499137 -0.09241445 0.067882344 -0.097496256 -0.06437819
0.110667646 0.07569727 0.11069965 -0.05869849 -0.07808283 -0.044816956 -0.11493172 0.027720332
0.09726697 0.048185527 0.12241912 -0.084835425 -0.016966298 0.08639416 -0.008367911 -0.014995575
0.1244213 -0.07587789 0.04182966 0.010978192 -0.11371632 -0.036587954 0.06269838 -0.07177915
-0.039981097 -0.066995606 0.09473048 0.058499843 -0.09407118 0.035823867 0.049610376 -0.09978342

encoder.mlp.0.4.bias f4 [64]
00000000: 704b 943c 20ef ec3c 320f f73d 107a 2a3d
00000010: d220 803d 0073 b93d 4cdd 50bd 5c5f cfbd
00000020: 1817 b53c 483f fa3d 7636 a2bd d85d 5f3d
00000030: 386f 9bbd 303f 45bd 8204 b43d 1843 aebd
00000040: 945a 213d 02c7 b9bd cc59 bc3d a8b3 be3c
00000050: 9ec6 cbbd ba94 ab3d 4834 b83d 20c5 5dbc
00000060: 6028 bb3c 8834 eabd d474 f53d 94c3 31bd
00000070: f099 a93d 586a f23c 3ccf 3bbd c60c f23d
00000080: 0479 853d 7880 783d 80f8 9aba 5853 f13d
00000090: 82c0 c9bd 309f 96bc 600c b43b 38d2 dd3d
000000a0: de72 b3bd 0e0f efbd a885 de3c 8476 873d
000000b0: 2ecc 8d3d 4085 a4bb d8a1 24bd 769d cd3d
000000c0: 3841 d33c a8c6 f5bc 0095 863a 88df a0bd
000000d0: 42e6 95bd b057 b5bd b890 97bd 88a7 de3d
000000e0: f233 e23d 483a b7bc eec1 d6bd 1c61 1b3d
000000f0: 4415 703d b8e0 79bd d4d1 99bd 04da 6dbd
0.018102378 0.028922617 0.12063445 0.041620314 0.0625626 0.09055138 -0.050992295 -0.1012561
0.022105739 0.12219101 -0.07920544 0.054532856 -0.07589573 -0.048155963 0.08789922 -0.08508891
0.039393023 -0.09071161 0.09196815 0.023279026 -0.099499926 0.08377977 0.08994347 -0.013535768
0.0228464 -0.11435801 0.11985174 -0.04339941 0.082813144 0.029591724 -0.04585193 0.118188426
0.065172225 0.060669392 -0.0011823326 0.11783475 -0.09851171 -0.018386453 0.0054946393 0.10831112
-0.087621436 -0.11672793 0.027163342 0.06614402 0.0692371 -0.0050207675 -0.04019341 0.10039799
0.025787935 -0.030001953 0.0010267794 -0.07855135 -0.07319309 -0.08854616 -0.0740065 0.10871798
0.11045064 -0.022366658 -0.10486208 0.037934408 0.05861403 -0.061005324 -0.07510725 -0.058069244

encoder.mlp.0.6.weight f4 [64, 64]
00000000: f8fc d53d f0a0 eb3c 6854 6bbd 1442 363d
00000010: b264 a6bd 846b 033d 0c2f 0e3d 247f a5bd
00000020: dc4d 70bd b887 fbbd 007a f739 e2a5 8ebd
00000030: c869 4dbd 9077 aabd d8eb 853c ac32 823d
00000040: 9864 87bc 64a4 573d 9076 583d 568c 9fbd
00000050: 0c50 cf3d 1c76 a63d 58c8 923c 681d 8b3d
00000060: f0ca 2dbc 7056 f83d 6822 a4bd 70ee febc
00000070: 1076 2a3d 7813 edbd 5080 3b3c 66e0 e63d
00000080: b4c1 14bd 1885 ecbd 206a afbd 00ca abb9
00000090: c8cb d5bc 5484 8dbd 6435 57bd 382b 92bd
000000a0: 90a1 febd 6e8f e73d d094 97bd 76ed 94bd
000000b0: 181b c53d 6c65 c33d 50c5 353d 7036 2ebd
000000c0: 861b a7bd e0fe 993d f0f9 1d3c 90c1 5f3c
000000d0: 602c b03b 8ebb d83d 204c 90bd 909e c03c
000000e0: 389f b0bc 68ce 92bc bec7 c53d c87b 24bd
000000f0: aaa4 b6bd ec65 743d 14ce 20bd b607 883d
00000100: 8889 cdbd 5023 1e3c b677 ef3d 404b 0dbd
00000110: 60a2 43bd 5c34 bfbd 3066 a53d feb8 b1bd
00000120: 34b3 4a3d e83e c2bc 0461 08bd a871 e73c
00000130: 02eb b13d d029 7a3c 8498 13bd 2c78 7d3d
00000140: 2854 dbbd ca3f bcbd 00d7 26bc 6088 9cbd
00000150: 2867 d3bd 9056 5fbd c82b f03d f0b6 103d
00000160: c40c 8b3d 88e1 d9bc 8c1b 723d 507f c4bd
00000170: c60d cabd d020 d3bd 3026 333c 0240 c43d
00000180: 504a ff3d 142f 083d 4e0c fbbd 9a4d 913d
00000190: c698 dabd 48fc aebd 728c e83d f087 34bc
000001a0: 88f3 833d 548f 903d 4214 e23d 7027 30bc
000001b0: 5a34 b73d d80f 92bc 4698 f4bd 0e15 d03d
000001c0: deb9 ddbd 7272 dfbd 9028 1b3c 0897 7f3d
000001d0: c441 6f3d 5c27 1d3d ac55 3ebd 3c70 e9bd
000001e0: 1c9a 963d 8061 a5ba c0dd 953b 0004 9b39
000001f0: a0c9 8f3d 185f 173d f020 dabc 780b 853d
00000200: 80d4 a83b 6627 843d 6485 ff3d 6856 ec3c
00000210: 3c7b 0e3d d0ae 7d3c dc3e 953d c2c9 d03d
00000220: 7e2a 883d 6880 92bd 182d 23bd 1424 29bd
00000230: 6eb6 81bd 3205 e4bd 80c7 a4bc 00b8 703b
00000240: 007f a9bb 6059 493d 50f9 06bd 3c4a c03d
00000250: 3056 a4bc 665f ef3d dc0f 56bd d831 c4bd
00000260: 20bc 4d3d b8ff 1ebd 48f8 803d 388d c9bc
00000270: c0eb 1d3b 104f 42bc b849 4dbd d6ed bc3d
00000280: a060 f7bb 1c3a f13d 0664 f83d c0a9 76bb
00000290: 0a24 efbd 5488 7fbd 2410 50bd 7eb5 d03d
000002a0: 50d0 1a3d 8861 f3bc c02f f3bb b0bd 80bc
000002b0: 6059 bf3b bc93 c03d 10bb c4bc 604c f73c
000002c0: 2caf 5b3d e027 fdbc c000 5a3d 70bd 763c
000002d0: 30d7 a93d 6042 37bc 48fa 073d 7e08 c03d
000002e0: 749e 47bd e074 ca3b d42a 7d3d 125f cf3d
000002f0: b81c 87bc 1ada f33d 201e c6bb ecba bbbd
00000300: 369e fbbd 9857 13bd 4077 1abb 74bd 973d
00000310: 704d 5bbd 40c8 e03c 907b 5bbc 700e 463c
00000320: 58a8 30bd a468 ed3d 0088 e23b 3055 e83d
00000330: 4285 bebd f8e3 ed3d 886b 00bd 6005 613d
00000340: 00ea 62bc 96d7 b73d 20c1 6cbc ccbd 173d
00000350: 562e b1bd eaed f3bd 9651 ef3d 400d fbbb
00000360: e042 98bc 06df b2bd 1687 a6bd 2862 8b3d
00000370: 0a2d d63d d488 04bd 2054 ba3b 0865 933d
00000380: ecd0 b03d 704c cabd d6b8 df3d 38a9 b7bc
00000390: 4a4a f33d 0e0b bf3d be4f b93d b02a 9cbd
000003a0: 8a36 ca3d 104a b8bc acdb dd3d 1844 843c
000003b0: aeb5 f4bd 62e4 813d 5c33 963d f888 ab3d
000003c0: 606c 74bd c887 9d3c 44b3 77bd 8068 56bb
000003d0: 603f d3bd 1aaf f6bd a6b1 b1bd e4a3 993d
000003e0: 68a4 b9bc aa5f 8abd 3c1d 0abd 0839 e9bd
000003f0: 228c c2bd 789e b0bc 888d 0f3d 6e47 b73d
0.104486406 0.028763264 -0.057453543 0.04449661 -0.08124675 0.032084957 0.034712836 -0.08080891
-0.058668002 -0.12281746 0.00047202408 -0.069652334 -0.05014971 -0.08323586 0.01634781 0.06357321
-0.016527459 0.05264701 0.052847445 -0.07790439 0.101226896 0.08127996 0.017917797 0.06792718
-0.010607466 0.12125862 -0.08014375 -0.031119555 0.0416165 -0.11575979 0.011444166 0.11273269
-0.036317542 -0.11548823 -0.085651636 -0.00032766163 -0.026098147 -0.06910005 -0.05254115 -0.071371496
-0.12433159 0.11306654 -0.074014306 -0.072718546 0.09624308 0.09540829 0.044377625 -0.042532384
-0.081595466 0.07519317 0.009642109 0.013656989 0.0053763837 0.10582648 -0.0704577 0.023513108
-0.021560296 -0.017920688 0.096572384 -0.04015711 -0.08918126 0.059667513 -0.03925903 0.06642096
-0.10035998 0.009651974 0.11692755 -0.034495592 -0.047762275 -0.09336159 0.08076131 -0.086778626
0.049487308 -0.023711637 -0.033295646 0.028252438 0.08687402 0.015268758 -0.036034122 0.061882183
-0.10709411 -0.09191854 -0.010183096 -0.07643199 -0.1032241 -0.05452591 0.117271006 0.035330713
0.06789544 -0.0265968 0.059108302 -0.095945954 -0.09865908 -0.10308993 0.010934398 0.09582521
0.12465346 0.033248022 -0.12258206 0.070948794 -0.106736705 -0.085442126 0.11354913 -0.011018738
0.06442934 0.07058588 0.1103902 -0.01075159 0.08945532 -0.01782982 -0.11943106 0.10160266
-0.10826467 -0.109105006 0.00947012 0.062399894 0.05841233 0.038367614 -0.04646842 -0.1139836
0.07353613 -0.0012617558 0.004573554 0.00029566884 0.07020879 0.036955923 -0.026627034 0.06496328
0.005152285 0.06452827 0.12476614 0.028849795 0.034785494 0.015483573 0.0728738 0.10194732
0.0664873 -0.07153398 -0.039837927 -0.041294172 -0.06333624 -0.111338034 -0.02011466 0.0036730766
-0.0051726103 0.0491575 -0.032952607 0.09389159 -0.020060629 0.11688118 -0.05226122 -0.095798194
0.050228238 -0.03881809 0.06297356 -0.024603471 0.0024096817 -0.01185967 -0.05011913 0.09225051
-0.0075493604 0.117786616 0.12128453 -0.00376378 -0.11676796 -0.062385872 -0.050796643 0.10190867
0.03779632 -0.029709592 -0.0074214637 -0.01571545 0.0058395118 0.09403178 -0.02401498 0.030187786
0.053633854 -0.030902803 0.05322337 0.015059814 0.08292997 -0.011185259 0.03319767 0.0937662
-0.048735097 0.0061784834 0.061808422 0.10125555 -0.016493186 0.11906834 -0.0060460716 -0.09166512
-0.12286036 -0.035972208 -0.0023569614 0.07409182 -0.053540647 0.027439237 -0.013396159 0.012088403
-0.043129295 0.11592224 0.006913185 0.11344373 -0.09302761 0.11615747 -0.03135255 0.054936767
-0.013849735 0.08976667 -0.014450341 0.03704624 -0.08651416 -0.11910613 0.11685483 -0.0076614916
-0.018586576 -0.087339446 -0.08131234 0.06805831 0.10457809 -0.032357052 0.005686298 0.071970046
0.08633599 -0.098778605 0.109239265 -0.022419557 0.11879404 0.093282804 0.09048413 -0.076253295
0.09873684 -0.022496253 0.10832915 0.01614575 -0.11948715 0.06342389 0.07334015 0.08375734
-0.059673667 0.019229785 -0.060473695 -0.0032716095 -0.10314822 -0.12045117 -0.08676462 0.07501963
-0.022661403 -0.06756528 -0.033719286 -0.11387831 -0.094993845 -0.021559939 0.035047084 0.08949171

encoder.mlp.0.6.bias f4 [64]
00000000: 06cc 98bd 6e53 8a3d 2c6d 1d3d 5462 163d
00000010: 8adb 87bd e2fe bcbd 30c1 283c 286c 5dbd
00000020: b098 38bd 9c90 113d b836 9b3c be3a 90bd
00000030: e822 b2bd 8efd 8ebd 602a c33b dc56 ff3d
00000040: a8ea cc3c 40d6 6a3c 1c50 57bd 68f9 2f3d
00000050: 801f 7f3c ac3f 56bd 00c3 27ba 8467 c93d
00000060: 209b 203c f085 573d aa13 afbd ec00 67bd
00000070: bc9b ae3d 82ae f03d 1cdc b6bd 2c20 da3d
00000080: 7ce4 c33d eaa2 8d3d 9028 3fbd 8443 4bbd
00000090: 0c84 e1bd c049 2d3d 22f7 adbd a20b 993d
000000a0: 3032 44bc 102e db3c e07f 87bd 1e22 e13d
000000b0: 28fd 0a3d 0089 723b a491 0d3d 98e4 c9bc
000000c0: e42a 6ebd e008 01bc 3c1a e9bd 0c31 523d
000000d0: 18ec 9b3d 2cca 8abd 149d 9b3d 601a 66bc
000000e0: f0f4 a93c 5e16 913d 74b0 11bd 60fd 6dbc
000000f0: 54a4 f1bd c83a ed3c 20cb e4bc deb4 d4bd
-0.074607894 0.06754194 0.038434193 0.036714867 -0.06633671 -0.092283025 0.010299966 -0.054058224
-0.04506749 0.0355383 0.01894699 -0.07042454 -0.08698064 -0.069819555 0.005955979 0.12467739
0.025014237 0.014333308 -0.052566633 0.04296246 0.015571475 -0.052306816 -0.00063996017 0.09834197
0.00980261 0.052617967 -0.085486725 -0.056397364 0.08525798 0.11752035 -0.08928701 0.106506675
0.09565064 0.06915839 -0.046669543 -0.049624935 -0.11011514 0.04230666 -0.084944025 0.07472922
-0.011974856 0.026755363 -0.06616187 0.109928355 0.033932835 0.0037007928 0.03456272 -0.024645135
-0.058146372 -0.007875651 -0.11381957 0.051316306 0.07613391 -0.067768425 0.0759832 -0.014044374
0.020746678 0.07084344 -0.03556867 -0.014525741 -0.11798921 0.028958693 -0.027928889 -0.1038606

encoder.mlp.1.weight f4 [64]
00000000: 0000 803f 0000 803f 0000 803f 0000 803f
00000010: 0000 803f 0000 803f 0000 803f 0000 803f
00000020: 0000 803f 0000 803f 0000 803f 0000 803f
00000030: 0000 803f 0000 803f 0000 803f 0000 803f
00000040: 0000 803f 0000 803f 0000 803f 0000 803f
00000050: 0000 803f 0000 803f 0000 803f 0000 803f
00000060: 0000 803f 0000 803f 0000 803f 0000 803f
00000070: 0000 803f 0000 803f 0000 803f 0000 803f
00000080: 0000 803f 0000 803f 0000 803f 0000 803f
00000090: 0000 803f 0000 803f 0000 803f 0000 803f
000000a0: 0000 803f 0000 803f 0000 803f 0000 803f
000000b0: 0000 803f 0000 803f 0000 803f 0000 803f
000000c0: 0000 803f 0000 803f 0000 803f 0000 803f
000000d0: 0000 803f 0000 803f 0000 803f 0000 803f
000000e0: 0000 803f 0000 803f 0000 803f 0000 803f
000000f0: 0000 803f 0000 803f 0000 803f 0000 803f
1.0 1.0 1.0 1.0 1.0 1.0 1.0 1.0
1.0 1.0 1.0 1.0 1.0 1.0 1.0 1.0
1.0 1.0 1.0 1.0 1.0 1.0 1.0 1.0
1.0 1.0 1.0 1.0 1.0 1.0 1.0 1.0
1.0 1.0 1.0 1.0 1.0 1.0 1.0 1.0
1.0 1.0 1.0 1.0 1.0 1.0 1.0 1.0
1.0 1.0 1.0 1.0 1.0 1.0 1.0 1.0
1.0 1.0 1.0 1.0 1.0 1.0 1.0 1.0

encoder.mlp.1.bias f4 [64]
00000000: 0000 0000 0000 0000 0000 0000 0000 0000
00000010: 0000 0000 0000 0000 0000 0000 0000 0000
00000020: 0000 0000 0000 0000 0000 0000 0000 0000
00000030: 0000 0000 0000 0000 0000 0000 0000 0000
00000040: 0000 0000 0000 0000 0000 0000 0000 0000
00000050: 0000 0000 0000 0000 0000 0000 0000 0000
00000060: 0000 0000 0000 0000 0000 0000 0000 0000
00000070: 0000 0000 0000 0000 0000 0000 0000 0000
00000080: 0000 0000 0000 0000 0000 0000 0000 0000
00000090: 0000 0000 0000 0000 0000 0000 0000 0000
000000a0: 0000 0000 0000 0000 0000 0000 0000 0000
000000b0: 0000 0000 0000 0000 0000 0000 0000 0000
000000c0: 0000 0000 0000 0000 0000 0000 0000 0000
000000d0: 0000 0000 0000 0000 0000 0000 0000 0000
000000e0: 0000 0000 0000 0000 0000 0000 0000 0000
000000f0: 0000 0000 0000 0000 0000 0000 0000 0000
0.0 0.0 0.0 0.0 0.0 0.0 0.0 0.0
0.0 0.0 0.0 0.0 0.0 0.0 0.0 0.0
0.0 0.0 0.0 0.0 0.0 0.0 0.0 0.0
0.0 0.0 0.0 0.0 0.0 0.0 0.0 0.0
0.0 0.0 0.0 0.0 0.0 0.0 0.0 0.0
0.0 0.0 0.0 0.0 0.0 0.0 0.0 0.0
0.0 0.0 0.0 0.0 0.0 0.0 0.0 0.0
0.0 0.0 0.0 0.0 0.0 0.0 0.0 0.0

GnBlock0.conv.bias f4 [64]
00000000: 0000 0000 0000 0000 0000 0000 0000 0000
00000010: 0000 0000 0000 0000 0000 0000 0000 0000
00000020: 0000 0000 0000 0000 0000 0000 0000 0000
00000030: 0000 0000 0000 0000 0000 0000 0000 0000
00000040: 0000 0000 0000 0000 0000 0000 0000 0000
00000050: 0000 0000 0000 0000 0000 0000 0000 0000
00000060: 0000 0000 0000 0000 0000 0000 0000 0000
00000070: 0000 0000 0000 0000 0000 0000 0000 0000
00000080: 0000 0000 0000 0000 0000 0000 0000 0000
00000090: 0000 0000 0000 0000 0000 0000 0000 0000
000000a0: 0000 0000 0000 0000 0000 0000 0000 0000
000000b0: 0000 0000 0000 0000 0000 0000 0000 0000
000000c0: 0000 0000 0000 0000 0000 0000 0000 0000
000000d0: 0000 0000 0000 0000 0000 0000 0000 0000
000000e0: 0000 0000 0000 0000 0000 0000 0000 0000
000000f0: 0000 0000 0000 0000 0000 0000 0000 0000
0.0 0.0 0.0 0.0 0.0 0.0 0.0 0.0
0.0 0.0 0.0 0.0 0.0 0.0 0.0 0.0
0.0 0.0 0.0 0.0 0.0 0.0 0.0 0.0
0.0 0.0 0.0 0.0 0.0 0.0 0.0 0.0
0.0 0.0 0.0 0.0 0.0 0.0 0.0 0.0
0.0 0.0 0.0 0.0 0.0 0.0 0.0 0.0
0.0 0.0 0.0 0.0 0.0 0.0 0.0 0.0
0.0 0.0 0.0 0.0 0.0 0.0 0.0 0.0

GnBlock0.conv.lins.0.weight f4 [64, 64]
00000000: 7fa0 31be e9f0 a73d 69a1 6a3d 5f40 f43d
00000010: 03dc e93c 1b3f ce3d 30c6 263b 7237 2cbe
00000020: d82f ba3d 04aa a93d 01ba 343e 5c50 a0bd
00000030: 5e34 403d f314 193b 3bb2 bebd b2cc 2b3d
00000040: 5d57 3c3e 074f 193d 82ad edbd 6feb 323e
00000050: 2770 02be e502 3dbe 997a 2e3e 179f 59bc
00000060: d6c5 123e 3209 b7bd 1ba8 c53d 5b70 6cbd
00000070: b065 8ebd 6d69 3b3d 6212 af3c e147 3d3d
00000080: 1bf0 873d c54f a63d 7bc9 c93d 25f4 42be
00000090: 7ab9 1e3c abca b63d 936d 2ebe b698 003d
000000a0: 6d75 d7bd 5049 b0bd 17bf 553e e85f 44be
000000b0: f310 18bd a8a1 fa3c cc08 26bd 19b2 2f3e
000000c0: 1b39 4ebe 1452 d1bc 6be7 89bc c69e a23d
000000d0: b417 813d 6de4 91bb 7a3d 323e f9b0 ea3d
000000e0: 7937 1fbe d629 933a 3efa 403e d58f 5dbe
000000f0: fd5e 0f3e 212a 3ebe d478 283e aa1f 613d
00000100: ce9e 003e a3a3 76bd 3e31 cfbb e8f8 153d
00000110: faf7 bcbd 0a32 4a3e bad6 34be 30cd 72bd
00000120: e720 2b3e ff18 ecbb bf2a 0d3e 2425 01be
00000130: 578a 17be ad8b 7e3d 95ba 463e 6110 233e
00000140: ff1f d6bd a542 94bc ae37 813d 29df 26be
00000150: 1ce1 c73b 746b f3bc 6ce2 2dbe fd8a 123e
00000160: 7fd8 3b3d 1af6 57be 9422 e0bd f9f6 3d3e
00000170: 98fc 353c e8c5 083e b570 563e 12c8 273e
00000180: 7afb f2bd c90b 013d c0b8 32be 2f63 203e
00000190: e8a2 35be 7b3a b53d 1ec2 473e 00fc 52bd
000001a0: 9fd1 c3bd 09d7 4c3e faed 183c 8fa8 3f3e
000001b0: f243 21bd f52c 923b 650f 9d3d 8468 d43d
000001c0: e162 be3d d82b 4d3e 6395 20be 8404 863c
000001d0: 649c 72bd 983b 04be 0672 153d be1e 46be
000001e0: 5765 2abe 8310 12be 1580 1f3e 8b80 f73d
000001f0: 2cf0 5b3e 4160 f93c ab4b dcbd b2f3 b93d
00000200: 1734 edbd b56b 4ebe e2d2 5b3e e4c1 22be
00000210: c188 a4bd 5822 57be 0e73 14be e0b3 c2bd
00000220: f51a efbd debd 353e e943 2f3d 72af 273e
00000230: 8786 863d 92bf 33be b494 aebd b527 883d
00000240: d3fa 453e 400d f4bd 1df2 50be f77f eb3d
00000250: 34c6 00be c5bd c83d 640d 443e 382f 683d
00000260: 5048 dc3d ead0 1b3d 771e 113e cee6 f03d
00000270: d491 48be 812f af3d cbc3 58be ce10 5d3e
00000280: 7264 febd c65e 473b 2ac3 4f3e a2c6 10be
00000290: aefc 3b3d 33c8 08be 89aa 03be 01a1 f23d
000002a0: 5e1b 2c3c 0d66 2e3e 410b 1dbe 1696 fa3d
000002b0: b967 2ebe b0de a83d 2b8b 133e b7d5 81bd
000002c0: 7cd4 fd3b cf05 cdbd dc2e e93c d0fa 023e
000002d0: 8c53 ef3d fcb7 863d 3c8e 05be 4774 573e
000002e0: dd39 2e3e 125e d4bd 1634 02be 3999 4b3d
000002f0: 5109 e33d 9af9 a53d 98e2 c63d af86 a9bd
00000300: 398c 4dbe 44f6 3e3d a62c 7fbd a40a 1cbd
00000310: 6788 f73d eb17 03be 6e72 083d 1346 f23d
00000320: f50d 80bd 87b8 d63d f70f 063e 69f1 803d
00000330: 52d6 46bd 0949 f7bd 9623 54bc dbf2 3ebd
00000340: cd49 e1bd bd7d d23d cbb8 b63d 2f0a 19be
00000350: 10b1 383d bde6 aa3c 3503 dfbb 1c4f 773d
00000360: 95de 033e 2234 59bd 207c 573e ede0 d23d
00000370: fda3 303e 4f3e 01be 187b 28bd ccd8 eabd
00000380: 71ff c3bd 7900 e9bc f489 543e 35d7 193e
00000390: 00a2 47be bb02 3a3e 6a25 013e ad78 44be
000003a0: 9fef 20be 4c41 5b3d 51b9 bdbd c99a 37be
000003b0: 954b 1d3e 1409 583e f4d5 7c3d 5bfd 2ebe
000003c0: ce7d 323e 8783 15be c400 083e a5c3 12b9
000003d0: 0eca 573d f7a2 c03d 7f8f b93d 11b8 013d
000003e0: d4ed 51bd 6765 10be b00c 10be a19b 183e
000003f0: 1b2b 19be 35d6 3d3e 2f4f 0a3e fccc e53d
-0.1734638 0.08200247 0.05728284 0.1192634 0.028547293 0.1007063 0.0025447719 -0.16818026
0.09091157 0.08284381 0.1764908 -0.07827827 0.04692494 0.0023358434 -0.093113385 0.04194326
0.18392701 0.037428882 -0.116053596 0.17472623 -0.12738095 -0.18458135 0.17038955 -0.013282559
0.14333281 -0.08937301 0.09651204 -0.057724338 -0.06952989 0.04575484 0.02137107 0.046211127
0.06637593 0.081206836 0.098528825 -0.19038446 0.009687776 0.089253746 -0.17033987 0.031395636
-0.10520444 -0.08607733 0.20873676 -0.1917721 -0.03712554 0.030594662 -0.040535733 0.17157783
-0.20138972 -0.025551833 -0.016833981 0.0794044 0.06303349 -0.0044522793 0.17406264 0.11459536
-0.15548505 0.0011227678 0.1884546 -0.21636899 0.14001079 -0.18570758 0.16452342 0.054961838
0.12560579 -0.06021465 -0.006323009 0.03661433 -0.09226985 0.19745651 -0.17660037 -0.059277713
0.1671177 -0.007205128 0.13785838 -0.12611824 -0.14798866 0.062144924 0.19407113 0.15924217
-0.104553215 -0.018098185 0.06309448 -0.16296066 0.006099833 -0.029714324 -0.16980904 0.14310832
0.045860764 -0.21089974 -0.10944095 0.18551244 0.011107586 0.13356745 0.20941432 0.16384915
-0.118643716 0.03150538 -0.17453289 0.15662836 -0.17737925 0.08849045 0.19507644 -0.051509857
-0.095614664 0.20003904 0.009334082 0.18716644 -0.03937144 0.0044609257 0.07668952 0.10371497
0.092962034 0.20036256 -0.15681987 0.016359575 -0.059231177 -0.12913358 0.036485694 -0.19347665
-0.1664022 -0.14264111 0.15576203 0.120850645 0.21478337 0.030441405 -0.1075662 0.09079684
-0.11582201 -0.20158274 0.21467164 -0.15894276 -0.08033896 -0.21009195 -0.14497015 -0.09506965
-0.116750635 0.1774821 0.042789374 0.16375521 0.06568628 -0.17553547 -0.085244566 0.066481985
0.19333963 -0.1191659 -0.20404859 0.11499017 -0.12575608 0.09801821 0.19145733 0.056685656
0.1075598 0.038041033 0.14171778 0.117627725 -0.19586879 0.085539825 -0.21168439 0.21588442
-0.12421502 0.003042148 0.20289293 -0.14138272 0.04589527 -0.1335762 -0.12858023 0.11847115
0.010504572 0.17031117 -0.15336324 0.12235658 -0.17031755 0.08245599 0.14408557 -0.06339591
0.0077462774 -0.100108735 0.028464727 0.1279099 0.11685857 0.06578061 -0.1304254 0.2104045
0.1701426 -0.10369505 -0.12715182 0.04970667 0.11085761 0.08104248 0.09711188 -0.08277642
-0.20073022 0.046621576 -0.06229844 -0.038096085 0.120865636 -0.12802093 0.033312254 0.11829772
-0.06252662 0.104844145 0.13092028 0.06296045 -0.048544236 -0.12074477 -0.0129479375 -0.046618324
-0.110004045 0.10277889 0.08921965 -0.14945291 0.045090735 0.020861978 -0.006805802 0.06037818
0.12877877 -0.053028233 0.21043444 0.102968074 0.17250057 -0.12621425 -0.041133016 -0.11467132
-0.09570206 -0.028442608 0.2075575 0.15023501 -0.19495392 0.18165104 0.12611929 -0.19186659
-0.15716408 0.05352907 -0.09263862 -0.1793014 0.15360864 0.21097213 0.06172748 -0.17088835
0.17430803 -0.14600955 0.13281542 -0.00013996528 0.05268293 0.09406083 0.09060573 0.03166968
-0.0512522 -0.14101182 -0.1406734 0.14903118 -0.1495785 0.18538745 0.13506769 0.11220738

GnBlock0.conv.lins.1.weight f4 [64, 64]
00000000: 397b 0ebe af87 b8bd c440 21be 1d12 5a3e
00000010: 3cfd 3e3e bd47 393e b30e 363d d9ed 4dbe
00000020: a526 cabd 599d df3d 3121 d93c 7cd5 36be
00000030: 2bb1 5c3e 8f19 bfbc a833 3cbe 6be6 99bc
00000040: 096d 6b3d 9b0f 8abd 18bb 7abc 255e 9fbd
00000050: 3aa5 c3bc 120e 47bd 03cc 153e 8831 223e
00000060: 50dc e2bb 2d4e 31bd 0b24 103b d0b3 4f3e
00000070: 4610 5b3e 531a 6f3d e719 b33d e49a 563d
00000080: a313 3bbb 5bd2 9abd 35a2 e73d 75b9 be3d
00000090: 7ee8 7cbc 71ac 0d3e 339b d03d e78e c43d
000000a0: 2415 253e b6e4 393e a7f9 e83c a759 5dbe
000000b0: 87ec 0dbe ba8b 0e3e 14aa e43d 9ee6 253d
000000c0: dcfa 813d 8ef7 30be 249b f93d 6a48 273c
000000d0: c314 85bd 98e6 dc3c 7e3a 4d3e d2d5 143e
000000e0: c442 42be 080b c3bd 11e8 a33c 8cb1 3a3e
000000f0: 1d4a 913d 5075 ed3d dbb5 243d 6c6b 51be
00000100: fc75 323e e660 053e c65c 7e3d 166b d6bd
00000110: 60e2 62bc 65b2 03bd f8d6 4b3e 6971 453e
00000120: 0df0 083e a115 2cbd b28b 75bc 3488 8d3d
00000130: ad39 133e ea06 233e 8862 14be c98e b5bd
00000140: 8933 9fbd e1bf f13d 8d70 0f3e 2bb4 8b3d
00000150: 5278 29be 092f 7b3c 916f 2cbe fb92 353e
00000160: 472e 3cbe a858 f83d ad63 4a3d c619 14be
00000170: 9467 043e 3e75 363e 33da 07bd cfb7 d63d
00000180: 46af ba3d 4b34 1ebe 1711 283e 8ad0 4cbe
00000190: c27e 1a3e 5c94 613d 4c2b a23d 7bce 52bc
000001a0: fe1d fa3d 8d1c 303d ca60 0e3e 2796 953d
000001b0: c28c 7ebd 0e21 32bd 7df5 3a3d 386c 22be
000001c0: 742a c33d 12f4 40be 52b8 233e 6e86 533d
000001d0: 0dea f0bc 4083 8dbd 79a5 4abe d88e d03d
000001e0: b8de 02be 5e95 473e b046 0ebe 29b9 ce3d
000001f0: 6ae1 0d3e bdf3 573e 497c 663d 42f0 fcbd
00000200: 3041 9f3d 206d edbb 3e90 ccbd 01df 403d
00000210: b12c 32bb c1a1 1c3e 468a 343e 7d58 43be
00000220: 5892 04be cf15 f83c 6bfa 25be 4703 06be
00000230: 3081 143d 44cb 4fbe e0e5 30bd c9f0 40be
00000240: 0100 b6bc 19bd bcbd 6a3a 3abe f58b 1fbe
00000250: f8ec e73a ed39 013e 37df 44bd 95c2 78bd
00000260: 8a99 45be 1a06 0e3e f699 e63d e794 113e
00000270: 0d0b bf3d 1bd3 173e 85b8 9cbd 223e eb3d
00000280: f343 4ebd 6eda da3d 3c69 4f3e 064e 0dbe
00000290: b56c 1dbe 565d 51bc 9af4 05be c1bf f3bd
000002a0: 0260 213e c1a7 d53d 4e0b 353e 277f 323d
000002b0: 7dc6 83bd 9e7a f5bd f9c9 353e c1cf f93d
000002c0: a85d 59be 81b4 243d 521c 73bd f303 a33d
000002d0: ccdb 2dbe a35c 713d 29a5 8dbd 8c63 25be
000002e0: d921 4b3e 1e5a 54bd 279e fabd 102b 12bd
000002f0: 2429 6a3d 0647 0b3c cb0b 72bd bfa5 02be
00000300: 497e 5abe 7a02 cfbd 3012 b33d fc44 0c3d
00000310: b2e9 2c3e c97a 52be 7131 09bd 6728 42be
00000320: a2ed 51be 9d0d 3c3e 2748 5abe 82b2 4a3e
00000330: 0b6b fd3c 92a0 28be 6130 21be eaf6 2dbe
00000340: 781c 2dbd 4904 b73d 1081 46be 304a 49bd
00000350: ef14 b0bd 1094 343e 2e69 35be 0436 d43d
00000360: 006d a13c f8a2 263e 241d 68bd 76c6 053e
00000370: 837f 94bd 2020 e7bd 8189 033d cc96 14be
00000380: 2518 363d 6262 523e f080 1abe 8d6a 48be
00000390: ecb3 00be d63f 9d3d b7c5 243d fb39 c2ba
000003a0: d238 2bbe 0e07 473e b994 e63b 9568 733d
000003b0: fb62 483e 0812 333e a60c f33d 2a6d e53d
000003c0: 33f6 a7bd 95f5 c73d 2d40 e33d 8ed5 54bd
000003d0: b3aa 39be 53a5 51bc 2e16 a13c 9175 853b
000003e0: f7b8 f63b 2ce0 453e 8f96 953b f0b2 21be
000003f0: d7d4 c0bd 7fbd 583e 039a b4bc 7c3c 28be
-0.13914193 -0.090102546 -0.15747362 0.21295972 0.18651289 0.18093772 0.044447612 -0.20110263
-0.09870652 0.109186836 0.026505085 -0.17854875 0.21551959 -0.023327617 -0.1837908 -0.01878663
0.05747703 -0.06741258 -0.015303396 -0.077816285 -0.023882497 -0.048597403 0.14628606 0.15839207
-0.006923236 -0.043287445 0.002199414 0.20283437 0.21392927 0.058374714 0.08745175 0.05239381
-0.002854564 -0.07559653 0.113102354 0.09312717 -0.01543629 0.13835312 0.10185852 0.09597569
0.16121346 0.18153653 0.028439356 -0.21616231 -0.1385976 0.13920489 0.11165252 0.040503137
0.06346676 -0.17281935 0.12187794 0.010210136 -0.064981006 0.026965424 0.20041844 0.14534691
-0.18970782 -0.095235884 0.020008119 0.18231791 0.07094214 0.11594641 0.040212493 -0.20451134
0.1742782 0.13025245 0.062100194 -0.10469644 -0.013847917 -0.032152552 0.19906223 0.19281544
0.13372822 -0.042012814 -0.014986919 0.06910744 0.1437747 0.15920606 -0.14490712 -0.08865125
-0.077735014 0.11804176 0.14007778 0.06821474 -0.16549805 0.015331038 -0.16839434 0.1773185
-0.18377028 0.12126285 0.049411464 -0.14462957 0.12930137 0.17818162 -0.033167075 0.104842775
0.09115462 -0.15449636 0.1641277 -0.20001426 0.15087417 0.055073127 0.079184145 -0.012866612
0.12212752 0.04299598 0.1390411 0.0730403 -0.062145956 -0.043488555 0.045644272 -0.15861595
0.09529582 -0.18843105 0.15988281 0.051641874 -0.02940848 -0.069097996 -0.19789685 0.10183495
-0.12780273 0.19490573 -0.13894153 0.1009391 0.1385552 0.21089073 0.05627087 -0.12350513
0.077761054 -0.0072456747 -0.099884495 0.047087673 -0.0027187283 0.15296079 0.17630872 -0.19076724
-0.1294645 0.030283837 -0.16208808 -0.13087188 0.036256015 -0.20292383 -0.043187976 -0.18841852
-0.022216799 -0.09215755 -0.18186346 -0.15580733 0.0017694524 0.12619753 -0.048064437 -0.060732443
-0.19296852 0.13869515 0.112598345 0.14216958 0.0932828 0.14826624 -0.07652382 0.1148646
-0.05035777 0.106861934 0.20254987 -0.13799295 -0.153735 -0.012778601 -0.1308159 -0.119018085
0.1575928 0.10432387 0.17680094 0.043578293 -0.06434343 -0.11986278 0.17752828 0.12197829
-0.21227133 0.040211204 -0.05935318 0.07959738 -0.16978377 0.058926236 -0.069162674 -0.16151255
0.1983713 -0.051843755 -0.122371964 -0.0356856 0.05716814 0.00850082 -0.059093278 -0.1275854
-0.21337236 -0.10107894 0.08743703 0.034245476 0.16886023 -0.20554651 -0.033494417 -0.18960725
-0.20500806 0.18364568 -0.21316586 0.19794658 0.030934831 -0.16467503 -0.15741111 -0.16988721
-0.042263478 0.08936364 -0.19385171 -0.049143016 -0.08597743 0.17634606 -0.17715904 0.10361865
0.019705296 0.16273105 -0.056668416 0.13063988 -0.072508834 -0.11285424 0.032113556 -0.1451065
0.04445662 0.20545343 -0.15088248 -0.19571896 -0.12568635 0.07678191 0.040227618 -0.0014818305
-0.16720894 0.19436285 0.007036772 0.05942591 0.19569008 0.17487347 0.11867647 0.11202462
-0.08201256 0.09763638 0.11096225 -0.051961474 -0.18131523 -0.012795764 0.019663896 0.004072853
0.0075293737 0.19323796 0.004565067 -0.15790915 -0.09415596 0.21166037 -0.022046095 -0.16429323
